challenge_6/ai_service/ai/checkpoints/experiments/exp_single_lstm_best.pt (torch, 204950 bytes, 9 tensors)

lstm.weight_ih_l0 f4 [256, 1]
0	0xbe1b4a9f	-0.15165184
1	0x3da107df	0.078628294
2	0xbce5d8cf	-0.028057484
3	0x3e0e47fc	0.13894647
4	0xbcf739e0	-0.030178964
5	0xbe44d58d	-0.19222088
6	0x3d4dcff4	0.050247148
7	0x3db2e1b6	0.08734457
8	0x3d987120	0.07443452
9	0x3dae6467	0.08515244
10	0x3e134a24	0.14383751
11	0x3e2b847d	0.16749759
12	0xbe058d08	-0.1304208
13	0xbb77af02	-0.0037793522
14	0xbd840e94	-0.06448093
15	0xbdacf264	-0.0844467
16	0x3e1ed922	0.15512517
17	0x3e794366	0.24342117
18	0xbd8cf787	-0.068831496
19	0xbd2585f1	-0.04041094
20	0x3df03dae	0.117305145
21	0xba9f8eee	-0.0012173334
22	0x3c14497a	0.009050721
23	0x3d94fe66	0.07275085
24	0x3dea035d	0.11426423
25	0x3e4dcfb2	0.2009876
26	0x3e03617e	0.12830159
27	0x3e026a10	0.12735772
28	0x3de2daa3	0.11076858
29	0x3e23f929	0.16013016
30	0x3db9943b	0.09061476
31	0xbdaac78a	-0.0833884
32	0xbd460062	-0.04834021
33	0xbb7d7275	-0.0038672958
34	0xbb9b3ff4	-0.0047378484
35	0xbd58b7c2	-0.05290962
36	0xbc04bfc8	-0.008102365
37	0x3d1c1835	0.038109023
38	0x3e323408	0.17402661
39	0x3dac32ee	0.084081516
40	0xbcd6deab	-0.026229223
41	0x3e4e2105	0.20129783
42	0x3e34ec36	0.17668232
43	0xbe1594da	-0.14607564
44	0x3e02cfc4	0.12774569
45	0x3d92c913	0.07167258
46	0x3e2e3045	0.17010601
47	0x3c35cff3	0.011096942
48	0xbd17d3b4	-0.03706713
49	0x3e43cce2	0.19121125
50	0xbd16d828	-0.036827236
51	0x3de2a20e	0.11066066
52	0x3d9404a8	0.072274506
53	0x3e29d416	0.1658481
54	0x3d9f9863	0.07792737
55	0x3df28664	0.11842039
56	0x3e117ea3	0.14208464
57	0x3da340ec	0.07971367
58	0x3d50dd7a	0.050992467
59	0xbded16a5	-0.11576585
60	0xbdccd8a3	-0.10002258
61	0x3e42ffe7	0.19042931
62	0x3d7ce85e	0.06174504
63	0x3e1f1de4	0.15538746
64	0xbd87c0bb	-0.06628557
65	0xbda6e05e	-0.081482634
66	0x3d02c9da	0.031930782
67	0xbda8ac97	-0.08236044
68	0x3cc2e940	0.023792863
69	0xbe261d87	-0.16222201
70	0x3cd465d6	0.025927465
71	0xbdbb9945	-0.09160093
72	0x3e33f2de	0.17573115
73	0xbdc73e9a	-0.09728737
74	0xbdeadc93	-0.114678524
75	0xbd937d04	-0.07201579
76	0x3bd53dc7	0.0065076086
77	0xbdbc3983	-0.09190657
78	0x3e10bc44	0.14134318
79	0x3e3bb57b	0.18330948
80	0x3dd60594	0.10450283
81	0xbc5621ef	-0.013069614
82	0x3e3af571	0.18257691
83	0x3d50bbc8	0.050960332
84	0xbdd0b22f	-0.10190236
85	0x3e3a480a	0.18191543
86	0x3e0515c9	0.12996592
87	0x3ddac211	0.106815465
88	0x38a333dc	7.782105e-05
89	0x3e072387	0.13197146
90	0xbc8dad17	-0.01729445
91	0x3e0e34ac	0.1388728
92	0xbdb8ba28	-0.090198815
93	0x3d22df51	0.039763752
94	0xbd04b047	-0.032394674
95	0x3aef75e9	0.0018269393
96	0xbe860aa3	-0.2617999
97	0xbd6572e5	-0.056017775
98	0x3ceec4b6	0.029146533
99	0x3d838f60	0.06423831
100	0xbdaf28df	-0.085527174
101	0xbc895265	-0.016762922
102	0xbda8dcde	-0.08245252
103	0x3cf6a653	0.030108606
104	0xbb2cb1a5	-0.0026351002
105	0xbdc2884b	-0.09498652
106	0x3e1ca647	0.15297805
107	0xbdb01cb4	-0.08599225
108	0x3de0e7dc	0.10981724
109	0x3e0a1987	0.134863
110	0x3ddef50c	0.10886583
111	0x3dca6b12	0.09883703
112	0x3d38a9f3	0.04508395
113	0xbd0f31f6	-0.034959756
114	0xbc98a7a2	-0.018634621
115	0x3e22326e	0.1583955
116	0x3e2e867c	0.17043489
117	0x3d7b4f11	0.0613547
118	0xbc1c96d0	-0.009557441
119	0xbd8030ac	-0.062592834
120	0xbde1bfe7	-0.110229306
121	0xbd3545fb	-0.04425619
122	0x3dd1ec56	0.10250156
123	0x3d8d023f	0.06885194
124	0xbd25531e	-0.04036247
125	0x3e23732e	0.15961906
126	0xbd3a4470	-0.045475423
127	0x3dab4d22	0.08364321
128	0xbd759e43	-0.059965383
129	0xbe03d76f	-0.1287515
130	0x3cfd0cd6	0.03088991
131	0xbd9146e5	-0.070936
132	0x3d82f38a	0.06394108
133	0x3dd05928	0.10173255
134	0xbdf37555	-0.11887614
135	0xbdb1b252	-0.0867659
136	0xbe157f0c	-0.14599246
137	0x3dbf0a99	0.09328193
138	0x3d31eea5	0.04344048
139	0x3e30a033	0.17248611
140	0x3e1dc396	0.15406641
141	0x3cd44434	0.025911428
142	0x3c17b426	0.009259259
143	0x3e0059e4	0.1253429
144	0xbd7fe70a	-0.062476195
145	0x3e337642	0.1752558
146	0xbe2fd938	-0.17172706
147	0x3e103283	0.14081769
148	0x3df32114	0.118715435
149	0xbd9311ad	-0.07181106
150	0xbe121157	-0.14264427
151	0x3dacdf83	0.08441069
152	0x3d744838	0.059639186
153	0xbe30ad19	-0.17253532
154	0xbe014a1b	-0.12625925
155	0xbe223815	-0.15841706
156	0xbe1896c8	-0.14901268
157	0x3df5b9c5	0.11998323
158	0x3e04ab83	0.12956052
159	0x3e3315ba	0.17488757
160	0xbd0e1bd8	-0.034694523
161	0x3d9ba6e1	0.07600189
162	0xbd9d9ec0	-0.07696295
163	0x3ccf2a0f	0.02528861
164	0x3d49e459	0.049290035
165	0xbd92d174	-0.07168856
166	0xbdb8c5db	-0.09022113
167	0x3e0545b5	0.13014872
168	0xbd96e652	-0.07368149
169	0xbe3229f2	-0.17398813
170	0x3e0772e0	0.13227415
171	0x3ce5bd3f	0.028044341
172	0xbdb13aea	-0.08653815
173	0xbe359a7d	-0.17734714
174	0x3dc91d9c	0.09820101
175	0xbe0c8445	-0.13722332
176	0xbde84b06	-0.113424346
177	0x3e217d12	0.15770367
178	0x3e3874de	0.18013331
179	0xbdf219a2	-0.11821295
180	0x3df556f3	0.11979475
181	0xbe0c9475	-0.13728507
182	0xbbe7fc1e	-0.0070796153
183	0xbe2349a4	-0.1594606
184	0x3db562a9	0.088567086
185	0xbe0dfbae	-0.1386554
186	0x3e234bc5	0.15946873
187	0x3e28930a	0.16462341
188	0x3ce19fb1	0.027541967
189	0x3e26b073	0.16278248
190	0x3d9f7ff7	0.07788079
191	0x3d889b6c	0.06670269
192	0xbdbe4916	-0.09291284
193	0xbd985003	-0.07437136
194	0xbe2b422b	-0.1672446
195	0x3d81fa4e	0.0634657
196	0xbb3388d6	-0.0027394793
197	0xbe2712f6	-0.16315827
198	0x3e2768e1	0.16348602
199	0x3e0f205e	0.13977191
200	0x3ca65b4b	0.020307204
201	0x3e3c4390	0.18385148
202	0xbdcce715	-0.10005013
203	0xbd515c92	-0.051113673
204	0x3d64dfb2	0.055877395
205	0xbdbc3d2c	-0.09191355
206	0xbcf78de3	-0.030219024
207	0x3e0c364c	0.13692588
208	0x3cd181df	0.025574623
209	0x3e1424da	0.14467183
210	0x3ca5b866	0.02022953
211	0x3cc9f164	0.024651237
212	0x3e57519d	0.21027227
213	0x3dbab4a5	0.091164865
214	0x3de966fd	0.113965966
215	0x3e457df0	0.19286323
216	0x3dcde134	0.1005272
217	0x3e1543a6	0.14576587
218	0x3df39359	0.11893339
219	0x3e31b475	0.17353995
220	0xbda5daf7	-0.08098405
221	0x3d0fe991	0.035134856
222	0xbcc5cfe5	-0.024146983
223	0xbdbe026a	-0.09277804
224	0xbe669d23	-0.2252088
225	0x3da96247	0.08270698
226	0xbc58c776	-0.013231149
227	0x3e1d51fe	0.15363309
228	0x3e29e6e3	0.16591983
229	0x3e24abbc	0.16081136
230	0x3db3135a	0.087439254
231	0xbd67c5ad	-0.056585003
232	0xbda74381	-0.08167172
233	0xbdaaa095	-0.0833141
234	0xbd2cce94	-0.042189196
235	0x3d383178	0.044969052
236	0x3abd3254	0.0014434555
237	0xbdc46984	-0.09590438
238	0x3de07766	0.109602734
239	0xbc8cc6b0	-0.017184585
240	0x3d3671f0	0.044542253
241	0x3de3fda1	0.1113236
242	0x3de520ef	0.11187922
243	0x3e453378	0.19257915
244	0x3e3aa39a	0.18226472
245	0x3e27f0a8	0.16400397
246	0xbd348a00	-0.04407692
247	0x3dbc0f72	0.091826335
248	0x3cc0218e	0.0234535
249	0xbd2a230a	-0.041537322
250	0x3d2b7691	0.04186112
251	0xbdcf642d	-0.10126529
252	0x3e3f90ae	0.18707535
253	0xbb9f61e8	-0.0048639663
254	0x3db7b98d	0.08970938
255	0x3cb0c706	0.021579277

lstm.weight_hh_l0 f4 [256, 64]
0	0xbd77ebf4	-0.060527757
1	0x3db7b9f7	0.08971017
2	0x3afca0f9	0.0019274048
3	0xbb9c4c2f	-0.004769824
4	0xbdbe4c51	-0.092919
5	0xbe2cab7e	-0.16862294
6	0xbd10e83c	-0.035377726
7	0x3c6e9987	0.014562971
8	0x3b5ee895	0.0034013141
9	0xbdc5a10f	-0.0964986
10	0xbc8fdab2	-0.017560337
11	0xbdde3732	-0.108503714
12	0xbc52739a	-0.012844944
13	0xbca6831e	-0.020326193
14	0x3b0511f8	0.00203049
15	0xbe494993	-0.19656973
16	0x3cc500b6	0.02404819
17	0xbdabc776	-0.083876535
18	0x3e184740	0.1487093
19	0xbde0dd8c	-0.10979757
20	0xbd43a30a	-0.047762908
21	0x3d961601	0.07328416
22	0x3bcf1884	0.006320061
23	0xbd00997f	-0.031396385
24	0x3e12198e	0.14267561
25	0x3da5cadd	0.08095334
26	0xbc3bbb6f	-0.011458262
27	0x3e018743	0.12649255
28	0x3dc5bab2	0.0965475
29	0x3d543113	0.051804613
30	0xbdf1e981	-0.118121155
31	0xbdbe6944	-0.092974216
32	0xbd5e7dfc	-0.054319367
33	0x3d071f3c	0.03298877
34	0xbd7dd634	-0.06197186
35	0x3c2f9fa2	0.010719212
36	0x3dcef2ce	0.10104905
37	0xbcb9cecd	-0.022681618
38	0xbb9536c4	-0.0045536477
39	0x3bf72d8d	0.007543272
40	0xbd0d7072	-0.034531064
41	0x3d4b1a3a	0.04958556
42	0x3d2e0212	0.042482443
43	0xbe34cbc1	-0.17655851
44	0x3cee5adb	0.029096058
45	0x3db588d8	0.088639915
46	0x3c0f11de	0.008732287
47	0x3d901720	0.07035661
48	0x3c7e38a4	0.015516434
49	0xbc83cb32	-0.016088102
50	0xbd66cb71	-0.05634636
51	0x3e4a87e7	0.19778405
52	0xbd003138	-0.03129694
53	0xbddfebd7	-0.10933655
54	0xbd38efcc	-0.045150563
55	0x3cd458b3	0.025921201
56	0x3ced8e9a	0.028998662
57	0xbd3bb112	-0.045823164
58	0xbce898e2	-0.028393213
59	0xbdfd1337	-0.123571806
60	0xbc8858f9	-0.016643988
61	0xbe12e4bf	-0.14345072
62	0x3dabac6d	0.08382497
63	0xbd9dae36	-0.07699244
64	0x3db6c880	0.08924961
65	0x3d15a1f6	0.03653141
66	0xbd7cae19	-0.06168947
67	0xbd7aa592	-0.061193056
68	0xbc661552	-0.014043169
69	0x3dd81388	0.105506
70	0xbba9bf35	-0.0051802644
71	0xbd4746db	-0.048651557
72	0xbcfaef04	-0.03063155
73	0x3db1f4f9	0.08689303
74	0x3c4dcc81	0.012560965
75	0x3d50152d	0.050801445
76	0xbcac09b7	-0.021000726
77	0x3d41919e	0.047258012
78	0x3d1334d8	0.035939068
79	0x3bdee3ab	0.0068020425
80	0x3d8f0ff7	0.06985467
81	0x3dd2d017	0.10293596
82	0x3df0dbed	0.117606975
83	0xbb87f3fd	-0.0041489587
84	0x3d3fe606	0.046850227
85	0xbaf4d552	-0.0018679297
86	0x3c9f90ef	0.01947829
87	0x3d6a0a50	0.05713874
88	0xbc8fb68d	-0.017543102
89	0xbcb5f19e	-0.022209939
90	0xbc5d015e	-0.0134890955
91	0x3da21ada	0.07915278
92	0xbcc7428e	-0.024323728
93	0x3d06c395	0.032901365
94	0x3daee20a	0.08539207
95	0x3c921060	0.017830074
96	0x3d2cdb9a	0.042201616
97	0x3d98f3b8	0.07468361
98	0x3cd1d035	0.025611976
99	0x3c8acd9b	0.016943743
100	0x3cff1881	0.031139614
101	0x3d3ac819	0.045600984
102	0xbcda0a63	-0.02661628
103	0xbc9a3e4f	-0.01882854
104	0xbda0a244	-0.0784345
105	0x3cb59a5a	0.022168327
106	0xbdb333bb	-0.08750101
107	0x3c296cf0	0.010340914
108	0xbd4e5f1b	-0.05038367
109	0xbda85651	-0.082195885
110	0x3db85588	0.09000689
111	0x3d2127e4	0.039344683
112	0xbd1bb959	-0.03801856
113	0x3da06367	0.078314595
114	0x3e052077	0.13000666
115	0xbda7c092	-0.08191027
116	0x3d8cd282	0.06876089
117	0x3d4e6437	0.05038854
118	0x3d1fd621	0.03902257
119	0xbdc2a488	-0.09504038
120	0x3d246bf9	0.040142033
121	0x3c3bbc96	0.011458537
122	0x3d859c02	0.06523897
123	0x3dc3229b	0.09528085
124	0xbbc72be1	-0.006078229
125	0x3d8bd740	0.06828165
126	0x38b9fc6b	8.868504e-05
127	0xbd85f194	-0.06540218
128	0x3df0c130	0.117555976
129	0xbcb858c9	-0.022503274
130	0x3d86693e	0.06563042
131	0x3c915e15	0.017745057
132	0x3d77c108	0.060486823
133	0x3e33526e	0.17511913
134	0x3cd07cc3	0.025450116
135	0xbd96b4a6	-0.07358675
136	0xbc35eca7	-0.011103786
137	0x3d8185f2	0.06324376
138	0xbe1d9db1	-0.15392186
139	0x3db48850	0.08815062
140	0x3d2ceebb	0.04221986
141	0xbc3e7e1e	-0.011626748
142	0x3e0810a0	0.13287592
143	0xbc06ade5	-0.008220171
144	0x3e0b0edf	0.13579892
145	0xbd40edbd	-0.047101725
146	0xbb26ebd5	-0.0025470157
147	0xbd5451c4	-0.05183579
148	0xbd0e66a4	-0.034765854
149	0xbd8c88a7	-0.06862002
150	0x3c75a35b	0.01499256
151	0xbdd7d16f	-0.10537993
152	0xbe3f8ceb	-0.187061
153	0xbcf530e1	-0.029930534
154	0xbd9c9035	-0.07644693
155	0xbdb4f057	-0.08834904
156	0x3c1f3086	0.009716159
157	0x3c157587	0.009122259
158	0xbd15d7c6	-0.03658273
159	0xbd9fbb96	-0.07799451
160	0xbb3568ae	-0.0027680802
161	0xbd0e600b	-0.034759562
162	0x3cdc79e6	0.026913594
163	0xbb98a5f7	-0.0046584564
164	0x3d3a8f7e	0.045547
165	0x3e3b82c6	0.18311605
166	0xbd881daa	-0.06646283
167	0x3db77ddf	0.08959555
168	0x3d9536aa	0.07285817
169	0x3aeacbf6	0.0017913568
170	0x3cca7de9	0.024718242
171	0xbbfd3fdc	-0.00772856
172	0x3d4caaf3	0.049967717
173	0x3defc877	0.117081575
174	0xbcceb288	-0.025231615
175	0x3d526a48	0.05137089
176	0xbc93ade6	-0.018027257
177	0xbdff84ed	-0.124765255
178	0x3db6d476	0.089272425
179	0x3c6a9e19	0.01431992
180	0xbd47bcb2	-0.04876394
181	0xbc15d0f6	-0.009144058
182	0xbda352b8	-0.07974762
183	0x3b74967d	0.0037321143
184	0x3c6afb98	0.014342211
185	0xbdbc0acd	-0.091817476
186	0xbd1ff708	-0.039053947
187	0x3db74cec	0.089502186
188	0x3d5ac6bb	0.05341218
189	0x3cd82d80	0.026388884
190	0x3db33724	0.087507516
191	0xbd0fe59f	-0.035131093
192	0x3d2ebc8a	0.042660274
193	0xbc8ebd14	-0.017424144
194	0x3bbf8915	0.005845199
195	0x3c6ea946	0.014566725
196	0x3bed5f9a	0.0072440626
197	0x3e6f2eb0	0.23357654
198	0xbc833565	-0.016016671
199	0xbd570d00	-0.052502632
200	0x3d396218	0.045259565
201	0xbd210534	-0.039311603
202	0xbe16b3d0	-0.1471703
203	0x3db2fe12	0.08739866
204	0x3c996c4e	0.018728402
205	0xbcbe3cad	-0.023222292
206	0xbdc3d405	-0.09561924
207	0xbce648cc	-0.028110884
208	0xbdd1d983	-0.10246565
209	0x3dd35916	0.10319726
210	0xbc9d96d3	-0.019236958
211	0xbd1bae8c	-0.038008258
212	0xbcd41c01	-0.02589226
213	0xbd21ffc9	-0.039550576
214	0x3ce2bb19	0.027677106
215	0xbd2a7e2b	-0.04162423
216	0x3d0b7583	0.034047615
217	0x3dd43cd0	0.103631616
218	0xbe05bf1b	-0.13061182
219	0x3cb01b4c	0.021497391
220	0xbc340b51	-0.010989026
221	0xbbb22686	-0.0054367213
222	0xbc80523b	-0.01566421
223	0xbc085e2b	-0.008323233
224	0xbd35fe73	-0.044432115
225	0xbde1f890	-0.11033738
226	0x3d7e8557	0.06213888
227	0xbd4dba34	-0.050226405
228	0x3d89429f	0.0670216
229	0x3d016722	0.031592496
230	0x3d837470	0.06418693
231	0x3df5197b	0.11967751
232	0xbd833c6d	-0.0640801
233	0xbd4307ed	-0.04761498
234	0xbb594c75	-0.0033157144
235	0xbd123634	-0.035696223
236	0x3d792b52	0.06083233
237	0x3dcafdc9	0.09911687
238	0x3d9a29be	0.07527493
239	0x3d877a07	0.06615072
240	0x3c93b72c	0.01803168
241	0xbd93ad69	-0.0721081
242	0x3d04659f	0.032323476
243	0xbd53e5b4	-0.051732734
244	0x3d35f899	0.044426534
245	0xbdc57eb2	-0.09643306
246	0xbcd37d01	-0.025816442
247	0xbdbc9211	-0.092075475
248	0x3d27eb30	0.040995777
249	0x3da797c7	0.08183246
250	0x3d0cd7f8	0.03438565
251	0xbd90adc0	-0.0706439
252	0xbca2d2c8	-0.019875899
253	0x3d2ec342	0.04266668
254	0x3c824e6b	0.015906533
255	0xbd51653f	-0.051121946

lstm.bias_ih_l0 f4 [256]
0	0x3e03ca94	0.12870246
1	0x3d1a8d45	0.03773238
2	0x3dedc720	0.11610246
3	0x3d877434	0.06613961
4	0x3ce227a2	0.027606789
5	0x3e0589f4	0.13040906
6	0x3d277e76	0.040892087
7	0x3d555859	0.052086208
8	0x3d003fdf	0.031310912
9	0x3d297ee9	0.041380797
10	0x3d36b8c3	0.044609796
11	0x3d08e90d	0.03342538
12	0x3d89e714	0.06733528
13	0x3d44b6fc	0.04802607
14	0x3d4780c9	0.048706803
15	0x3d26a03c	0.040680155
16	0x3dd403fe	0.10352324
17	0x3d7af177	0.061265435
18	0x3d3f726d	0.046739984
19	0x3d040d5d	0.032239307
20	0x3d260cfe	0.040539734
21	0x3d3c3c1f	0.045955773
22	0x3cfd7827	0.030941082
23	0x3d37da57	0.04488596
24	0x3ead1298	0.33803248
25	0x3d20a3f7	0.03921887
26	0x3df393fd	0.11893461
27	0x3cedb9a3	0.029019183
28	0x3c66155b	0.0140431775
29	0x3d46a432	0.048496433
30	0x3d24ee30	0.040266216
31	0x3d23da8c	0.040003344
32	0x3e82b49e	0.25528425
33	0x3d31c8eb	0.0434045
34	0x3d0eb2d7	0.034838524
35	0x3d1b5082	0.037918575
36	0x3cea8d38	0.028631791
37	0x3ea12851	0.3147607
38	0x3d38e048	0.045135766
39	0x3d1ce7b8	0.03830692
40	0x3d42c587	0.047551658
41	0x3d36d35e	0.04463517
42	0x3d627da8	0.055295616
43	0x3ccb9b31	0.024854274
44	0x3ce59594	0.028025426
45	0x3d06fa34	0.032953456
46	0x3da1120a	0.07864769
47	0x3cfdddb5	0.030989507
48	0x3d528117	0.05139264
49	0x3d5b922d	0.0536062
50	0x3d257ff4	0.04040523
51	0x3d00aac0	0.03141284
52	0x3e148936	0.14505467
53	0x3d2fe57b	0.04294346
54	0x3d52b70d	0.051444102
55	0x3d3cb1c6	0.046067975
56	0x3d75645f	0.059910174
57	0x3d2cfd15	0.042233545
58	0x3d6b642c	0.05746858
59	0x3c6957b0	0.014242098
60	0x3d06d38a	0.032916583
61	0x3d27a283	0.040926468
62	0x3cb4b279	0.022057759
63	0x3d12e32a	0.03586117
64	0xbd6240b3	-0.055237483
65	0x3abb5a18	0.0014293818
66	0xbd1e9354	-0.03871472
67	0x3adc822f	0.0016823466
68	0x3aa8c7c9	0.0012876923
69	0x3d241cb5	0.04006644
70	0x3c214ff4	0.0098457225
71	0x3abf3a38	0.0014589494
72	0x3bfe1139	0.007753518
73	0x3bfd35b0	0.0077273473
74	0xbbf5c1c8	-0.007499907
75	0xbbbc83d1	-0.0057530184
76	0x3d15438a	0.036441363
77	0xbc45199d	-0.012030032
78	0xbcb0783f	-0.021541713
79	0x3c056562	0.008141847
80	0xbb9c4706	-0.004769209
81	0x3bd7588e	0.006571836
82	0x3c2f2162	0.010689111
83	0x3c1617e2	0.009160968
84	0x3c134352	0.008988218
85	0x3bcd76a4	0.0062702466
86	0xbbd36d38	-0.006452229
87	0x3bae9277	0.0053275186
88	0xbe8e833e	-0.27834505
89	0x3c23163c	0.009954032
90	0x3d38395f	0.04497659
91	0xbb1a24e3	-0.0023520521
92	0xbc005ccf	-0.007834627
93	0xbb0f9c96	-0.00219134
94	0x3b90b9d3	0.004416683
95	0x3c1f9740	0.009740651
96	0xbd146a64	-0.036234275
97	0x3bcc0af8	0.0062268935
98	0xbab27751	-0.0013615881
99	0xbcbce00c	-0.023056053
100	0xbc33310e	-0.0109369885
101	0xbe1f9e8f	-0.15587829
102	0xbb593d32	-0.0033148048
103	0x3c0129df	0.007883518
104	0xbba896a6	-0.005144912
105	0x3beaece5	0.0071693533
106	0x3c3118b1	0.01080911
107	0xbd0b4902	-0.034005173
108	0x3bd8ea73	0.0066197454
109	0x3b933154	0.0044919644
110	0xbc33ddee	-0.010978205
111	0xbbab1cce	-0.0052219396
112	0x3c0a8c1b	0.008456255
113	0x3c17c0f8	0.009262316
114	0xbab3ee28	-0.0013727592
115	0xbc57bc2a	-0.01316742
116	0xbc1b3e96	-0.009475371
117	0x3c3b2617	0.011422656
118	0xbcb1a03e	-0.021682855
119	0x3c391a82	0.011297824
120	0x3b96407b	0.0045853234
121	0x3c2e705f	0.010646909
122	0x3b8b9cd3	0.0042606383
123	0xbbeda232	-0.007252001
124	0xbaa18083	-0.0012321625
125	0x3c07a545	0.008279149
126	0xbc1385eb	-0.0090040965
127	0xbaaf3930	-0.0013368484
128	0xbd34bdbe	-0.044126265
129	0xbd50a60b	-0.0509396
130	0xbdc97d87	-0.098383956
131	0xbd8c17d0	-0.068404794
132	0x3d2f6a8e	0.042826228
133	0xbdd900cb	-0.10595854
134	0xbd3fde88	-0.04684308
135	0xbd8b80ac	-0.068116516
136	0xbd407421	-0.04698575
137	0x3d495e60	0.04916227
138	0x3d8672db	0.06564876
139	0x3d32c502	0.043644913
140	0xbd961a85	-0.07329277
141	0x3d9be7a1	0.07612539
142	0x3d8d4c0d	0.06899271
143	0x3d47bcc3	0.048764
144	0xbdc9b09c	-0.09848139
145	0x3cad3555	0.021143595
146	0xbd447688	-0.047964603
147	0x3d17714f	0.036973294
148	0x3d376e18	0.044782728
149	0xbd5ed6ec	-0.054404184
150	0xbd181dd5	-0.037137825
151	0x3d2026cd	0.039099503
152	0x3e54b287	0.20771228
153	0xbd27cbd3	-0.040965866
154	0x3cc222ad	0.023698175
155	0xbd0a4ce0	-0.03376472
156	0xbc6979ef	-0.014250263
157	0x3d396881	0.04526568
158	0x396d37af	0.00022622825
159	0x3d4b394d	0.049615193
160	0x3e4b1352	0.19831589
161	0x3d753797	0.059867468
162	0xbd3bf316	-0.04588612
163	0x3d828b5b	0.06374236
164	0x3d5342ac	0.051577255
165	0xbe5302f6	-0.20606598
166	0xbd494c51	-0.049145047
167	0x3d46327f	0.048388
168	0xbd83bd99	-0.06432647
169	0xbd53088e	-0.05152183
170	0x3d4de169	0.050263796
171	0xbd593e05	-0.053037662
172	0xbd0b8945	-0.034066457
173	0xbd25b046	-0.04045131
174	0x3d382292	0.044954844
175	0xbcf90d68	-0.0304019
176	0xbd566b4d	-0.052348424
177	0x3d56197a	0.05227039
178	0x3d280e32	0.041029163
179	0xbd300ac0	-0.042979002
180	0x3d695786	0.056968234
181	0xbd50515e	-0.050858848
182	0xbd93a7a3	-0.072097085
183	0xbd46dd46	-0.048550867
184	0x3d645c23	0.05575193
185	0xbd57e70b	-0.052710574
186	0x3d1dd5eb	0.038534086
187	0x3c3f87ac	0.011690062
188	0x3d51439f	0.05108988
189	0x3d25dc8a	0.040493526
190	0x3cc87a03	0.024472242
191	0x3d440ba8	0.04786268
192	0x3e012239	0.12610711
193	0x3d1e2c96	0.03861674
194	0x3dd63da1	0.104609735
195	0x3d8a1e80	0.06744099
196	0x3ce2e8bc	0.027698867
197	0x3e06fb4a	0.13181797
198	0x3d1ca40a	0.038242377
199	0x3d510306	0.051028274
200	0x3cfa124d	0.030526305
201	0x3d2679fb	0.040643673
202	0x3d313186	0.04326012
203	0x3d10fb42	0.035395868
204	0x3d926d50	0.07149756
205	0x3d404c0d	0.046947528
206	0x3d4aaf1b	0.0494834
207	0x3d1c5903	0.038170826
208	0x3dc690d3	0.09695592
209	0x3d7fe094	0.062470034
210	0x3d397963	0.04528178
211	0x3d02d7a0	0.031943917
212	0x3d1dfa6f	0.03856891
213	0x3d345d55	0.04403432
214	0x3cf3c45c	0.029756717
215	0x3d30ae96	0.043135248
216	0x3eaed1b2	0.3414436
217	0x3d1eb29f	0.038744565
218	0x3df46922	0.11934115
219	0x3cdcd0a6	0.02695496
220	0x3c806ba4	0.015676327
221	0x3d4f06f9	0.05054376
222	0x3d2752be	0.040850393
223	0x3d23c265	0.03998031
224	0x3e7d0d4b	0.24712102
225	0x3d331d0d	0.043728877
226	0x3d10cc4b	0.03535108
227	0x3d1f9030	0.038955867
228	0x3cdaf262	0.026726905
229	0x3ea312d7	0.3185031
230	0x3d385ce4	0.045010462
231	0x3d1cc112	0.038270064
232	0x3d3e2571	0.046422426
233	0x3d3e099c	0.046395883
234	0x3d68fd3a	0.05688212
235	0x3cd53b0a	0.026029129
236	0x3ce4f070	0.02794668
237	0x3d0d70a0	0.034531236
238	0x3d9a46a1	0.07533003
239	0x3cf83e66	0.030303191
240	0x3d4d0824	0.05005659
241	0x3d5f864e	0.054571442
242	0x3d1a63f4	0.03769298
243	0x3cf0a360	0.029374778
244	0x3e1238e8	0.1427952
245	0x3d2ad3e5	0.041705985
246	0x3d41ac33	0.047283363
247	0x3d3b7589	0.045766387
248	0x3d7088b7	0.05872413
249	0x3d301c91	0.042995993
250	0x3d68334d	0.05668955
251	0x3c66cb80	0.014086604
252	0x3d0174dc	0.031605586
253	0x3d2e1f12	0.0425101
254	0x3cae9f28	0.021316126
255	0x3d11ff08	0.035643607

lstm.bias_hh_l0 f4 [256]
0	0x3e03ca94	0.12870246
1	0x3d1a8d45	0.03773238
2	0x3dedc720	0.11610246
3	0x3d877434	0.06613961
4	0x3ce227a2	0.027606789
5	0x3e0589f4	0.13040906
6	0x3d277e76	0.040892087
7	0x3d555859	0.052086208
8	0x3d003fdf	0.031310912
9	0x3d297ee9	0.041380797
10	0x3d36b8c3	0.044609796
11	0x3d08e90d	0.03342538
12	0x3d89e714	0.06733528
13	0x3d44b6fc	0.04802607
14	0x3d4780c9	0.048706803
15	0x3d26a03c	0.040680155
16	0x3dd403fe	0.10352324
17	0x3d7af177	0.061265435
18	0x3d3f726d	0.046739984
19	0x3d040d5d	0.032239307
20	0x3d260cfe	0.040539734
21	0x3d3c3c1f	0.045955773
22	0x3cfd7827	0.030941082
23	0x3d37da57	0.04488596
24	0x3ead1298	0.33803248
25	0x3d20a3f7	0.03921887
26	0x3df393fd	0.11893461
27	0x3cedb9a3	0.029019183
28	0x3c66155b	0.0140431775
29	0x3d46a432	0.048496433
30	0x3d24ee30	0.040266216
31	0x3d23da8c	0.040003344
32	0x3e82b49e	0.25528425
33	0x3d31c8eb	0.0434045
34	0x3d0eb2d7	0.034838524
35	0x3d1b5082	0.037918575
36	0x3cea8d38	0.028631791
37	0x3ea12851	0.3147607
38	0x3d38e048	0.045135766
39	0x3d1ce7b8	0.03830692
40	0x3d42c587	0.047551658
41	0x3d36d35e	0.04463517
42	0x3d627da8	0.055295616
43	0x3ccb9b31	0.024854274
44	0x3ce59594	0.028025426
45	0x3d06fa34	0.032953456
46	0x3da1120a	0.07864769
47	0x3cfdddb5	0.030989507
48	0x3d528117	0.05139264
49	0x3d5b922d	0.0536062
50	0x3d257ff4	0.04040523
51	0x3d00aac0	0.03141284
52	0x3e148936	0.14505467
53	0x3d2fe57b	0.04294346
54	0x3d52b70d	0.051444102
55	0x3d3cb1c6	0.046067975
56	0x3d75645f	0.059910174
57	0x3d2cfd15	0.042233545
58	0x3d6b642c	0.05746858
59	0x3c6957b0	0.014242098
60	0x3d06d38a	0.032916583
61	0x3d27a283	0.040926468
62	0x3cb4b279	0.022057759
63	0x3d12e32a	0.03586117
64	0xbd6240b3	-0.055237483
65	0x3abb5a18	0.0014293818
66	0xbd1e9354	-0.03871472
67	0x3adc822f	0.0016823466
68	0x3aa8c7c9	0.0012876923
69	0x3d241cb5	0.04006644
70	0x3c214ff4	0.0098457225
71	0x3abf3a38	0.0014589494
72	0x3bfe1139	0.007753518
73	0x3bfd35b0	0.0077273473
74	0xbbf5c1c8	-0.007499907
75	0xbbbc83d1	-0.0057530184
76	0x3d15438a	0.036441363
77	0xbc45199d	-0.012030032
78	0xbcb0783f	-0.021541713
79	0x3c056562	0.008141847
80	0xbb9c4706	-0.004769209
81	0x3bd7588e	0.006571836
82	0x3c2f2162	0.010689111
83	0x3c1617e2	0.009160968
84	0x3c134352	0.008988218
85	0x3bcd76a4	0.0062702466
86	0xbbd36d38	-0.006452229
87	0x3bae9277	0.0053275186
88	0xbe8e833e	-0.27834505
89	0x3c23163c	0.009954032
90	0x3d38395f	0.04497659
91	0xbb1a24e3	-0.0023520521
92	0xbc005ccf	-0.007834627
93	0xbb0f9c96	-0.00219134
94	0x3b90b9d3	0.004416683
95	0x3c1f9740	0.009740651
96	0xbd146a64	-0.036234275
97	0x3bcc0af8	0.0062268935
98	0xbab27751	-0.0013615881
99	0xbcbce00c	-0.023056053
100	0xbc33310e	-0.0109369885
101	0xbe1f9e8f	-0.15587829
102	0xbb593d32	-0.0033148048
103	0x3c0129df	0.007883518
104	0xbba896a6	-0.005144912
105	0x3beaece5	0.0071693533
106	0x3c3118b1	0.01080911
107	0xbd0b4902	-0.034005173
108	0x3bd8ea73	0.0066197454
109	0x3b933154	0.0044919644
110	0xbc33ddee	-0.010978205
111	0xbbab1cce	-0.0052219396
112	0x3c0a8c1b	0.008456255
113	0x3c17c0f8	0.009262316
114	0xbab3ee28	-0.0013727592
115	0xbc57bc2a	-0.01316742
116	0xbc1b3e96	-0.009475371
117	0x3c3b2617	0.011422656
118	0xbcb1a03e	-0.021682855
119	0x3c391a82	0.011297824
120	0x3b96407b	0.0045853234
121	0x3c2e705f	0.010646909
122	0x3b8b9cd3	0.0042606383
123	0xbbeda232	-0.007252001
124	0xbaa18083	-0.0012321625
125	0x3c07a545	0.008279149
126	0xbc1385eb	-0.0090040965
127	0xbaaf3930	-0.0013368484
128	0xbd34bdbe	-0.044126265
129	0xbd50a60b	-0.0509396
130	0xbdc97d87	-0.098383956
131	0xbd8c17d0	-0.068404794
132	0x3d2f6a8e	0.042826228
133	0xbdd900cb	-0.10595854
134	0xbd3fde88	-0.04684308
135	0xbd8b80ac	-0.068116516
136	0xbd407421	-0.04698575
137	0x3d495e60	0.04916227
138	0x3d8672db	0.06564876
139	0x3d32c502	0.043644913
140	0xbd961a85	-0.07329277
141	0x3d9be7a1	0.07612539
142	0x3d8d4c0d	0.06899271
143	0x3d47bcc3	0.048764
144	0xbdc9b09c	-0.09848139
145	0x3cad3555	0.021143595
146	0xbd447688	-0.047964603
147	0x3d17714f	0.036973294
148	0x3d376e18	0.044782728
149	0xbd5ed6ec	-0.054404184
150	0xbd181dd5	-0.037137825
151	0x3d2026cd	0.039099503
152	0x3e54b287	0.20771228
153	0xbd27cbd3	-0.040965866
154	0x3cc222ad	0.023698175
155	0xbd0a4ce0	-0.03376472
156	0xbc6979ef	-0.014250263
157	0x3d396881	0.04526568
158	0x396d37af	0.00022622825
159	0x3d4b394d	0.049615193
160	0x3e4b1352	0.19831589
161	0x3d753797	0.059867468
162	0xbd3bf316	-0.04588612
163	0x3d828b5b	0.06374236
164	0x3d5342ac	0.051577255
165	0xbe5302f6	-0.20606598
166	0xbd494c51	-0.049145047
167	0x3d46327f	0.048388
168	0xbd83bd99	-0.06432647
169	0xbd53088e	-0.05152183
170	0x3d4de169	0.050263796
171	0xbd593e05	-0.053037662
172	0xbd0b8945	-0.034066457
173	0xbd25b046	-0.04045131
174	0x3d382292	0.044954844
175	0xbcf90d68	-0.0304019
176	0xbd566b4d	-0.052348424
177	0x3d56197a	0.05227039
178	0x3d280e32	0.041029163
179	0xbd300ac0	-0.042979002
180	0x3d695786	0.056968234
181	0xbd50515e	-0.050858848
182	0xbd93a7a3	-0.072097085
183	0xbd46dd46	-0.048550867
184	0x3d645c23	0.05575193
185	0xbd57e70b	-0.052710574
186	0x3d1dd5eb	0.038534086
187	0x3c3f87ac	0.011690062
188	0x3d51439f	0.05108988
189	0x3d25dc8a	0.040493526
190	0x3cc87a03	0.024472242
191	0x3d440ba8	0.04786268
192	0x3e012239	0.12610711
193	0x3d1e2c96	0.03861674
194	0x3dd63da1	0.104609735
195	0x3d8a1e80	0.06744099
196	0x3ce2e8bc	0.027698867
197	0x3e06fb4a	0.13181797
198	0x3d1ca40a	0.038242377
199	0x3d510306	0.051028274
200	0x3cfa124d	0.030526305
201	0x3d2679fb	0.040643673
202	0x3d313186	0.04326012
203	0x3d10fb42	0.035395868
204	0x3d926d50	0.07149756
205	0x3d404c0d	0.046947528
206	0x3d4aaf1b	0.0494834
207	0x3d1c5903	0.038170826
208	0x3dc690d3	0.09695592
209	0x3d7fe094	0.062470034
210	0x3d397963	0.04528178
211	0x3d02d7a0	0.031943917
212	0x3d1dfa6f	0.03856891
213	0x3d345d55	0.04403432
214	0x3cf3c45c	0.029756717
215	0x3d30ae96	0.043135248
216	0x3eaed1b2	0.3414436
217	0x3d1eb29f	0.038744565
218	0x3df46922	0.11934115
219	0x3cdcd0a6	0.02695496
220	0x3c806ba4	0.015676327
221	0x3d4f06f9	0.05054376
222	0x3d2752be	0.040850393
223	0x3d23c265	0.03998031
224	0x3e7d0d4b	0.24712102
225	0x3d331d0d	0.043728877
226	0x3d10cc4b	0.03535108
227	0x3d1f9030	0.038955867
228	0x3cdaf262	0.026726905
229	0x3ea312d7	0.3185031
230	0x3d385ce4	0.045010462
231	0x3d1cc112	0.038270064
232	0x3d3e2571	0.046422426
233	0x3d3e099c	0.046395883
234	0x3d68fd3a	0.05688212
235	0x3cd53b0a	0.026029129
236	0x3ce4f070	0.02794668
237	0x3d0d70a0	0.034531236
238	0x3d9a46a1	0.07533003
239	0x3cf83e66	0.030303191
240	0x3d4d0824	0.05005659
241	0x3d5f864e	0.054571442
242	0x3d1a63f4	0.03769298
243	0x3cf0a360	0.029374778
244	0x3e1238e8	0.1427952
245	0x3d2ad3e5	0.041705985
246	0x3d41ac33	0.047283363
247	0x3d3b7589	0.045766387
248	0x3d7088b7	0.05872413
249	0x3d301c91	0.042995993
250	0x3d68334d	0.05668955
251	0x3c66cb80	0.014086604
252	0x3d0174dc	0.031605586
253	0x3d2e1f12	0.0425101
254	0x3cae9f28	0.021316126
255	0x3d11ff08	0.035643607

lstm.weight_ih_l1 f4 [256, 64]
0	0xbc1fddce	-0.009757472
1	0x3db09157	0.086214714
2	0xbccac0e9	-0.02475019
3	0xbd3c9613	-0.04604156
4	0xbd3d8e8a	-0.046278514
5	0x3c9290eb	0.017891368
6	0xbddc12f8	-0.107458055
7	0xbe011a5f	-0.12607716
8	0x3ccb6426	0.024828028
9	0xbdd06d43	-0.1017709
10	0xbd62934e	-0.055316262
11	0xbd8d708e	-0.06906234
12	0x3ca62523	0.02028138
13	0xbcf73a1e	-0.03017908
14	0xbc7b5d15	-0.015342017
15	0xbdc29fda	-0.095031455
16	0x3d0c19b8	0.034204215
17	0x3d8b1c7b	0.067925416
18	0xbc56bb58	-0.01310619
19	0x3d2280a0	0.039673448
20	0x3dae01bd	0.08496425
21	0xbba598b2	-0.005053603
22	0xbd5b4181	-0.053529266
23	0x3d90ec67	0.0707634
24	0x3d5f4782	0.054511555
25	0x3cf72bd3	0.030172264
26	0xbd48d7e7	-0.049034026
27	0x3d82a4c0	0.0637908
28	0xbd6263af	-0.055270847
29	0x3e0f8d1c	0.14018673
30	0xbd8354c9	-0.06412656
31	0x3ca4370c	0.02004578
32	0x3dd6a3a3	0.1048043
33	0x3bdde8f0	0.006772153
34	0x3d9d5998	0.07683104
35	0x3d95bdd5	0.07311598
36	0x3dd498c3	0.103806995
37	0xbd27e219	-0.040987108
38	0xbd201352	-0.039080925
39	0xbd588f82	-0.052871235
40	0xbd4bb349	-0.049731527
41	0xbe088fce	-0.13336107
42	0x3bf20b81	0.0073866253
43	0x3c8f5152	0.017494831
44	0xbd8c725a	-0.06857748
45	0xbd2d9bef	-0.042385038
46	0x3da27738	0.079328954
47	0x3dc38405	0.09546665
48	0x3dbdf176	0.09274571
49	0x3dc4469b	0.095837794
50	0x3da8d4df	0.08243727
51	0x3dbb656e	0.091502056
52	0x3e4807ee	0.19534275
53	0xbdd076ea	-0.10178931
54	0xbe1852d6	-0.1487535
55	0xbdf193f1	-0.11795796
56	0xbd31fdd1	-0.04345495
57	0x3de7c379	0.1131658
58	0xbdb65ca8	-0.089043915
59	0x3dc3179b	0.09525987
60	0x3c715b3e	0.0147312265
61	0xbc4ff009	-0.012691506
62	0x3e1c66fb	0.15273659
63	0xbd3c95be	-0.046041243
64	0xbca84c20	-0.020544112
65	0x3db921cf	0.090396516
66	0xbdb250d3	-0.08706822
67	0xbd8f28ef	-0.06990229
68	0xbd3d10fa	-0.04615877
69	0x3d7f0242	0.062258013
70	0xbc8810a9	-0.016609507
71	0x3ded7bef	0.11595904
72	0x3d1788ed	0.036995817
73	0x3d1d57e5	0.0384139
74	0x3e016040	0.12634373
75	0xbdf30315	-0.11865822
76	0xbcfb2e14	-0.03066162
77	0x3c8be203	0.017075544
78	0x3d7c42b2	0.061587043
79	0x3c64cb40	0.013964474
80	0xbe036767	-0.12832414
81	0x3e0c7d3b	0.13719647
82	0x3de2f535	0.11081926
83	0x3d8ddb75	0.06926624
84	0x3d5d1d98	0.0539833
85	0xbbbd6fd3	-0.0057811528
86	0xbd98147f	-0.07425784
87	0x3dd54514	0.10413566
88	0x3e523ea6	0.20531711
89	0xbc984be9	-0.018590884
90	0x3d3587ea	0.04431907
91	0xbce2865a	-0.027651954
92	0xbd855bf1	-0.06511677
93	0xbdd23727	-0.10264426
94	0x3d719172	0.058976598
95	0x3da5873d	0.08082435
96	0x3e45886a	0.19290319
97	0xba209bcb	-0.00061267306
98	0x3d9a6572	0.075388804
99	0x3e09d8a6	0.13461551
100	0x3c9c30d3	0.01906625
101	0xbe6f69ba	-0.23380175
102	0x3da86243	0.08221867
103	0x3d2f6eb3	0.04283018
104	0x3d6cee43	0.05784441
105	0xbdda516b	-0.106600605
106	0x3d98369d	0.07432292
107	0x3e0cda95	0.13755257
108	0x3dab8635	0.08375207
109	0xbde2a145	-0.11065916
110	0x3d352049	0.044220243
111	0xbcfd0235	-0.030884841
112	0x3dce73a5	0.10080651
113	0xbdbb553c	-0.091471165
114	0x3de88c4e	0.11354886
115	0xbdbf96bd	-0.09354923
116	0x3c86f1fe	0.016472813
117	0x3dda36c7	0.10654979
118	0x3dd658c7	0.10466152
119	0x3ceaabf0	0.02864644
120	0x3de3cfa1	0.111235864
121	0xbd685001	-0.056716923
122	0xbd099b1d	-0.033595193
123	0x3e10796a	0.14108816
124	0xbdf7d3c6	-0.121009395
125	0x3d82324e	0.06357251
126	0xbd387b9a	-0.04503975
127	0xbda759aa	-0.08171399
128	0xbdef4287	-0.11682611
129	0xbd7a350b	-0.061085742
130	0x3cb9ad89	0.022665756
131	0x3bc37c6c	0.00596576
132	0x3a3e2d0d	0.0007254638
133	0x3d4371d0	0.047715962
134	0x3e100e9e	0.14068076
135	0xbd1dbbd5	-0.03850921
136	0x3e0a83fe	0.13526914
137	0x3d642823	0.05570234
138	0xbceffbaa	-0.029294807
139	0x3d2f54d8	0.042805523
140	0xbda6039c	-0.08106157
141	0x3dfbc7b9	0.122939534
142	0x3ddd20b3	0.107972525
143	0xbce13161	-0.027489366
144	0x3da087e3	0.07838418
145	0xbd904fc0	-0.07046461
146	0x3db1952f	0.08671033
147	0x3c0d663a	0.00863033
148	0x3dc2e120	0.095155954
149	0xbd116439	-0.03549597
150	0x3cc2c5b6	0.023775917
151	0x3dc3406d	0.095337726
152	0x3e4fb9a4	0.2028566
153	0xbceb2a08	-0.028706565
154	0xbd2a1974	-0.04152818
155	0x3bdbc16e	0.006706408
156	0x3d0fb0a0	0.035080552
157	0xbd88ff85	-0.066893615
158	0xbdee8612	-0.11646666
159	0x3cf4d63e	0.029887315
160	0xbcf7505f	-0.030189691
161	0x3dc7660d	0.097362615
162	0x3cd669ee	0.026173558
163	0x3ddf9cd1	0.10918582
164	0x3d9814e3	0.07425859
165	0x3d6ba2ec	0.05752842
166	0x3dccde42	0.1000333
167	0xbd79e2fe	-0.061007492
168	0x3dfd9c94	0.123833805
169	0x3d8eee76	0.069790766
170	0x3d0533ba	0.032520033
171	0xbc606de1	-0.013698072
172	0x37cdd36c	2.4536355e-05
173	0x3e095b0c	0.13413638
174	0xbcafd47b	-0.021463623
175	0xbd845318	-0.064611614
176	0x3db43989	0.088000365
177	0x3d7025e7	0.058629896
178	0x3c989fc3	0.018630868
179	0x3d9d4cd1	0.07680667
180	0x3dc6cbca	0.097068384
181	0x3d651a6c	0.0559334
182	0xbdb973f2	-0.09055318
183	0x3d568224	0.052370206
184	0xbc09f8af	-0.008421107
185	0x3e0dc850	0.13845944
186	0xbd44a55c	-0.04800926
187	0x3d523a1b	0.051324945
188	0xbd956c2b	-0.07296022
189	0xbe07576c	-0.13216943
190	0x3dde6714	0.10859504
191	0x3cb9a5ed	0.022662127
192	0xbd98aa4d	-0.07454357
193	0xbde9dc93	-0.11419024
194	0x3d28a6d7	0.041174736
195	0x3d88f67a	0.06687637
196	0xbd200eca	-0.039076604
197	0xbd4763ee	-0.048679285
198	0xbded95c8	-0.11600834
199	0xbde1065d	-0.10987542
200	0xbe071ad8	-0.13193834
201	0x3d420996	0.047372423
202	0x3e109aae	0.14121506
203	0x3d86ef7b	0.06588646
204	0x3c82d912	0.015972648
205	0x3c33e0ce	0.010978891
206	0x3d945f90	0.072447896
207	0xbca54b04	-0.020177372
208	0xbe127073	-0.14300708
209	0xbb57a59b	-0.0032905105
210	0xbd83cd5c	-0.064356536
211	0x3e00b3fb	0.12568657
212	0x3e01a403	0.12660222
213	0xbd1ee5cd	-0.038793374
214	0xbe0b81c3	-0.13623719
215	0x3de60544	0.11231473
216	0x3e86d3ad	0.2633337
217	0x3c83905e	0.01606005
218	0xbcaea21a	-0.02131753
219	0xbd884072	-0.06652917
220	0x3dc266f1	0.09492291
221	0x3cddaebb	0.027060857
222	0x3ddaecfa	0.10689731
223	0xbdad66f5	-0.08466903
224	0x3e4578cf	0.19284366
225	0xbdd69875	-0.104782976
226	0xbd9c119b	-0.076205455
227	0x3e2e1a5a	0.1700224
228	0x3d83f7f8	0.06443781
229	0xbd8c6e2f	-0.06856953
230	0xbcca2ff2	-0.024681065
231	0x3e1013e1	0.14070083
232	0xbe0b1ddf	-0.13585614
233	0xbcb16925	-0.021656582
234	0xbbd72ae1	-0.006566391
235	0xbd2721d5	-0.04080375
236	0xbd3ba9db	-0.045816284
237	0x3dd2f8f9	0.10301394
238	0x3cdf5c6c	0.02726575
239	0x3d38e987	0.045144584
240	0xbd76e8db	-0.060280662
241	0x3db06b8a	0.086142614
242	0xbd3b1e3a	-0.045683123
243	0xbd2f8f71	-0.042861406
244	0x3e5f5b75	0.21812232
245	0xbd5ed053	-0.054397892
246	0x3ceada76	0.028668623
247	0xbdb95009	-0.090484686
248	0xbd50535f	-0.05086076
249	0x3cdd0667	0.026980592
250	0xbd3fdbad	-0.04684036
251	0xbde65821	-0.11247278
252	0x3e09ddc0	0.13463497
253	0x3e07e71c	0.13271755
254	0x3e19a3fa	0.15003958
255	0x3e10360d	0.14083119

lstm.weight_hh_l1 f4 [256, 64]
0	0xbd9e860d	-0.07740412
1	0x3d8f3a56	0.069935486
2	0xbc15d10b	-0.009144078
3	0x3dfb11b1	0.12259234
4	0x3c0a4280	0.008438706
5	0x3e1af2c9	0.15131678
6	0xbe06974b	-0.13143651
7	0xbbdcb054	-0.006734887
8	0x3d960135	0.07324449
9	0xbdd20655	-0.10255114
10	0xbd258b6c	-0.040416166
11	0x3c855768	0.01627703
12	0x3d662f81	0.056197647
13	0x3d39fd56	0.045407616
14	0xbc545c05	-0.012961392
15	0xbd952a0d	-0.07283411
16	0xbc893d91	-0.01675299
17	0xbda354a0	-0.07975125
18	0xbd1090ca	-0.03529433
19	0x3c947dde	0.018126424
20	0x3d20ebb1	0.039287273
21	0xbcfd72e1	-0.030938568
22	0xbdf8dea5	-0.12151841
23	0xbddffdb0	-0.10937059
24	0x3d6c4cf0	0.05769056
25	0xbdf0f2c6	-0.11765055
26	0x3da8c59a	0.082408145
27	0xbbcdc3e7	-0.006279457
28	0xbd646e1b	-0.055769067
29	0xba9701a4	-0.0011520875
30	0x3e0b88df	0.13626431
31	0x3b853a1d	0.0040657655
32	0x3dacf4fd	0.08445165
33	0x3d3322a9	0.043734226
34	0xbdc8b3eb	-0.09799942
35	0xbcf4cae9	-0.029881911
36	0xbc6d094f	-0.014467551
37	0x3d642a48	0.055704385
38	0xbba93229	-0.0051634503
39	0x3ca23225	0.019799301
40	0xbdfbe0a0	-0.12298703
41	0xbd811991	-0.063037045
42	0x3e377e2d	0.17919226
43	0x3d43d915	0.047814447
44	0x3cc4b9fb	0.024014464
45	0x3da1de4b	0.07903727
46	0xbc785ba5	-0.0151585685
47	0x3c60658d	0.013696087
48	0xbc8dac3d	-0.017294044
49	0x3ca76488	0.02043368
50	0xbca31b8f	-0.019910602
51	0x3d9442e0	0.07239318
52	0x3dc6b2b2	0.09702052
53	0xbd8a739b	-0.06760331
54	0x3c31a7ae	0.010843201
55	0xbbe84df0	-0.007089369
56	0xbc63d118	-0.013904832
57	0xbd4cf01c	-0.050033674
58	0xbccf6b7f	-0.025319813
59	0xbdc11fad	-0.0942987
60	0x3d22516c	0.03962843
61	0xbd45771c	-0.048209295
62	0xbd44e657	-0.04807123
63	0xbdeaa54b	-0.114573084
64	0xbc19203a	-0.009346062
65	0x3cd00b86	0.02539612
66	0x3c140966	0.009035444
67	0x3d62f37c	0.055407986
68	0x3ca7a3b0	0.020463794
69	0x3dc30148	0.09521729
70	0xbccae0f0	-0.024765462
71	0x3dd84377	0.10559743
72	0x3b803c53	0.003913441
73	0x3ddff6eb	0.10935768
74	0x3b92c4df	0.0044790353
75	0x3de66ab1	0.112508185
76	0xbd37280e	-0.044715934
77	0xbd7f3254	-0.062303856
78	0xba311f39	-0.00067566667
79	0x3c90d95e	0.017681774
80	0xbb299feb	-0.0025882672
81	0xbce02d5f	-0.027365385
82	0xbe175585	-0.14778717
83	0x3d9552dc	0.07291195
84	0x3db1c9de	0.08681081
85	0x3c2db282	0.010601642
86	0xbb8be2dc	-0.004268987
87	0xbd4abe00	-0.049497604
88	0x3ca661ce	0.020310309
89	0x3dd66d58	0.104700744
90	0xbcea5d19	-0.028608846
91	0x3d800976	0.062518045
92	0x3c494563	0.0122846095
93	0x3d5d6fa1	0.054061536
94	0x3d3942c8	0.045229703
95	0x3da67bf7	0.08129113
96	0xbca8e7fb	-0.02061843
97	0x3daa852b	0.08326181
98	0x3d167774	0.036735013
99	0x3d8959be	0.0670657
100	0x3d59865c	0.05310665
101	0x3d398da9	0.045301113
102	0xbc6e4452	-0.014542656
103	0xbbc3b67c	-0.0059726816
104	0x3dfac4d3	0.122445725
105	0xbd5384ba	-0.05164025
106	0x3df17747	0.117903285
107	0x3b00b42a	0.0019638636
108	0x3c54be33	0.0129848
109	0xbb09053f	-0.0020907668
110	0xbd2e8888	-0.042610675
111	0xbe0ab45a	-0.13545361
112	0xbc396421	-0.0113153765
113	0x3ddfcf2a	0.10928185
114	0xbb83f85b	-0.004027409
115	0x3d53476e	0.051581793
116	0x3cac33e7	0.021020843
117	0x3d92d3e2	0.0716932
118	0xbce9c274	-0.028535105
119	0x3ca8ff58	0.02062957
120	0xbd365312	-0.044512816
121	0x3cdbb7db	0.026821068
122	0xbcb9144f	-0.022592692
123	0xbc3bef5a	-0.01147064
124	0x3d95cdfd	0.0731468
125	0xbd4085e2	-0.04700268
126	0xbc7bf1b2	-0.015377449
127	0xbd155d23	-0.036465775
128	0x3dd43c36	0.10363047
129	0x3ce5d676	0.028056365
130	0x3d2343d1	0.039859597
131	0x3d924299	0.07141609
132	0xbd65fadc	-0.05614744
133	0x3c804ad1	0.015660675
134	0x3d15c2da	0.036562778
135	0xbdff2911	-0.12459005
136	0x3d2d4048	0.04229763
137	0x3b55d50d	0.003262821
138	0x3d8a4c91	0.06752885
139	0xbe141d2b	-0.14464252
140	0xbd360e1d	-0.044447053
141	0xbc460708	-0.012086637
142	0x3c01c1ca	0.007919738
143	0xbb9f7251	-0.0048659225
144	0x3d660a0e	0.056161933
145	0x3c80c6e0	0.015719831
146	0xba70ba6a	-0.00091830513
147	0x3d8131d4	0.06308332
148	0x3d4604c1	0.048344377
149	0x3d8ad543	0.06778958
150	0x3da76356	0.08173244
151	0x3bc75b53	0.0060838847
152	0xbd86338d	-0.06552801
153	0xbca1815e	-0.019715007
154	0xbd02fe0c	-0.03198056
155	0x3bc5cf86	0.0060367016
156	0xbca4a68b	-0.020098945
157	0x3d9fb195	0.07797543
158	0xbd7adcca	-0.061245717
159	0x3c305162	0.010761591
160	0x3db5c50c	0.08875474
161	0xbc860736	-0.01636086
162	0xbdd67631	-0.10471762
163	0x3d9a3a00	0.07530594
164	0xbddc7142	-0.1076379
165	0x3d93730e	0.07199679
166	0xbc894a0a	-0.016758937
167	0x3b9d5a40	0.0048020184
168	0xbdf35436	-0.11881296
169	0xbc7528c7	-0.014963335
170	0xbcd3717b	-0.025810948
171	0x3d370742	0.044684656
172	0x3cc64eab	0.024207434
173	0xbe17a050	-0.14807248
174	0xbba7c621	-0.0051200544
175	0xbd7731b5	-0.06035014
176	0xbd67cb48	-0.05659035
177	0xbd98a843	-0.074539684
178	0x3d9b8b81	0.07594968
179	0x3d7a7e20	0.06115544
180	0xbd8b63b9	-0.0680613
181	0x3b9a6d0e	0.0047127074
182	0xbd3ddddb	-0.046354156
183	0xbdb9cb4d	-0.0907198
184	0x3d62c7dc	0.055366382
185	0xbdab5b2b	-0.08366998
186	0x3cc0083b	0.023441425
187	0xbdf3dd99	-0.11907501
188	0xbd203b01	-0.03911877
189	0x3e2b217e	0.16711995
190	0x3c2ee62e	0.010674996
191	0x3e041102	0.12897113
192	0xbc883902	-0.016628746
193	0x3d0922f4	0.0334806
194	0x3cbe787f	0.023250816
195	0xbc9d4237	-0.019196613
196	0x3dd4c9e2	0.103900686
197	0x3ca98682	0.020694021
198	0x3d302167	0.043000605
199	0xbd02c5be	-0.031926863
200	0x3de80ccd	0.113305666
201	0xbc0c8d0d	-0.008578551
202	0xbd6749e5	-0.056466956
203	0xbbcba04f	-0.0062141786
204	0x3de349b6	0.110980436
205	0xbc7a3392	-0.015271084
206	0xbd087cde	-0.033322208
207	0xbd69395f	-0.05693948
208	0xbca183eb	-0.019716224
209	0xbd3dc587	-0.046330955
210	0x3bd49080	0.0064869523
211	0x3cae8d02	0.021307472
212	0x3b1fe1dc	0.0024396097
213	0xbc00bec1	-0.007857979
214	0x3e053439	0.13008203
215	0xbdaa0222	-0.08301188
216	0xbcbcea3c	-0.02306091
217	0x3c2d4302	0.010575058
218	0xbde59351	-0.11209739
219	0x3d087322	0.033312924
220	0xbcf28502	-0.029604439
221	0x3d956b88	0.072959006
222	0x3cc73e4e	0.024321701
223	0x3db4fe77	0.08837598
224	0xbb6d077d	-0.0036167793
225	0xbb6a9e85	-0.0035800051
226	0x3d4b10c0	0.04957652
227	0xbc13388d	-0.008985651
228	0xbe03e2c5	-0.12879474
229	0xbe1d92ca	-0.15388027
230	0xbda75545	-0.08170561
231	0x3c162b6a	0.009165624
232	0x3d4515a2	0.048116334
233	0xbc8fd564	-0.017557807
234	0xbd11fcf1	-0.035641614
235	0xbcc82c93	-0.024435317
236	0x3da726d3	0.08161702
237	0x3cd9d88e	0.02659252
238	0x3dd886fa	0.1057262
239	0x3cdb985d	0.02680605
240	0x3d3083c3	0.043094408
241	0x3de81fee	0.11334215
242	0x3cef22be	0.029191371
243	0xbd9556a0	-0.07291913
244	0xbd0ce65b	-0.03439937
245	0xbb992f62	-0.004674838
246	0xbdaefbfc	-0.08544156
247	0xbc7092e8	-0.014683463
248	0xbd81a1e9	-0.0632971
249	0xbd966dcd	-0.073451616
250	0xbd4a860d	-0.049444247
251	0xbd8f2f0f	-0.069913976
252	0x3de2b536	0.110697195
253	0x3cdf8f29	0.027289944
254	0xbcbe8356	-0.023255985
255	0xbc7b68d3	-0.015344816

lstm.bias_ih_l1 f4 [256]
0	0x3d44a3f6	0.048007928
1	0x3d04ee99	0.032454107
2	0x3b926eff	0.004468798
3	0x3d7b4e25	0.06135382
4	0x3dc567d7	0.096389465
5	0x3d6a7d8d	0.05724864
6	0x3d614ce8	0.055004984
7	0x3da0e611	0.07856382
8	0x3de33b6e	0.1109532
9	0x3d5177d0	0.051139653
10	0x3d89eda1	0.06734777
11	0x3d0b4952	0.03400547
12	0x3d78c5d4	0.06073554
13	0x3d46c600	0.04852867
14	0x3d7e8b23	0.06214441
15	0x3e5d3818	0.2160343
16	0x3d7a7d25	0.061154503
17	0x3d797d03	0.060910236
18	0x3e3a7773	0.18209629
19	0x3d772141	0.060334448
20	0x3dcf4a25	0.10121564
21	0x3d645d70	0.05575317
22	0x3d500739	0.050788138
23	0x3d480d05	0.04884054
24	0x3e092f7a	0.13397017
25	0x3d689b00	0.056788445
26	0x3dbb426b	0.091435276
27	0x3c820071	0.015869351
28	0x3d8b2c32	0.06795539
29	0x3e047595	0.12935479
30	0x3d85b412	0.06528486
31	0x3dd2cf56	0.102934524
32	0x3d9acb99	0.075583644
33	0x3d858658	0.06519765
34	0x3d67162d	0.056417633
35	0x3d74cd9e	0.059766404
36	0x3d4c91ba	0.049943663
37	0x3d793cdf	0.060849067
38	0x3d8b46c7	0.06800609
39	0x3e11306b	0.14178626
40	0x3d836e91	0.06417573
41	0x3d3ea7f5	0.046546895
42	0x3d524530	0.051335514
43	0x3d239b96	0.0399433
44	0x3d73134a	0.059344567
45	0x3e8aa626	0.27079886
46	0x3d3759db	0.044763427
47	0x3d910297	0.07080572
48	0x3d849f81	0.064757355
49	0x3e7d2cdb	0.24724142
50	0x3d904c81	0.07045842
51	0x3d3dd59d	0.046346296
52	0x3d1636d3	0.03667338
53	0x3d4eae9c	0.05045949
54	0x3dd68926	0.10475378
55	0x3cd41f62	0.02589387
56	0x3d8cad03	0.06868937
57	0x3da8fdb1	0.08251513
58	0x3d8aad10	0.0677129
59	0x3d69fc9b	0.05712567
60	0x3e844c8e	0.25839657
61	0x3db64f79	0.08901877
62	0x3db14db8	0.08657402
63	0x3dfb402b	0.122680984
64	0xbae8d7eb	-0.0017764544
65	0xbb29cdb4	-0.0025909962
66	0xbc900742	-0.017581586
67	0xbc93442f	-0.017976848
68	0x3b52083a	0.003204836
69	0x3b941cf6	0.004520054
70	0xbadb036b	-0.0016709393
71	0x3c1fa397	0.009743593
72	0xbd0f97f1	-0.035057012
73	0xbb4e735c	-0.0031501865
74	0x3c5da6d1	0.013528542
75	0xbba927cc	-0.005162215
76	0x3c0e4786	0.008684045
77	0xbb86afab	-0.0041102967
78	0x3c059abd	0.008154568
79	0xbd5a0ae7	-0.053233054
80	0x3c31c3ac	0.0108498745
81	0x3c1b29ae	0.009470386
82	0xbcf590af	-0.029976217
83	0x3b585bdf	0.0033013744
84	0xbca6eb05	-0.020375738
85	0x3b40f22f	0.0029441228
86	0xba8a3c46	-0.0010546527
87	0x3b858d86	0.004075709
88	0xbd06c21e	-0.03289997
89	0x3bb6590b	0.005564814
90	0x3a6d2854	0.0009046842
91	0xbc9207f9	-0.017826067
92	0x3c3cf45e	0.011532871
93	0xbd8335de	-0.06406759
94	0xbb9331f0	-0.004492037
95	0xbcbb4689	-0.022860782
96	0xb8a5ad1a	-7.900056e-05
97	0xb909d797	-0.00013145652
98	0xbc969b00	-0.018384457
99	0x3bf15816	0.007365237
100	0x3b4ad2db	0.0030948434
101	0xbb63b168	-0.0034743194
102	0x3bdf281b	0.006810201
103	0xbcf1354f	-0.029444365
104	0xb9ba3ea1	-0.00035523347
105	0xbaee79f5	-0.0018194305
106	0xba9cd1fb	-0.0011964435
107	0xba89860b	-0.0010492218
108	0xbb9dcd50	-0.004815735
109	0x3dfd904d	0.12381039
110	0xbc0f81b8	-0.008758955
111	0x3c0dd897	0.008657596
112	0x3bb7a23e	0.0056040576
113	0x3cb9b7f8	0.022670731
114	0x3bae264d	0.0053146244
115	0x3b3cd25e	0.0028811912
116	0xbc3f3c2f	-0.011672064
117	0x3b431f70	0.0029773377
118	0xbcb2987f	-0.021801231
119	0xbbfdea9f	-0.0077489163
120	0xbcbfa3b3	-0.023393488
121	0x3b9d45d9	0.0047995863
122	0x3c084999	0.008318328
123	0xbb294128	-0.002582619
124	0x3c2862f3	0.010277498
125	0x3c628a0d	0.013826859
126	0x3c13dfef	0.009025558
127	0xbd3a8599	-0.045537565
128	0xbd676983	-0.05649711
129	0x3d181136	0.03712579
130	0xbcd85eaa	-0.026412327
131	0x3d8ae1a7	0.06781321
132	0xbd955f28	-0.0729354
133	0xbd56079d	-0.052253354
134	0xbd7e6ca4	-0.062115327
135	0xbd849c52	-0.06475128
136	0xbda50a73	-0.08058634
137	0x3d700b50	0.05860454
138	0xbd4df35e	-0.05028092
139	0x3d707e43	0.058714163
140	0x3d70246b	0.05862848
141	0xbd5ff9fc	-0.054681763
142	0x3d7a2156	0.061066948
143	0xbe03f9ef	-0.12888311
144	0xbd6ff6f1	-0.05858511
145	0xbd653816	-0.05596169
146	0x3e01c15d	0.12671418
147	0xbd75b106	-0.059983276
148	0xbddbe41c	-0.10736868
149	0x3d7b93b1	0.061420146
150	0xbd82bd5a	-0.06383772
151	0x3d81cdd0	0.06338084
152	0x3d91acf8	0.07113069
153	0x3d67e01c	0.05661021
154	0x3da18afb	0.078878365
155	0xbd0182c3	-0.031618845
156	0x3d8323ae	0.0640329
157	0xbe11c12f	-0.1423385
158	0x3d8270c1	0.06369162
159	0xbdb8d32b	-0.09024652
160	0xbda42ba3	-0.080161355
161	0x3d9abce7	0.075555615
162	0x3d83fc35	0.06444589
163	0x3d73ea6b	0.05954973
164	0x3d5c5f7c	0.053802
165	0x3d69e1c3	0.05710007
166	0x3d829ba4	0.06377342
167	0xbdceb0d6	-0.100923225
168	0x3d9352a4	0.07193497
169	0xbd8a6f95	-0.06759564
170	0x3d73d839	0.059532378
171	0x3d64c0cd	0.05584793
172	0x3d901c05	0.07036594
173	0xbe3a8b87	-0.18217288
174	0x3d744b9d	0.059642423
175	0xbd730b03	-0.059336673
176	0x3d80d6d9	0.06290979
177	0xbe1b0b88	-0.15141118
178	0xbd809a45	-0.062794246
179	0xbd745f6f	-0.059661325
180	0xbd8a078b	-0.0673972
181	0xbd78c5ca	-0.0607355
182	0x3de2cfa7	0.11074763
183	0x3d4a3d59	0.049374912
184	0x3d92dfac	0.07171568
185	0xbd9d06ce	-0.076673135
186	0x3d6c9430	0.05775851
187	0x3d9496ac	0.07255301
188	0xbe2e496d	-0.17020197
189	0xbd70d509	-0.058796916
190	0x3d8276cd	0.06370316
191	0xbdacb5f9	-0.08433146
192	0x3d36b131	0.044602577
193	0x3cec3625	0.028834412
194	0x3b7025b5	0.003664357
195	0x3d2e2e63	0.042524707
196	0x3dccc98a	0.09999378
197	0x3d656434	0.056003764
198	0x3d2f8c0c	0.04285817
199	0x3d9693dc	0.07352421
200	0x3dc38872	0.09547509
201	0x3d4376de	0.047720782
202	0x3d88ef6f	0.06686293
203	0x3ce10a79	0.027470814
204	0x3d4c3fde	0.049865596
205	0x3d47ba6c	0.04876177
206	0x3d39460a	0.04523281
207	0x3e3e4451	0.18580748
208	0x3d801315	0.062536396
209	0x3d56b2fa	0.05241678
210	0x3e1d2c80	0.15349007
211	0x3d56d4e6	0.05244913
212	0x3dbe1c9a	0.09282799
213	0x3d53a630	0.05167216
214	0x3d6d5ee6	0.05795183
215	0x3d300c54	0.042980507
216	0x3dfb9543	0.12284329
217	0x3d4b31e2	0.04960812
218	0x3da1fd98	0.07909697
219	0x3c4b8345	0.012421434
220	0x3d8228f7	0.0635547
221	0x3e0c9a86	0.13730821
222	0x3d4311dd	0.047624458
223	0x3db78f0f	0.08962833
224	0x3d821c88	0.06353098
225	0x3d7c864f	0.061651524
226	0x3d38f586	0.045156024
227	0x3d419205	0.047258396
228	0x3d23e001	0.04000855
229	0x3d822a44	0.06355718
230	0x3d64de51	0.05587608
231	0x3e1349b3	0.14383583
232	0x3d478be6	0.048717402
233	0x3d186595	0.03720625
234	0x3d38ce80	0.04511881
235	0x3d12a3ce	0.035800748
236	0x3d43884c	0.047737405
237	0x3e4d13a6	0.20027027
238	0x3d234230	0.039858043
239	0x3d844f66	0.064604566
240	0x3d68e312	0.056857176
241	0x3e4f9db4	0.20275003
242	0x3d76deb3	0.060270976
243	0x3d202963	0.03910197
244	0x3d05c043	0.03265406
245	0x3d39eda3	0.045392644
246	0x3dbf0e9d	0.09328959
247	0x3cd54616	0.026034396
248	0x3d7d1b1f	0.061793443
249	0x3d959c4e	0.073052034
250	0x3d702184	0.058625713
251	0x3d23d9fb	0.040002804
252	0x3e70bf32	0.23510435
253	0x3db05d3f	0.08611535
254	0x3da6e1f9	0.081485696
255	0x3e0a302e	0.13494942
