challenge_6/ai_service/ai/checkpoints/experiments/exp_deepar_best.pt (torch, 843012 bytes, 45 tensors)

country_embedding.weight f4 [239, 32]
-0.02080255 0.018074874 -0.011074356 -0.037695505 0.01054775 -0.062354315 -0.027376605 0.12993802
-0.12308889 0.011101945 0.07468399 0.073230736 0.004563109 -0.13985266 -0.02851173 0.032567333
0.09499054 -0.047415406 -0.03369643 0.071485706 0.020685457 -0.051927116 0.0502925 -0.01871605
0.05670137 -0.029611468 0.09594469 -0.033810515 -0.06630384 0.03019616 -0.031549588 -0.03674354
0.022685667 -0.018417938 0.007982209 0.024640553 -0.0018164112 -0.022920866 -0.0063585103 -0.032021414
-0.0635985 -0.019807879 -0.06610917 -0.01892468 0.025382556 0.034725163 0.05360194 0.001995844
-0.04223068 0.018282373 -0.0010761261 -0.06600626 0.018331375 -0.0007953538 0.009519517 -0.040604133
0.01240614 0.0044723935 0.013142237 0.00012328842 -0.0259757 -0.013171004 -0.009831867 -0.004378719
-0.026277581 0.01427115 0.005384119 -0.06705657 0.019847441 0.012017166 -0.0080565885 -0.034150243
-0.027802538 0.07001796 -0.049761232 0.007563301 -0.034736317 0.014457291 0.017105753 -0.05436094
0.026688445 0.039919626 0.01474033 -0.06386354 0.018059596 0.04770796 0.0052149976 -0.033528868
-0.0350646 0.0092876535 -0.002432991 0.030137263 -0.043850042 -0.006964441 -0.006985312 0.01606873
-0.04750213 0.025296936 0.001406747 -0.07429997 0.0026239415 0.040228575 -0.031976618 -0.03210644
-0.017541887 0.060215306 -0.021384438 0.021845445 -0.021819003 0.018073313 -0.0025672254 -0.021823501
0.05209883 0.03637955 0.01917648 -0.04008705 0.033176962 0.051169332 0.017800711 -0.012571217
-0.046948247 0.0045766234 -0.028198745 0.025432928 -0.0355973 -0.012223011 -0.025701573 0.013963665
-0.014725732 0.010407785 0.091443 -0.031905197 -0.07051762 -0.011604519 0.076992616 0.018016323
-0.08197553 0.11643206 0.072184384 0.07177223 -0.13491929 -0.02698054 0.102784686 -0.073319584
0.015583853 0.026377873 0.07696571 -0.15360449 -0.047892462 0.06886514 0.13768072 -0.07749299
-0.119158275 -0.1254763 0.04208598 0.03983128 0.0119269695 0.07180724 -0.0050938423 0.04176621
-0.0607781 0.030251881 -0.0009684858 -0.096446075 -0.0015304647 0.05399408 -0.017655179 -0.050898347
-0.019182788 0.08589747 -0.034024652 0.01079098 -0.035649873 0.03016005 -0.0073384973 -0.046918806
0.049367595 0.05027137 0.03100495 -0.052294932 0.008170736 0.05844107 0.030733354 -0.022704283
-0.057756763 0.0025258076 -0.014206097 0.03555799 -0.046778876 0.0011851628 -0.026360445 0.030056864
-0.089064 0.0030778619 -0.052269746 -0.03981157 0.04783627 0.07322236 -0.063529685 -0.014755184
0.01778682 0.099297404 0.075536124 0.039873257 0.01200563 -0.0173871 -0.14631128 0.028831061
0.05796014 -0.06942116 -0.0071403813 0.08339251 0.013730701 -0.027218923 -0.027289025 0.03215415
0.019784423 0.04577609 0.005432153 -0.049069773 -0.040499587 -0.002978037 -0.022216575 -0.043395758
-0.00031139972 -0.06515309 -0.0383663 0.081787534 0.038086466 -6.8943984e-05 -0.050497092 0.015278764
-0.016023997 -0.07130945 0.016706118 0.010886853 0.06887803 0.02904776 -0.055475235 0.07699321
-0.028607478 -0.09945207 -0.06055295 0.06298876 0.033113923 -0.075017214 -0.04328773 0.020675594
0.043884 0.04050234 0.020104524 -0.061308324 0.018012227 -0.033054397 -0.03210498 -0.08329169
00000000: 1c6a aabc c211 943c 3771 35bc 9a66 1abd
00000010: 78d0 2c3c 3d67 7fbd e744 e0bc 790e 053e
00000020: 0716 fcbd efe4 353c ebf3 983d fff9 953d
00000030: 2286 953b 8935 0fbe 6e91 e9bc 5365 053d
00000040: 668a c23d a836 42bd 4505 0abd 1967 923d
00000050: 8c74 a93c 87b1 54bd 82ff 4d3d 6752 99bc
00000060: b23f 683d c093 f2bc a67e c43d e57c 0abd
00000070: 4fca 87bd f05d f73c 243a 01bd 6580 16bd
00000080: 4bd7 b93c 37e1 96bc d0c7 023c fcda c93c
00000090: a514 eeba 8ac4 bbbc 0d5b d0bb e328 03bd
000000a0: ee3f 82bd 2244 a2bc 3f64 87bd ee07 9bbc
000000b0: 14ef cf3c f93b 0e3d b58d 5b3d b5cc 023b
000000c0: 14fa 2cbd eac4 953c cd0c 8dba 4a2e 87bd
000000d0: ae2b 963c 4a7f 50ba c0f7 1b3c 8550 26bd
000000e0: 1f43 4b3c 288d 923b 8a52 573c fc46 0139
000000f0: feca d4bc 32cb 57bc d715 21bc 5b7b 8fbb
00000100: 1544 d7bc 8bd1 693c 446d b03b f454 89bd
00000110: 1a97 a23c a6e3 443c c8ff 03bc 20e1 0bbd
00000120: 26c2 e3bc 9465 8f3d 6fd2 4bbd 91d5 f73b
00000130: ab47 0ebd 46de 6c3c 5d21 8c3c 94a9 5ebd
00000140: baa1 da3c c382 233d 6d81 713c e3ca 82bd
00000150: b8f1 933c 6c69 433d 92e2 aa3b 9155 09bd
00000160: e69f 0fbd 3e2b 183c d172 1fbb 6ce2 f63c
00000170: 1a9c 33bd f735 e4bb 0be5 e4bb 92a2 833c
00000180: 9891 42bd 853b cf3c 9962 b83a 952a 98bd
00000190: 6ff6 2b3b b8c6 243d eaf9 02bd 0b82 03bd
000001a0: 01b4 8fbc 53a4 763d 6b2e afbc 38f5 b23c
000001b0: c4bd b2bc 7c0e 943c e53e 28bb 33c7 b2bc
000001c0: 9565 553d b902 153d fe17 9d3c 5232 24bd
000001d0: 91e4 073d ef96 513d ccd2 913c 81f7 4dbc
000001e0: ce4c 40bd 80f7 953b 0e01 e7bc b758 d03c
000001f0: 79ce 11bd 0643 48bc 1b8c d2bc dbc7 643c
00000200: 3244 71bc 6a85 2a3c 7846 bb3d 06af 02bd
00000210: 8b6b 90bd e120 3ebc 4eae 9d3d f896 933c
00000220: c9e2 a7bd ef73 ee3d 68d5 933d 52fd 923d
00000230: 4828 0abe 4b06 ddbc c780 d23d 9428 96bd
00000240: 6b53 7f3c 6916 d83c 33a0 9d3d 7f4a 1dbe
00000250: e32a 44bd 2b09 8d3d 2dfc 0c3e a5b4 9ebd
00000260: 4109 f4bd dc7c 00be 5962 2c3d 2026 233d
00000270: 5669 433c ad0f 933d 3fea a6bb 0c13 2b3d
00000280: 75f2 78bd cbd2 f73c fbe1 7dba 8585 c5bd
00000290: e099 c8ba e528 5d3d 98a1 90bc c97a 50bd
000002a0: 3925 9dbc 03eb af3d 6f5d 0bbd a7cc 303c
000002b0: 9a05 12bd 3612 f73c c777 f0bb ef2d 40bd
000002c0: ad35 4a3d 5ae9 4d3d 18fe fd3c 3633 56bd
000002d0: 8dde 053c e75f 6f3d 84c4 fb3c 55fe b9bc
000002e0: 5b92 6cbd 0588 253b b1c0 68bc 41a5 113d
000002f0: 359b 3fbd 7757 9b3a dcf1 d7bc d039 f63c
00000300: 3067 b6bd f4b5 493b cd18 56bd 7511 23bd
00000310: f7ef 433d 9bf5 953d da1b 82bd babf 71bc
00000320: aab5 913c 705c cb3d afb2 9a3d 2452 233d
00000330: 43b3 443c 646f 8ebc a0d2 15be 1e2f ec3c
00000340: 9d67 6d3d ae2c 8ebd dcf9 e9bb b1c9 aa3d
00000350: bcf6 603c 38fa debc 3c8d dfbc 12b4 033d
00000360: f112 a23c b67f 3b3d 3400 b23b 63fd 48bd
00000370: e5e2 25bd 2c2b 43bb 89ff b5bc c0bf 31bd
00000380: 5d43 a3b9 fc6e 85bd fb25 1dbd 3980 a73d
00000390: 8e00 1c3d 0596 90b8 0ad6 4ebd c853 7a3c
000003a0: c244 83bc b00a 92bd 45db 883c c55e 323c
000003b0: ed0f 8d3d 91f5 ed3c 003a 63bd 9eae 9d3d
000003c0: 3b5a eabc 87ad cbbd 5f06 78bd 4000 813d
000003d0: 77a2 073d a0a2 99bd 7a4e 31bd dd5f a93c
000003e0: b6bf 333d c8e5 253d 3eb2 a43c 701e 7bbd
000003f0: 618e 933c 0c64 07bd 8380 03bd d594 aabd

year_proj.0.weight f4 [16, 1]
-4.9175e-40 -0.82292014 4.91811e-40 -0.82128125 0.24901113 -0.30778453 4.91633e-40 4.91088e-40
4.93776e-40 5.26475e-40 0.752963 5.5812e-40 0.5984806 0.020852998 4.93672e-40 -0.610064
00000000: cd5a 0580 e5aa 52bf f85a 0500 7d3f 52bf
00000010: c6fc 7e3e ef95 9dbe 795a 0500 f458 0500
00000020: 7260 0500 99bb 0500 2fc2 403f d013 0600
00000030: 0636 193f e8d3 aa3c 2860 0500 282d 1cbf

year_proj.0.bias f4 [16]
4.93492e-40 0.702028 4.92025e-40 0.51716155 0.95657825 0.22495261 4.93471e-40 5.00785e-40
6.17119e-40 4.9385e-40 -0.017573826 4.91986e-40 0.85395956 0.9728661 -4.94395e-40 0.35439798
00000000: a85f 0500 1bb8 333f 915b 0500 b364 043f
00000010: 50e2 743f fa59 663e 995f 0500 fc73 0500
00000020: 47b8 0600 a760 0500 fcf6 8fbc 755b 0500
00000030: 189d 5a3f c10d 793f 2c62 0580 a773 b53e

year_proj.2.weight f4 [8, 16]
-5.08419e-40 -0.096650966 5.02664e-40 -0.0413373 -0.26126468 -0.082539365 -4.92046e-40 4.99074e-40
4.95488e-40 -4.95062e-40 -0.1473673 -4.92229e-40 0.13635638 -0.22769684 6.1385e-40 0.03635924
-4.95344e-40 -0.16304526 4.96323e-40 0.14408974 0.19516464 -0.09345658 4.94976e-40 -4.93343e-40
5.04114e-40 4.97342e-40 0.23477152 -5.07141e-40 0.12311994 -0.17780179 -5.1824e-40 -0.3664864
-4.9695e-40 0.0335777 4.94834e-40 -0.20768116 -0.21306571 -0.123381004 4.91902e-40 -4.92205e-40
-4.94759e-40 5.04763e-40 -0.28057948 -4.97255e-40 -0.023485657 -0.066279 -5.2144e-40 0.094150946
4.96814e-40 -0.29356158 -5.79525e-40 0.05637461 0.15971035 -0.25485215 -5.08847e-40 5.0485e-40
4.92188e-40 5.61626e-40 0.14906153 4.98412e-40 0.047011223 -0.2587996 4.97071e-40 -0.33065394
-5.04564e-40 -0.013043945 4.92751e-40 0.17002162 -0.25890967 -0.013232875 4.9647e-40 4.91463e-40
-4.93951e-40 -4.95596e-40 -0.08864373 5.26053e-40 -0.26072776 -0.24630782 5.06229e-40 0.09006683
-4.94906e-40 0.37716737 4.92146e-40 0.15518185 -0.2127303 0.30364364 5.01354e-40 -4.962e-40
4.94357e-40 4.95367e-40 -0.14294772 -5.47926e-40 -0.21881953 -0.08137922 5.01764e-40 0.9331644
-4.91072e-40 0.15983255 -5.037e-40 -0.1806875 -0.15418066 -0.103137895 4.96631e-40 -4.91917e-40
4.91274e-40 4.95171e-40 0.103070736 4.93948e-40 0.031345706 -0.22071923 4.96462e-40 0.02205527
6.06807e-40 -0.07157038 -5.07133e-40 0.10736803 -0.25283012 -0.0711628 -4.94909e-40 4.96872e-40
5.62944e-40 -4.91525e-40 -0.22194953 -4.95124e-40 -0.09457328 -0.24476951 4.95087e-40 0.17083484
00000000: 4489 0580 f1f0 c5bd 3979 0500 4d51 29bd
00000010: 7cc4 85be 660a a9bd a05b 0580 376f 0500
00000020: 3865 0500 0864 0580 74e7 16be 225c 0580
00000030: 02a1 0b3e 5c29 69be 2aaf 0600 6ded 143d
00000040: d164 0580 56f5 26be 8c67 0500 438c 133e
00000050: 3dd9 473e 2a66 bfbd cb63 0500 3d5f 0580
00000060: 447d 0500 636a 0500 f267 703e b485 0580
00000070: 4f26 fc3d ac11 36be a4a4 0580 1ba4 bbbe
00000080: 4b69 0580 c588 093d 6563 0500 5faa 54be
00000090: e62d 5abe 2eaf fcbd 395b 0500 115c 0580
000000a0: 3063 0580 137f 0500 1da8 8fbe 256a 0580
000000b0: fe64 c0bc 49bd 87bd 90ad 0580 36d2 c03d
000000c0: ea68 0500 b44d 96be 7b4f 0680 10e9 663d
000000d0: 1c8b 233e fb7b 82be 758a 0580 517f 0500
000000e0: 055c 0500 961d 0600 96a3 183e 5f6d 0500
000000f0: d78e 403d 6281 84be a269 0500 794b a9be
00000100: 857e 0580 45b6 55bc 975d 0500 261a 2e3e
00000110: cf8f 84be b3ce 58bc f567 0500 005a 0500
00000120: ef60 0580 8565 0580 d88a b5bd 6cba 0500
00000130: 1c7e 85be 1e38 7cbe 2983 0500 f574 b83d
00000140: 9963 0580 151c c13e e75b 0500 fee7 1e3e
00000150: f9d5 59be 2e77 9b3e 9275 0500 3467 0580
00000160: 1162 0500 e264 0500 e360 12be 65f7 0580
00000170: 3a12 60be 26aa a6bd b776 0500 dde3 6e3f
00000180: e958 0580 25ab 233e 1c7c 0580 2506 39be
00000190: 89e1 1dbe f639 d3bd 6868 0500 445b 0580
000001a0: 7959 0500 5664 0500 c016 d33d ed60 0500
000001b0: 5b64 003d 3904 62be ef67 0500 41ad b43c
000001c0: 889b 0600 7e93 92bd ae85 0580 c5e3 db3d
000001d0: f372 81be cdbd 91bd 9b63 0580 1469 0500
000001e0: 4221 0600 2c5a 0580 bd46 63be 3464 0580
000001f0: a3af c1bd dca4 7abe 1a64 0500 54ef 2e3e

year_proj.2.bias f4 [8]
-0.21719848 0.03794262 0.041436683 0.030378496 -0.047802795 -0.22082551 -0.097468205 -0.09507595
00000000: 4769 5ebe b969 1b3d 83b9 293d 53dc f83c
00000010: ddcc 43bd 1520 62be 699d c7bd 2eb7 c2bd

lstm.weight_ih_l0 f4 [256, 41]
0.089776665 -0.068444654 -0.11259772 -0.00041674386 0.102919176 0.118505985 -0.046607617 -0.059767507
-0.0070536146 0.021725109 -0.12362218 -0.11770806 0.03443323 0.06699913 -0.044670317 -0.0070395526
0.0566211 -0.018221311 -0.05637664 -0.13606866 0.001086362 -0.027628291 -0.074713856 0.031208823
0.07594479 0.02135038 0.072527714 -0.035104327 -0.11290256 -0.04472593 -0.094668806 0.12001819
-0.10987505 -0.046049822 0.06732453 0.034795877 0.11296617 -0.17761694 -0.19550699 0.042660866
-0.15609755 0.24439412 -0.048825096 0.06117472 0.03201192 -0.09292404 -0.032988083 0.0078041074
0.027922431 -0.0065913135 -0.10993167 0.113637306 -0.0047101118 0.052322287 -0.060971964 -0.03934901
0.0106705865 -0.06703696 0.071906134 0.07519701 0.06228079 -0.09657548 -0.003257052 0.06441085
0.08483471 -0.05074288 -0.07149592 -0.030613655 0.033026174 0.04925989 -0.09357455 0.04311662
0.009252248 0.04856282 -0.17758948 0.14984924 -0.28308862 -0.21446997 -0.31009653 -0.1320252
-0.21209908 -0.3262878 0.115608305 -0.10154419 0.06671006 0.0037419535 -0.07890048 -0.058627814
0.09722188 0.07405059 -0.0973738 -0.08469574 0.23346157 0.030423429 0.022729697 -0.032249168
-0.033971976 -0.038846932 -0.0713982 0.07629884 0.08367396 0.13611302 -0.13504903 -0.023847448
0.08886903 0.13476008 -0.093897104 -0.11214478 0.02231804 -0.03887781 0.049132667 -0.15928769
0.094586685 0.04695346 0.09231301 -0.11904405 0.19204234 -0.21556811 -0.14813282 -0.24408418
-0.05629119 -0.19281273 -0.26193708 0.13341917 -0.12603676 0.10730207 0.07593122 -0.30211437
-0.05782649 0.014876692 0.047916852 -0.073676765 -0.12550415 0.2998606 -0.13142775 0.032414276
-0.1253031 0.053814758 0.14958161 -0.10461993 0.13702764 0.095631994 0.14903642 -0.22944656
0.0006770544 0.124253824 0.19270048 -0.13173933 -0.15306048 -0.07331522 0.028702939 0.08052874
-0.20121875 0.09163791 0.050962616 0.16626954 -0.09918758 -0.07124475 0.08553776 -0.30438647
0.012994338 0.10482724 0.068531744 -0.0482294 0.135857 -0.13917376 0.051074527 -0.1407531
0.07947953 0.17018117 0.030906094 -0.08535053 -0.04819988 -0.04374694 -0.101067916 -0.06915425
0.04265426 0.14378835 0.14192945 -0.1040112 0.12643813 0.05851792 -0.079616316 -0.078624845
-0.037460804 0.1016276 -0.10606122 -0.08828138 -0.07466085 0.16366215 0.0701976 -0.081727
-0.14275582 0.05292514 -0.18608928 -0.14210315 -0.17103228 -0.18253581 0.058954738 -0.10497455
0.24938022 0.017646154 0.01550855 -0.16492403 0.0083258515 0.23504597 -0.116686545 0.06931877
-0.012559536 -0.081836894 -0.004898046 0.096099585 0.021154812 -0.11047254 -0.11725673 0.23124531
0.0122153135 0.043370467 -0.017694902 -0.014143823 -0.032803163 -0.08702 0.10594121 0.0773178
0.101376414 -0.15292856 -0.0028145285 0.076657906 0.10831704 -0.09210855 -0.07605944 0.018036358
-0.015698642 0.053508956 -0.1567157 0.033671748 -0.004469148 0.077988364 -0.2708036 0.12548253
-0.24877954 -0.22616787 -0.016408524 -0.03860427 -0.24490932 -0.03442109 0.020158334 0.10540435
0.17604321 0.22802353 -0.014115069 -0.17610839 -0.29687977 0.19868489 -0.037297156 -0.567909
00000000: d4dc b73d b62c 8cbd a299 e6bd 6a7e dab9
00000010: 4ac7 d23d 44b3 f23d a1e7 3ebd c6ce 74bd
00000020: 0222 e7bb dbf8 b13c a02d fdbd ec10 f1bd
00000030: dc09 0d3d d736 893d 39f8 36bd 0cac e6bb
00000040: 87eb 673d dc44 95bc 31eb 66bd 9555 0bbe
00000050: 4364 8e3a ba54 e2bc 9403 99bd a5a9 ff3c
00000060: f188 9b3d fee6 ae3c 6989 943d 8ec9 0fbd
00000070: 7539 e7bd 8932 37bd b8e1 c1bd 19cc f53d
00000080: 2c06 e1bd bd9e 3cbd 71e1 893d 1f86 0e3d
00000090: cf5a e73d 37e1 35be fc32 48be 29bd 2e3d
000000a0: 09d8 1fbe 7442 7a3e d3fc 47bd 5892 7a3d
000000b0: ee1e 033d f64e bebd 831e 07bd 99b9 ff3b
000000c0: 95bd e43c f2fb d7bb db23 e1bd adba e83d
000000d0: 4857 9abb e54f 563d bdbd 79bd 6d2c 21bd
000000e0: afd3 2e3c ac4a 89bd 8643 933d e400 9a3d
000000f0: 241a 7f3d 5ec9 c5bd 4474 55bb d6e9 833d
00000100: d2bd ad3d c4d7 4fbd 746c 92bd 7dc9 fabc
00000110: 7446 073d bdc4 493d 03a4 bfbd 0e9b 303d
00000120: be96 173c cfe9 463d 04da 35be 1472 193e
00000130: fef0 90be 049e 5bbe f9c4 9ebe 9d31 07be
00000140: 8030 59be 320f a7be 0cc4 ec3d 66f6 cfbd
00000150: 499f 883d 903b 753b 9396 a1bd b823 70bd
00000160: 441c c73d d6a7 973d ea6b c7bd f674 adbd
00000170: 8d10 6f3e 8e3a f93c a133 ba3c b417 04bd
00000180: 3326 0bbd f61d 1fbd 3839 92bd 9142 9c3d
00000190: 415d ab3d 3661 0b3e 4b4a 0abe b95b c3bc
000001a0: f700 b63d 8cfe 093e 204d c0bd 2aac e5bd
000001b0: 52d4 b63c 573e 1fbd 563f 493d 501c 23be
000001c0: aab6 c13d 4552 403d 9a0e bd3d 5ecd f3bd
000001d0: bfa6 443e e3bd 5cbe 21b0 17be 34f1 79be
000001e0: 9791 66bd b370 45be 9e1c 86be 099f 083e
000001f0: c80f 01be 30c1 db3d d481 9b3d bcae 9abe
00000200: 78db 6cbd 5ebd 733c 7644 443d d8e3 96bd
00000210: 2984 00be 5487 993e ff94 06be d5c4 043d
00000220: 754f 00be dd6c 5c3d ec2b 193e f942 d6bd
00000230: f950 0c3e b5da c33d 019d 183e 0af4 6abe
00000240: 5a7c 313a ca78 fe3d 4653 453e ade6 06be
00000250: e3bb 1cbe 4a26 96bd 6d22 eb3c 41ec a43d
00000260: 4a0c 4ebe a8ac bb3d 2dbe 503d 9042 2a3e
00000270: dc22 cbbd c4e8 91bd 6c2e af3d 8bd8 9bbe
00000280: 34e6 543c aaaf d63d 5f5a 8c3d 318c 45bd
00000290: 191e 0b3e 9183 0ebe 8633 513d 9521 10be
000002a0: 2ac6 a23d f943 2e3e c72e fd3c 42cc aebd
000002b0: 3d6d 45bd fe2f 33bd b2fc cebd bea0 8dbd
000002c0: 3cb6 2e3d 413d 133e f455 113e d303 d5bd
000002d0: ff78 013e 7db0 6f3d e10d a3bd 1006 a1bd
000002e0: 8070 19bd 2222 d03d a036 d9bd decc b4bd
000002f0: cae7 98bd 0d97 273e c2c3 8f3d 7c60 a7bd
00000300: 952e 12be 08c8 583d 308e 3ebe 7d83 11be
00000310: 1623 2fbe abea 3abe 867a 713d e6fc d6bd
00000320: 875d 7f3e ab8e 903c 9317 7e3c d8e1 28be
00000330: 2769 083c e4af 703e 5bf9 eebd 00f7 8d3d
00000340: 83c6 4dbc 1a9a a7bd ca7f a0bb dccf c43d
00000350: db4c ad3c 6d3f e2bd 4c24 f0bd 92cb 6c3e
00000360: bd22 483c 3ba5 313d e6f4 90bc 7ebb 67bc
00000370: 9c5c 06bd 8b37 b2bd b5f7 d83d cb58 9e3d
00000380: 709e cf3d 4e99 1cbe f473 38bb d2fe 9c3d
00000390: 53d5 dd3d 68a3 bcbd 0dc5 9bbd fcc0 933c
000003a0: 709a 80bc 352c 5b3d 157a 20be 63eb 093d
000003b0: ee71 92bb 5db8 9f3d c5a6 8abe 7e7e 003e
000003c0: 10c0 7ebe 8d98 67be 2b6b 86bc 831f 1ebd
000003d0: 82c9 7abe 21fd 0cbd 1723 a53c 3cde d73d
000003e0: ac44 343e 007f 693e e442 67bc c255 34be
000003f0: a000 98be 0d74 4b3e e7c4 18bd 7c62 11bf

lstm.weight_hh_l0 f4 [256, 64]
0.07461086 -0.06465705 -0.15478687 -0.14621475 -0.053794272 -0.094977014 -0.03407021 -0.087390415
-0.018191008 0.11312013 0.122789875 0.21317889 0.17315513 -0.10446041 0.03295507 -0.084693976
0.13814002 -0.1500231 -0.07192672 0.088634424 0.073176794 -0.12595937 0.07837073 -0.073828205
0.040476058 0.13288096 -0.18001363 -0.08601234 -0.073466025 0.110727206 -0.06980769 -0.101886295
-0.11616621 -0.11151692 -0.007548693 -0.02995661 -0.08976526 0.19835475 0.104309164 0.18967478
-0.060182795 0.030900804 -0.08890365 -0.13417292 0.0672444 0.0065403096 0.08050861 -0.009115064
-0.051646594 -0.057828106 0.17392437 0.011832826 -0.06616604 0.005206516 -0.040395208 0.06694508
-0.15783678 -0.13266073 0.12894899 0.022011155 0.019035429 -0.0016167887 0.117657244 -0.06803292
0.16665563 -0.017792745 -0.029977158 -0.028176913 0.17816667 -0.027970813 0.06560425 0.02228886
0.23219635 0.03988988 0.047301125 -0.0011434506 -0.12301744 -0.056299392 -0.27568525 0.11672876
0.032209292 0.036538016 0.037579786 0.0061930525 -0.33438414 0.24414748 -0.3633034 0.26645413
-0.018974481 -0.09355321 0.036807343 0.030894626 -0.16147485 -0.19222102 0.23471877 -0.010409447
0.038502306 -0.00963036 0.13080621 -0.013713758 -0.046270642 0.03133208 -0.26019856 0.020364227
0.092739955 0.14098766 0.067253806 -0.050130125 -0.05702351 -0.048634015 -0.0077799065 -0.2979495
-0.013855022 0.045217898 0.0426455 0.0980411 0.07600086 -0.032910988 -0.23831068 0.021702485
0.09018892 -0.0283283 -0.07768677 0.0014717948 -0.04229253 -0.096216604 0.30189106 -0.129432
0.124879844 -0.054606885 -0.06299958 -0.15188958 0.08471791 -0.083155826 0.03590925 -0.024535317
0.2355756 0.11206916 0.107667364 0.06925045 -0.08384455 -0.11235817 -0.18780248 0.14426035
0.12593813 -0.009529688 -0.01572964 0.022019729 -0.29797137 0.16430028 -0.2576733 0.38857538
-0.007982537 -0.13384543 -0.059079643 0.044432342 -0.13857825 -0.09749563 0.22225866 0.009992836
0.05020605 -0.06865043 0.07153411 0.0028345694 -0.08440281 0.04368674 -0.31767595 0.0018951622
0.020116623 0.09204202 0.09795886 0.0128046665 -0.03395875 -0.0649955 -0.011919694 -0.22397928
-0.032360643 0.1265634 0.02061863 0.06932735 -0.027515857 -0.05035606 -0.13548955 0.087647095
0.13396321 -0.048764836 -0.15094376 0.069105156 -0.08616286 -0.018479088 0.21523961 -0.14401026
0.06303618 -0.026464786 -0.054828525 0.060917847 0.1203048 -0.008648042 0.07811101 -0.028265608
-0.037921354 0.033074915 -0.020496251 0.012198188 0.06722561 -0.02498061 -0.07399393 -0.10240348
0.049905036 -0.03516954 -0.06736798 -0.029073829 -0.13532774 -0.02609077 -0.005485853 -0.15819225
0.044986166 0.042007554 -0.13690245 -0.0762711 0.013820461 -0.11974417 0.07923195 -0.037448764
-0.05923013 -0.021728266 0.05202554 0.06319853 -0.03290379 0.0051164012 -0.034693483 0.009995599
-0.057529833 0.03238074 0.0153307635 -0.009431141 -0.0034866296 0.008436627 -0.035607155 0.050805114
-0.041923385 0.036172792 0.034207214 -0.013630221 0.00238718 0.011312428 -0.03895914 0.024638029
-0.023937955 -0.03565661 0.08043446 -0.030683793 0.0595036 -0.0701421 -0.045826584 0.017233357
00000000: 94cd 983d ea6a 84bd 7380 1ebe 52b9 15be
00000010: 6257 5cbd 4f83 c2bd 348d 0bbd bff9 b2bd
00000020: 4f05 95bc 87ab e73d 4279 fb3d 914b 5a3e
00000030: 944f 313e 57ef d5bd e5fb 063d 0974 adbd
00000040: 9474 0d3e a89f 19be 514e 93bd f785 b53d
00000050: b7dd 953d 7efb 00be d580 a03d 3e33 97bd
00000060: 39ca 253d f211 083e 7e55 38be 3d27 b0bd
00000070: 5b75 96bd f2c4 e23d 56f7 8ebd c3a9 d0bd
00000080: 8de8 edbd fc62 e4bd 075b f7bb 9167 f5bc
00000090: d9d6 b7bd 821d 4b3e 0ba0 d53d 1b3a 423e
000000a0: 3c82 76bd af23 fd3c 1e13 b6bd a064 09be
000000b0: 6fb7 893d 1850 d63b b3e1 a43d 5957 15bc
000000c0: 618b 53bd 2add 6cbd 3b19 323e 78de 413c
000000d0: 1082 87bd 6c9b aa3b 7275 25bd 811a 893d
000000e0: f79f 21be 37d8 07be 340b 043e bd50 b43c
000000f0: 30f0 9b3c 6dea d3ba 48f6 f03d d854 8bbd
00000100: c6a7 2a3e 17c2 91bc a892 f5bc 45d3 e6bc
00000110: 5371 363e 0c23 e5bc 855b 863d 2197 b63c
00000120: e1c4 6d3e 9263 233d d3be 413d d6df 95ba
00000130: 91f0 fbbd 319a 66bd 9e26 8dbe 7d0f ef3d
00000140: e4ed 033d e3a8 153d 43ed 193d 17ef ca3b
00000150: 6634 abbe cc01 7a3e e702 babe ad6c 883e
00000160: 5f70 9bbc d398 bfbd 4cc3 163d ba16 fd3c
00000170: aa59 25be 96d5 44be 1e5a 703e 638c 2abc
00000180: 98b4 1d3d a8c8 1dbc 10f2 053e acaf 60bc
00000190: 4986 3dbd 1156 003d bf38 85be e1d2 a63c
000001a0: 72ee bd3d 125f 103e 5dbc 893d 3f55 4dbd
000001b0: 7c91 69bd 7634 47bd 96ee febb d68c 98be
000001c0: 2d00 63bc 6736 393d 0cad 2e3d c6c9 c83d
000001d0: 57a6 9b3d accd 06bd b707 74be 69c9 b13c
000001e0: f8b4 b83d c010 e8bc 3e1a 9fbd 3de9 c03a
000001f0: ef3a 2dbd 360d c5bd 7791 9a3e d289 04be
00000200: 01c1 ff3d 78ab 5fbd ec05 81bd f188 1bbe
00000210: 9580 ad3d 9a4d aabd 9415 133d 4afe c8bc
00000220: bb3a 713e 8484 e53d b580 dc3d 2ed3 8d3d
00000230: b1b6 abbd 0a1c e6bd 4b4f 40be fcb8 133e
00000240: edf5 003e 6922 1cbc 72db 80bc b862 b43c
00000250: b48f 98be 553e 283e c1ed 83be 5af3 c63e
00000260: 30c9 02bc c70e 09be 7ffd 71bd b0fe 353d
00000270: 75e7 0dbe caab c7bd c697 633e feb8 233c
00000280: dca4 4d3d 9998 8cbd 7a80 923d 2fc4 393b
00000290: 61db acbd def0 323d 6ca6 a2be 1767 f83a
000002a0: 9ecb a43c 8780 bc3d a89e c83d aaca 513c
000002b0: 5518 0bbd 5c1c 85bd d24a 43bc d35a 65be
000002c0: 988c 04bd d699 013e 67e8 a83c 7ffb 8d3d
000002d0: ef68 e1bc 2842 4ebd c6bd 0abe 5280 b33d
000002e0: a72d 093e a3bd 47bd 0091 1abe 0187 8d3d
000002f0: 2776 b0bd 7561 97bc c667 5c3e 6d77 13be
00000300: 1d19 813d aecc d8bc e093 60bd fe84 793d
00000310: 5d62 f63d 84b0 0dbc aaf8 9f3d 478d e7bc
00000320: 6c53 1bbd 9079 073d c1e7 a7bc e9da 473c
00000330: 95ad 893d 23a4 ccbc 218a 97bd eab8 d1bd
00000340: 3969 4c3d f00d 10bd 39f8 89bd 3d2c eebc
00000350: 5b93 0abe 4fbc d5bc acc2 b3bb 26fd 21be
00000360: 6a43 383d 1d10 2c3d 2830 0cbe 0634 9cbd
00000370: 376f 623c 6e3c f5bd 5c44 a23d e063 19bd
00000380: 4b9b 72bd 7aff b1bc bc18 553d 3b6e 813d
00000390: 20c6 06bd 7ca7 a73b c11a 0ebd 95c4 233c
000003a0: 67a4 6bbd aba1 043d e22d 7b3c 1385 1abc
000003b0: f07f 64bb c739 0a3c cfd8 11bd 0619 503d
000003c0: dbb7 2bbd ec29 143d dd1c 0c3d 4a51 5fbc
000003d0: 3c72 1c3b c357 393c 9f93 1fbd b1d5 c93c
000003e0: 8819 c4bc aa0c 12bd d2ba a43d 945c fbbc
000003f0: 0cba 733d a9a6 8fbd a8b4 3bbd f82c 8d3c

lstm.bias_ih_l0 f4 [256]
0.043013938 0.27641553 0.13055293 0.05847937 0.09053585 0.14565824 0.11154708 0.088998586
0.41760635 0.088729315 0.07756039 0.24355046 0.04544594 0.057736345 0.10209514 0.27448237
0.103039786 0.19655937 0.11254006 0.076800585 0.2154524 0.10624826 0.06997794 0.2526426
0.054724265 0.4717434 0.1549577 0.32224065 0.19696736 0.088009566 0.028273378 0.25491658
0.3660358 0.06505305 0.039863385 0.17165932 0.21057318 0.084453665 0.04331886 0.055007063
0.048493583 0.13778943 0.34943452 0.076342724 0.4301334 0.21346241 0.08884805 0.055665564
0.1250875 0.05579994 0.13278212 0.2550102 0.09532876 0.0684988 0.077096224 0.1136992
0.3169469 0.105186 0.2579716 0.083302476 0.005723693 0.0586609 0.08288171 0.28635824
-0.0063812356 -0.108169064 -0.09966603 -0.029496642 -0.016412174 -0.09024413 -0.09227576 -0.04892932
-0.17549033 -0.032642055 -0.048427004 -0.2066848 0.013655007 -0.0433125 -0.011736558 -0.12710746
-0.08007274 -0.07739801 0.023783226 0.0042491155 0.03096872 -0.051666237 0.017080342 -0.0015365867
-0.18577579 -0.31030002 -0.048383545 -0.1291906 -0.09989711 -0.059417326 0.0061216773 -0.13262631
-0.12197284 -0.0194268 -0.013699812 -0.034337677 -0.05545287 -0.068464294 0.011565614 -0.024552867
-0.040007032 -0.0025742233 -0.13556999 -0.020844376 -0.1622546 -0.09681063 -0.055087026 0.026642092
-0.028544167 -0.032546807 -0.041051157 -0.23638003 -0.07118272 -0.016392317 -0.027166232 0.023114087
-0.11321315 -0.043340866 -0.13538595 -0.068195894 -0.046602324 -0.040639002 0.017985309 -0.2079351
0.046063248 -0.002255576 0.014501875 0.0010623173 0.070455 0.015672816 -0.041575875 -0.014334332
-0.038519785 -0.0066353725 -0.012578019 -0.009103174 -0.041404333 0.037531864 -0.115123644 0.0005100655
-0.016425762 -0.015022974 0.034780566 -0.026724627 -0.2324189 0.11495939 -0.15101512 0.008807573
-0.02639393 -0.009154403 -0.006847627 0.0044164704 0.036019716 -0.117974766 0.062346585 -0.012042035
0.001908072 0.0066744247 0.024040997 -0.017861338 0.016208706 0.0029019555 -0.07874252 -0.013781421
0.054205008 -0.012128528 0.0050587365 -0.048824362 0.0009538254 -0.014837136 -0.014734726 -0.06816493
0.008507184 -0.018900027 -0.0088459 -0.015076626 -0.0034987787 -0.047863986 -0.08916713 3.329814e-05
0.0049053337 0.005267987 0.006582656 0.0018703853 0.020614952 -0.053720735 0.081182286 -0.01692034
0.03876529 0.3022005 0.15369128 0.06030483 0.0888676 0.16330396 0.11956603 0.07678626
0.38257462 0.09376894 0.080666356 0.37334207 0.03829645 0.059471738 0.09376549 0.2887055
0.121926956 0.18333152 0.10486772 0.081150584 0.14415595 0.0997115 0.047009267 0.27297044
0.29200634 0.51837605 0.15841016 0.30280563 0.15845172 0.05326166 0.031721834 0.27612647
0.3795475 0.06806298 0.03774637 0.17103584 0.2194171 0.089089446 0.037543826 0.0666151
0.046042874 0.11862885 0.35132277 0.07863533 0.43081266 0.21630427 0.09223088 0.044812538
0.13218245 0.055662546 0.13417742 0.18646617 0.10105795 0.056225326 0.06479712 0.11760462
0.2835654 0.10816874 0.2698601 0.076883495 0.0027242985 0.056542378 0.056577154 0.33103558
00000000: 622f 303d 5686 8d3e abaf 053e 1088 6f3d
00000010: dc6a b93d 6f27 153e cc72 e43d e444 b63d
00000020: 80d0 d53e b7b7 b53d fbd7 9e3d 4b65 793e
00000030: 8625 3a3d f27c 6c3d 4217 d13d f488 8c3e
00000040: 8606 d33d dc46 493e 677b e63d a049 9d3d
00000050: 8e9f 5c3e b098 d93d 9850 8f3d 5f5a 813e
00000060: 8d26 603d 5a88 f13e 3bad 1e3e bafc a43e
00000070: d0b1 493e 5c3e b43d 929d e73c 6d84 823e
00000080: 0b69 bb3e 893a 853d ca47 233d 76c7 2f3e
00000090: 7fa0 573e 0bf6 ac3d 1e6f 313d 164f 613d
000000a0: 35a1 463d ac18 0d3e 15e9 b23e 9359 9c3d
000000b0: 723a dc3e e495 5a3e f7f5 b53d 9301 643d
000000c0: f016 003e 7a8e 643d 09f8 073e b290 823e
000000d0: ba3b c33d 1949 8c3d a0e4 9d3d 20db e83d
000000e0: dd46 a23e c26b d73d db14 843e 7d9a aa3d
000000f0: d18d bb3b 6946 703d e3bd a93d 8c9d 923e
00000100: af19 d1bb be87 ddbd b41d ccbd f1a2 f1bc
00000110: d372 86bc ead1 b8bd 13fb bcbd 1c6a 48bd
00000120: bdb3 33be adb3 05bd 655b 46bd 2ea5 53be
00000130: 40b9 5f3c 7368 31bd b14a 40bc 7528 02be
00000140: 2dfd a3bd d982 9ebd 0ad5 c23c 2a3c 8b3b
00000150: 1db2 fd3c fa9f 53bd 13ec 8b3c 4b67 c9ba
00000160: 023c 3ebe a5df 9ebe d32d 46bd 8a4a 04be
00000170: db96 ccbd 955f 73bd 5a98 c83b 31cf 07be
00000180: e5cc f9bd f424 9fbc 2d75 60bc aaa5 0cbd
00000190: 8c22 63bd 0237 8cbd b37d 3d3c 1823 c9bc
000001a0: 6ade 23bd 4db4 28bb dcd2 0abe d3c1 aabc
000001b0: 1226 26be a744 c6bd efa2 61bd 8440 da3c
000001c0: 75d5 e9bc cd4f 05bd 4225 28bd 9b0d 72be
000001d0: 3fc8 91bd 2e49 86bc b88b debc c159 bd3c
000001e0: 4cdc e7bd 3186 31bd 9da2 0abe 4aaa 8bbd
000001f0: 14e2 3ebd 1575 26bd ed55 933c f0ec 54be
00000200: d1ac 3c3d 49d2 13bb 4699 6d3c 743d 8b3a
00000210: b64a 903d 4764 803c 774b 2abd 8cda 6abc
00000220: ecc6 1dbd 8a6d d9bb 0914 4ebc 7b25 15bc
00000230: 9797 29bd 03bb 193d f2c5 ebbd ebb5 053a
00000240: 528f 86bc ec22 76bc 1176 0e3d 9bed dabc
00000250: 38ff 6dbe d46f eb3d b5a3 1abe a34d 103c
00000260: 1538 d8bc 59fc 15bc 0f62 e0bb 0ab8 903b
00000270: 6989 133d c19c f1bd 225f 7f3d f54b 45bc
00000280: 4618 fa3a 22b5 da3b a0f1 c43c f151 92bc
00000290: 1fc8 843c bc2e 3e3b c243 a1bd 78cb 61bc
000002a0: 1206 5e3d bcb6 46bc c2c3 a53b 0efc 47bd
000002b0: 240a 7a3a 7517 73bc ec69 71bc 0e9a 8bbd
000002c0: b761 0b3c 3bd4 9abc 65ee 10bc f403 77bc
000002d0: c44b 65bb 070d 44bd 429d b6bd 9ba9 0b38
000002e0: ecbc a03b 149f ac3b 52b3 d73b b727 f53a
000002f0: b0e0 a83c 460a 5cbd e642 a63d 869c 8abc
00000300: 5ac8 1e3d 06ba 9a3e 3f61 1d3e 3302 773d
00000310: 3700 b63d 2739 273e 09df f43d 1d42 9d3d
00000320: d2e0 c33e ee09 c03d 6734 a53d b126 bf3e
00000330: bddc 1c3d a398 733d 1f08 c03d 35d1 933e
00000340: d7b4 f93d 42bb 3b3e e3c4 d63d 4732 a63d
00000350: 9e9d 133e 8b35 cc3d ca8c 403d c8c2 8b3e
00000360: db81 953e 4bb4 043f 4636 223e 5709 9b3e
00000370: 2b41 223e e628 5a3d c1ee 013d 7360 8d3e
00000380: 0d54 c23e 9b64 8b3d f09b 1a3d 0524 2f3e
00000390: e0ae 603e 8774 b63d 8ec7 193d 7f6d 883d
000003a0: 7497 3c3d aff3 f23d 94e0 b33e 8f0b a13d
000003b0: 7a93 dc3e de7e 5d3e 8be3 bc3d 5a8d 373d
000003c0: d65a 073e 69fe 633d ce65 093e fdf0 3e3e
000003d0: 78f7 ce3d 874c 663d 5ab4 843d b1da f03d
000003e0: 7c2f 913e 9387 dd3d 1a2b 8a3e 1875 9d3d
000003f0: 258a 323b fb98 673d 72bd 673d 7f7d a93e

lstm.bias_hh_l0 f4 [256]
0.043013938 0.27641553 0.13055293 0.05847937 0.09053585 0.14565824 0.11154708 0.088998586
0.41760635 0.088729315 0.07756039 0.24355046 0.04544594 0.057736345 0.10209514 0.27448237
0.103039786 0.19655937 0.11254006 0.076800585 0.2154524 0.10624826 0.06997794 0.2526426
0.054724265 0.4717434 0.1549577 0.32224065 0.19696736 0.088009566 0.028273378 0.25491658
0.3660358 0.06505305 0.039863385 0.17165932 0.21057318 0.084453665 0.04331886 0.055007063
0.048493583 0.13778943 0.34943452 0.076342724 0.4301334 0.21346241 0.08884805 0.055665564
0.1250875 0.05579994 0.13278212 0.2550102 0.09532876 0.0684988 0.077096224 0.1136992
0.3169469 0.105186 0.2579716 0.083302476 0.005723693 0.0586609 0.08288171 0.28635824
-0.0063812356 -0.108169064 -0.09966603 -0.029496642 -0.016412174 -0.09024413 -0.09227576 -0.04892932
-0.17549033 -0.032642055 -0.048427004 -0.2066848 0.013655007 -0.0433125 -0.011736558 -0.12710746
-0.08007274 -0.07739801 0.023783226 0.0042491155 0.03096872 -0.051666237 0.017080342 -0.0015365867
-0.18577579 -0.31030002 -0.048383545 -0.1291906 -0.09989711 -0.059417326 0.0061216773 -0.13262631
-0.12197284 -0.0194268 -0.013699812 -0.034337677 -0.05545287 -0.068464294 0.011565614 -0.024552867
-0.040007032 -0.0025742233 -0.13556999 -0.020844376 -0.1622546 -0.09681063 -0.055087026 0.026642092
-0.028544167 -0.032546807 -0.041051157 -0.23638003 -0.07118272 -0.016392317 -0.027166232 0.023114087
-0.11321315 -0.043340866 -0.13538595 -0.068195894 -0.046602324 -0.040639002 0.017985309 -0.2079351
0.046063248 -0.002255576 0.014501875 0.0010623173 0.070455 0.015672816 -0.041575875 -0.014334332
-0.038519785 -0.0066353725 -0.012578019 -0.009103174 -0.041404333 0.037531864 -0.115123644 0.0005100655
-0.016425762 -0.015022974 0.034780566 -0.026724627 -0.2324189 0.11495939 -0.15101512 0.008807573
-0.02639393 -0.009154403 -0.006847627 0.0044164704 0.036019716 -0.117974766 0.062346585 -0.012042035
0.001908072 0.0066744247 0.024040997 -0.017861338 0.016208706 0.0029019555 -0.07874252 -0.013781421
0.054205008 -0.012128528 0.0050587365 -0.048824362 0.0009538254 -0.014837136 -0.014734726 -0.06816493
0.008507184 -0.018900027 -0.0088459 -0.015076626 -0.0034987787 -0.047863986 -0.08916713 3.329814e-05
0.0049053337 0.005267987 0.006582656 0.0018703853 0.020614952 -0.053720735 0.081182286 -0.01692034
0.03876529 0.3022005 0.15369128 0.06030483 0.0888676 0.16330396 0.11956603 0.07678626
0.38257462 0.09376894 0.080666356 0.37334207 0.03829645 0.059471738 0.09376549 0.2887055
0.121926956 0.18333152 0.10486772 0.081150584 0.14415595 0.0997115 0.047009267 0.27297044
0.29200634 0.51837605 0.15841016 0.30280563 0.15845172 0.05326166 0.031721834 0.27612647
0.3795475 0.06806298 0.03774637 0.17103584 0.2194171 0.089089446 0.037543826 0.0666151
0.046042874 0.11862885 0.35132277 0.07863533 0.43081266 0.21630427 0.09223088 0.044812538
0.13218245 0.055662546 0.13417742 0.18646617 0.10105795 0.056225326 0.06479712 0.11760462
0.2835654 0.10816874 0.2698601 0.076883495 0.0027242985 0.056542378 0.056577154 0.33103558
00000000: 622f 303d 5686 8d3e abaf 053e 1088 6f3d
00000010: dc6a b93d 6f27 153e cc72 e43d e444 b63d
00000020: 80d0 d53e b7b7 b53d fbd7 9e3d 4b65 793e
00000030: 8625 3a3d f27c 6c3d 4217 d13d f488 8c3e
00000040: 8606 d33d dc46 493e 677b e63d a049 9d3d
00000050: 8e9f 5c3e b098 d93d 9850 8f3d 5f5a 813e
00000060: 8d26 603d 5a88 f13e 3bad 1e3e bafc a43e
00000070: d0b1 493e 5c3e b43d 929d e73c 6d84 823e
00000080: 0b69 bb3e 893a 853d ca47 233d 76c7 2f3e
00000090: 7fa0 573e 0bf6 ac3d 1e6f 313d 164f 613d
000000a0: 35a1 463d ac18 0d3e 15e9 b23e 9359 9c3d
000000b0: 723a dc3e e495 5a3e f7f5 b53d 9301 643d
000000c0: f016 003e 7a8e 643d 09f8 073e b290 823e
000000d0: ba3b c33d 1949 8c3d a0e4 9d3d 20db e83d
000000e0: dd46 a23e c26b d73d db14 843e 7d9a aa3d
000000f0: d18d bb3b 6946 703d e3bd a93d 8c9d 923e
00000100: af19 d1bb be87 ddbd b41d ccbd f1a2 f1bc
00000110: d372 86bc ead1 b8bd 13fb bcbd 1c6a 48bd
00000120: bdb3 33be adb3 05bd 655b 46bd 2ea5 53be
00000130: 40b9 5f3c 7368 31bd b14a 40bc 7528 02be
00000140: 2dfd a3bd d982 9ebd 0ad5 c23c 2a3c 8b3b
00000150: 1db2 fd3c fa9f 53bd 13ec 8b3c 4b67 c9ba
00000160: 023c 3ebe a5df 9ebe d32d 46bd 8a4a 04be
00000170: db96 ccbd 955f 73bd 5a98 c83b 31cf 07be
00000180: e5cc f9bd f424 9fbc 2d75 60bc aaa5 0cbd
00000190: 8c22 63bd 0237 8cbd b37d 3d3c 1823 c9bc
000001a0: 6ade 23bd 4db4 28bb dcd2 0abe d3c1 aabc
000001b0: 1226 26be a744 c6bd efa2 61bd 8440 da3c
000001c0: 75d5 e9bc cd4f 05bd 4225 28bd 9b0d 72be
000001d0: 3fc8 91bd 2e49 86bc b88b debc c159 bd3c
000001e0: 4cdc e7bd 3186 31bd 9da2 0abe 4aaa 8bbd
000001f0: 14e2 3ebd 1575 26bd ed55 933c f0ec 54be
00000200: d1ac 3c3d 49d2 13bb 4699 6d3c 743d 8b3a
00000210: b64a 903d 4764 803c 774b 2abd 8cda 6abc
00000220: ecc6 1dbd 8a6d d9bb 0914 4ebc 7b25 15bc
00000230: 9797 29bd 03bb 193d f2c5 ebbd ebb5 053a
00000240: 528f 86bc ec22 76bc 1176 0e3d 9bed dabc
00000250: 38ff 6dbe d46f eb3d b5a3 1abe a34d 103c
00000260: 1538 d8bc 59fc 15bc 0f62 e0bb 0ab8 903b
00000270: 6989 133d c19c f1bd 225f 7f3d f54b 45bc
00000280: 4618 fa3a 22b5 da3b a0f1 c43c f151 92bc
00000290: 1fc8 843c bc2e 3e3b c243 a1bd 78cb 61bc
000002a0: 1206 5e3d bcb6 46bc c2c3 a53b 0efc 47bd
000002b0: 240a 7a3a 7517 73bc ec69 71bc 0e9a 8bbd
000002c0: b761 0b3c 3bd4 9abc 65ee 10bc f403 77bc
000002d0: c44b 65bb 070d 44bd 429d b6bd 9ba9 0b38
000002e0: ecbc a03b 149f ac3b 52b3 d73b b727 f53a
000002f0: b0e0 a83c 460a 5cbd e642 a63d 869c 8abc
00000300: 5ac8 1e3d 06ba 9a3e 3f61 1d3e 3302 773d
00000310: 3700 b63d 2739 273e 09df f43d 1d42 9d3d
00000320: d2e0 c33e ee09 c03d 6734 a53d b126 bf3e
00000330: bddc 1c3d a398 733d 1f08 c03d 35d1 933e
00000340: d7b4 f93d 42bb 3b3e e3c4 d63d 4732 a63d
00000350: 9e9d 133e 8b35 cc3d ca8c 403d c8c2 8b3e
00000360: db81 953e 4bb4 043f 4636 223e 5709 9b3e
00000370: 2b41 223e e628 5a3d c1ee 013d 7360 8d3e
00000380: 0d54 c23e 9b64 8b3d f09b 1a3d 0524 2f3e
00000390: e0ae 603e 8774 b63d 8ec7 193d 7f6d 883d
000003a0: 7497 3c3d aff3 f23d 94e0 b33e 8f0b a13d
000003b0: 7a93 dc3e de7e 5d3e 8be3 bc3d 5a8d 373d
000003c0: d65a 073e 69fe 633d ce65 093e fdf0 3e3e
000003d0: 78f7 ce3d 874c 663d 5ab4 843d b1da f03d
000003e0: 7c2f 913e 9387 dd3d 1a2b 8a3e 1875 9d3d
000003f0: 258a 323b fb98 673d 72bd 673d 7f7d a93e

lstm.weight_ih_l1 f4 [256, 64]
-0.06975708 -0.046079256 -0.22387768 -0.013230311 0.15593666 -0.096676834 -0.072742574 -0.10752059
-0.16416496 0.091876484 0.1328147 0.06326793 0.098190114 0.0064023803 0.012844376 -0.19091055
0.071438834 0.017659375 0.11475024 -0.046180405 0.039053995 0.18210225 -0.025593573 0.11994281
0.16481411 0.030128201 -0.08932857 -0.2542735 -0.007060702 -0.06098838 0.012544071 -0.16074969
-0.15824609 -0.07511128 -0.08568193 0.12385053 -0.16790086 0.11869168 0.08119727 0.11150479
0.117873855 0.14259833 -0.18583548 0.04777143 0.15562049 0.17031786 -0.112437285 -0.0062927706
-0.21081078 0.18814415 0.22297318 -0.06173603 -0.1681415 0.018102165 -0.06779209 0.07126735
-0.20035927 -0.1732977 0.19751503 -0.03545005 -0.14817517 0.02669259 0.11085768 0.13027528
0.05469272 -0.17650712 -0.14236546 -0.05984403 0.013268587 -0.08439594 -0.1513075 -0.05291308
-0.09949924 -0.016137874 -0.031092182 0.10687026 -0.0032183982 0.033765182 -0.09780149 -0.23709199
-0.036182847 -0.09219633 0.12856326 -0.131421 -0.042833995 0.17377183 0.013560623 -0.1002565
0.07260954 0.08810602 -0.026516695 -0.055535764 0.27393907 -0.18259458 0.065702945 -0.14936844
-0.19259997 -0.20366193 -0.016027242 -0.09226762 -0.068012394 0.016777975 0.070076704 0.16068675
0.045350213 0.08851469 -0.16045888 -0.16436556 0.04337924 0.07404616 -0.18674576 -0.02334882
-0.07266888 0.11128282 0.06106336 -0.024963198 -0.09134502 -0.22558257 -0.18169254 0.015511029
-0.12873676 -0.07885448 0.19510548 0.17498596 -0.14545234 -0.18144345 0.010460893 0.10666799
0.07040494 0.033128753 0.13279584 -0.022750285 0.107808255 0.20368245 -0.009855335 -0.06125272
0.036164526 -0.04783515 0.015117837 -0.19115122 -0.015231815 0.1435108 0.053766392 -0.040295612
-0.010670769 -0.02000549 0.07970788 0.056192666 -0.1392697 -0.046061024 0.046198156 0.029873915
-0.21269181 -0.15766594 0.14389525 0.15940848 -0.07687492 0.051461503 0.043368228 0.16565923
0.17617357 0.099930294 0.016355632 -0.071940795 0.19404705 -0.2558899 -0.04989423 0.0062495493
0.021194935 0.0142000485 -0.025847323 0.13015568 -0.15995511 0.03958394 -0.055852853 -0.043202505
0.16884692 0.043667685 -0.113236845 0.111936375 0.02623768 -0.11218819 0.09875953 -0.058863055
0.10066776 0.026935969 -0.14170255 -0.1299589 -0.012032309 -0.042834096 0.17333664 0.006453464
0.101340786 -0.23816384 -0.18579888 -0.21132126 0.15078484 -0.21108933 -0.09587673 -0.12130907
-0.021899942 0.24347731 0.110241696 0.18014339 0.13163443 -0.13393214 0.09614334 -0.18555972
0.1476202 0.027899383 0.09951339 0.013601103 -0.020182079 0.035706148 -0.026268616 0.14673164
0.36557394 0.27081925 0.054771405 -0.11904679 0.12292297 0.08937038 -0.011083811 -0.15369013
-0.10006523 -0.2245958 0.08585466 0.1265677 -0.17353652 0.20828557 0.05958824 0.17497297
-0.095977716 0.039472483 -0.21626791 -0.07840508 0.24237488 -0.03877415 -0.08826938 -0.06995079
-0.07565937 0.017327655 0.18038666 -0.14919794 -0.034018334 -0.06421439 0.0047794557 0.16957784
-0.1863657 -0.09504903 0.22448832 0.09591344 -0.020790378 0.048778135 -0.08123392 0.19123624
00000000: cddc 8ebd 9abd 3cbd 3140 65be f2c3 58bc
00000010: dcad 1f3e 81fe c5bd 0ffa 94bd c133 dcbd
00000020: dc1a 28be bd29 bc3d 9400 083e 9e92 813d
00000030: e617 c93d 0fcb d13b 3871 523c 0e7e 43be
00000040: 864e 923d 65aa 903c 2d02 eb3d aa27 3dbd
00000050: 15f7 1f3d 0379 3a3e 9da9 d1bc 93a4 f53d
00000060: 08c5 283e 6bcf f63c e6f1 b6bd 2330 82be
00000070: 765d e7bb f4ce 79bd a685 4d3c 919b 24be
00000080: 430b 22be f1d3 99bd 027a afbd 59a5 fd3d
00000090: 34ee 2bbe a014 f33d c14a a63d a05c e43d
000000a0: d967 f13d 4c05 123e a84b 3ebe faab 433d
000000b0: fa5a 1f3e ce67 2e3e 8545 e6bd 9633 cebb
000000c0: c8de 57be dca8 403e 1553 643e ebde 7cbd
000000d0: 492d 2cbe fe4a 943c 94d6 8abd 9ef4 913d
000000e0: fb2a 4dbe f474 31be 6141 4a3e 1234 11bd
000000f0: 3bbb 17be 6baa da3c 5a09 e33d e266 053e
00000100: 7905 603d 48be 34be 40c8 11be 031f 75bd
00000110: 7d64 593c c7d7 acbd 5af0 1abe 63bb 58bd
00000120: 42c6 cbbd 9333 84bc 08b5 febc cbde da3d
00000130: c3eb 52bb 5c4d 0a3d 264c c8bd 3ec8 72be
00000140: 7734 14bd 6ed1 bcbd 16a6 033e 3a93 06be
00000150: b372 2fbd 3ef1 313e 602d 5e3c 4853 cdbd
00000160: 4fb4 943d ee70 b43d 8a39 d9bc 7879 63bd
00000170: be41 8c3e 13fa 3abe 448f 863d 0af4 18be
00000180: ed38 45be c18c 50be 904b 83bc cef6 bcbd
00000190: 154a 8bbd f771 893c 6084 8f3d 118b 243e
000001a0: 25c1 393d 3147 b53d 554f 24be 724f 28be
000001b0: 6eae 313d 83a5 973d 483a 3fbe 0646 bfbc
000001c0: 6cd3 94bd 3fe8 e33d 931d 7a3d 9f7f ccbc
000001d0: 1913 bbbd 1eff 66be 9c0d 3abe f921 7e3c
000001e0: 92d3 03be 757e a1bd bbc9 473e 852f 333e
000001f0: 75f1 14be 50cc 39be 2a64 2b3c bf74 da3d
00000200: 7730 903d 04b2 073d a2fb 073e ce5e babc
00000210: 93ca dc3d 2292 503e 4578 21bc 22e4 7abd
00000220: 4121 143d caee 43bd ceb0 773c 25bd 43be
00000230: dd8e 79bc 7ff4 123e 263a 5c3d 030d 25bd
00000240: 73d4 2ebc 8ee2 a3bc e33d a33d 482a 663d
00000250: b79c 0ebe 7caa 3cbd 473a 3d3d 24ba f43c
00000260: e2cb 59be 2e73 21be 4759 133e fa3b 233e
00000270: 9970 9dbd 4cc9 523d e2a2 313d 93a2 293e
00000280: d866 343e 41a8 cc3d 3ffc 853c b255 93bd
00000290: 45b4 463e 0004 83be e45d 4cbd 05c9 cc3b
000002a0: 00a1 ad3c 52a7 683c c4bd d3bc 8847 053e
000002b0: 46cb 23be c522 223d f6c5 64bd 1cf5 30bd
000002c0: 35e6 2c3e e3dc 323d b8e8 e7bd e63e e53d
000002d0: 67f0 d63c ecc2 e5bd 7042 ca3d 631a 71bd
000002e0: e62a ce3d d2a8 dc3c 791a 11be f213 05be
000002f0: 2923 45bc ce72 2fbd 297f 313e 9477 d33b
00000300: c28b cf3d 39e1 73be 1042 3ebe 9a64 58be
00000310: 5767 1a3e cd27 58be 055b c4bd e470 f8bd
00000320: 8267 b3bc 1e52 793e 66c6 e13d 8277 383e
00000330: 2dcb 063e 8225 09be cde6 c43d 5e03 3ebe
00000340: c029 173e 3f8d e43c adcd cb3d 29d7 5e3c
00000350: e354 a5bc 9c40 123d 4831 d7bc d240 163e
00000360: 822c bb3e d2a8 8a3e fb57 603d cece f3bd
00000370: 0abf fb3d d107 b73d df98 35bc f260 1dbe
00000380: 00ef ccbd 71fc 65be 91d4 af3d f79a 013e
00000390: 8fb3 31be d048 553e cc12 743d 1d2c 333e
000003a0: f78f c4bd e6ad 213d 5675 5dbe d892 a0bd
000003b0: 1f31 783e a5d1 1ebd 94c6 b4bd 5c42 8fbd
000003c0: 4df3 9abd baf2 8d3c 48b7 383e 58c7 18be
000003d0: cf56 0bbd d682 83bd fb9c 9c3b d0a5 2d3e
000003e0: a6d6 3ebe 11a9 c2bd 44e0 653e 446e c43d
000003f0: 9550 aabc 95cb 473d f85d a6bd 6fd3 433e

lstm.weight_hh_l1 f4 [256, 64]
0.0007586397 0.119376816 -0.05681498 0.03406119 0.048369654 0.059933063 0.01254824 0.03131767
0.004175475 -0.037627243 0.0100375 0.022095028 -0.046677988 -0.0228872 -0.07800573 -0.04686247
0.019983012 -0.089682855 -0.10891192 0.0193564 -0.13676824 0.17665674 0.038801085 0.05726163
0.01062413 0.068678 -0.09861634 -0.04184147 -0.022224436 -0.034096062 0.044301182 -0.074779436
0.06109457 0.11244936 -0.090542905 -0.12900631 0.06558822 0.03392494 -0.05555902 -0.029486561
0.09114629 0.073216625 0.016113855 0.04698381 0.04349803 0.050365474 -0.018593714 0.0011884568
-0.0733059 0.040277388 0.05112115 0.03741983 -0.03268536 -0.04161646 0.025126062 0.008810028
-0.06182955 0.018060846 -0.013852613 0.008328638 -0.054799262 0.037341774 0.04516478 0.13411026
0.1531974 -0.024653787 0.07510877 -0.07981013 -0.010339067 0.1179324 0.005669949 0.042221293
-0.007436561 -0.08924099 0.034982823 -0.020764066 -0.059451193 0.004924104 -0.075255826 -0.10016014
-0.056647018 -0.013682477 0.030368656 0.077994935 0.053441975 0.13842665 -0.06522808 -0.105499774
-0.01306773 -0.0008172436 0.011588346 -0.03994567 -0.028560018 -0.015562926 -0.017672291 0.1235516
0.043146625 -0.07220248 0.022588762 -0.017630223 0.031121535 -0.04952106 -0.04573433 -0.06217553
-0.03659583 -0.014476793 -0.015219156 0.0030529986 0.096163444 0.0130524915 -0.05912512 0.027886197
0.058177233 0.084396265 -0.02855819 -0.013601202 0.041620858 -0.16292204 -0.07934506 -0.041910052
-0.044008218 0.08254456 0.075222686 -0.004699284 0.028257566 0.08124247 0.04119973 -0.18102534
0.0043595913 0.0056910575 -0.060413387 0.034338873 0.023995912 0.014862655 0.10722889 0.013102944
0.05425663 -0.058890715 -0.12295736 -0.072208606 0.11554276 0.040524967 0.03127379 0.040476155
-0.0635085 -0.04839533 0.03686878 -0.1806831 -0.07572438 -0.023730066 -0.06963152 0.027369289
-0.09134402 -0.010683987 0.03711538 -0.06713681 0.07006115 0.052487552 -0.1435975 -0.035898987
0.017481374 -0.026133109 0.0037566659 -0.023335768 0.02090899 -0.025181187 0.016990708 -0.054714426
-0.011089774 0.13285011 -0.05754488 -0.08943512 0.009029435 0.10081094 -0.040873867 -0.029763056
0.0017559284 -0.0132666 0.052996766 0.00033860042 -0.076567575 0.029522868 -0.06128209 -0.0006392189
0.03857422 -0.0008663759 -0.030690411 0.07435244 0.009180042 0.009855339 -0.012031135 0.013068604
-0.03481875 0.014885861 0.046208303 -0.04758955 -0.01059293 -0.012504736 0.02314959 0.07044441
-0.011244524 -0.043800075 0.03122734 0.022393642 -0.14805025 -0.032101955 -0.06311824 0.0039215833
-0.0050876364 0.06912075 -0.08329952 -0.10368222 -0.082693264 0.0066323704 0.026454043 0.0083681485
-0.052693766 0.091159284 0.057271685 0.040123086 0.032890156 -0.016661648 -0.08447215 -0.009693924
0.090924874 0.044261627 -0.038175054 -0.05615057 0.09071781 0.05864515 -0.039392564 0.040851004
0.036811028 -0.08779893 -0.033340063 -0.044094708 0.013634589 0.100022234 -0.030311298 0.004161282
-0.002752634 0.032633077 0.021919215 -0.032731 0.03207759 -0.119169034 0.0020944774 0.01719951
0.017860241 -0.02155006 -0.015390965 0.05244645 0.010794223 -0.015697004 -0.04927709 0.06918002
00000000: 73df 463a d57b f43d d3b6 68bd bf83 0b3d
00000010: 421f 463d 5f7c 753d 2297 4d3c f546 003d
00000020: 6cd2 883b 061f 1abd 5474 243c a200 b53c
00000030: 6b31 3fbd f07d bbbc 78c1 9fbd ddf2 3fbd
00000040: 6ab3 a33c a5ab b7bd 360d dfbd 5091 9e3c
00000050: f90c 0cbe 81e5 343e e3ed 1e3d 2c8b 6a3d
00000060: d510 2e3c 0da7 8c3d 5df7 c9bd f661 2bbd
00000070: 0510 b6bc 50a8 0bbd 2875 353d f625 99bd
00000080: 4d3e 7a3d da4b e63d 8f6e b9bd 3b1a 04be
00000090: 1e53 863d e1f4 0a3d db91 63bd cd8d f1bc
000000a0: e8aa ba3d 99f2 953d 3401 843c 1872 403d
000000b0: fe2a 323d 074c 4e3d d851 98bc fec5 9b3a
000000c0: 6721 96bd e7f9 243d 6964 513d 8945 193d
000000d0: 16e1 05bd 0576 2abd 2cd5 cd3c f057 103c
000000e0: fb40 7dbd 57f4 933c 12f6 62bc d774 083c
000000f0: 3175 60bd b0f3 183d b4fe 383d 3354 093e
00000100: c7df 1c3e bdf6 c9bc a0d2 993d 7e73 a3bd
00000110: 3165 29bc 8b86 f13d fbca b93b 3cf0 2c3d
00000120: 65ae f3bb fbc3 b6bd 264a 0f3d 6719 aabc
00000130: 1883 73bd 615a a13b ba1f 9abd c220 cdbd
00000140: b406 68bd 782c 60bc b0c7 f83c cfbb 9f3d
00000150: f9e5 5a3d b7bf 0d3e 4d96 85bd 4410 d8bd
00000160: 081a 56bc 4a3c 56ba 0cdd 3d3c 129e 23bd
00000170: b3f6 e9bc a5fb 7ebc 7bc5 90bc 9f08 fd3d
00000180: 84ba 303d e5de 93bd 110c b93c 426d 90bc
00000190: 97f2 fe3c 98d6 4abd ec53 3bbd c5ab 7ebd
000001a0: 82e5 15bd 1230 6dbc c459 79bc d114 483b
000001b0: 57f1 c43d 1eda 553c 2f2d 72bd 9871 e43c
000001c0: 404b 6e3d f3d7 ac3d def2 e9bc 93d7 5ebc
000001d0: a27a 2a3d 09d5 26be aa7f a2bd e0a9 2bbd
000001e0: f641 34bd 1f0d a93d 5a0e 9a3d 74fc 99bb
000001f0: 697c e73c 7462 a63d 0cc1 283d b55e 39be
00000200: e7da 8e3b 0d7c ba3b 0774 77bd eba6 0c3d
00000210: 1393 c43c 7e82 733c d29a db3d bbad 563c
00000220: 333c 5e3d 6437 71bd 12d1 fbbd 1be2 93bd
00000230: afa1 ec3d 82fd 253d f218 003d 53ca 253d
00000240: bf10 82bd 2e3a 46bd b803 173d fe04 39be
00000250: 6215 9bbd 8e65 c2bc f89a 8ebd 8f35 e03c
00000260: 9312 bbbd e40b 2fbc 4c06 183d 067f 89bd
00000270: 387c 8f3d 30fd 563d 390b 13be d10a 13bd
00000280: 1935 8f3c 1a15 d6bc 6532 763b a72a bfbc
00000290: 5549 ab3c c748 cebc 1930 8b3c 3c1c 60bd
000002a0: e2b1 35bc dc09 083e 2eb4 6bbd c329 b7bd
000002b0: 32f0 133c f775 ce3d 5b6b 27bd a7d1 f3bc
000002c0: 2e27 e63a 275c 59bc 2313 593d 2e86 b139
000002d0: 76cf 9cbd f1d9 f13c ee02 7bbd 4191 27ba
000002e0: 0000 1e3d 811d 63ba 756a fbbc 1846 983d
000002f0: e367 163c 4a78 213c 3d1e 45bc b31d 563c
00000300: 1b9e 0ebd d4e3 733c eb44 3d3d 43ed 42bd
00000310: f88d 2dbc aae0 4cbc 35a4 bd3c 2945 903d
00000320: f43a 38bc b567 33bd 7bd0 ff3c df72 b73c
00000330: 7c9a 17be 577d 03bd 2344 81bd a080 803b
00000340: 30b6 a6bb 2e8f 8d3d f098 aabd 5857 d4bd
00000350: 165b a9bd 5b54 d93b 26b6 d83c 8f1a 093c
00000360: 6bd5 57bd b8b1 ba3d b795 6a3d 1b58 243d
00000370: d4b7 063d 027e 88bc bcff acbd 44d3 1ebc
00000380: d236 ba3d ae4b 353d 725d 1cbd 24fe 65bd
00000390: 42ca b93d e635 703d 195a 21bd 6253 273d
000003a0: 29c7 163d edcf b3bd 978f 08bd a79c 34bd
000003b0: 9c63 5f3c 75d8 cc3d 664f f8bc 5d5b 883b
000003c0: 8965 34bb 43aa 053d ed8f b33c f110 06bd
000003d0: ca63 033d e50e f4bd 8043 093b fde5 8c3c
000003e0: a44f 923c c089 b0bc 632a 7cbc 17d2 563d
000003f0: 41da 303c 0197 80bc c6d6 49bd 41ae 8d3d
