challenge_6/ai_service/ai/checkpoints/experiments/exp_multi_lstm_best.pt (torch, 277685 bytes, 14 tensors)

country_embedding.weight f4 [239, 32]
00000000: a017 d53d 7b4d 37bd 4fde b2bd 3171 cd3c
00000010: 4d34 dc3b c518 573d 4784 8c39 c6bb 7dbd
00000020: 3311 26bd eb05 033d 2b0d f53d ffc3 c73e
00000030: 349f 4a3d db3c 0c3e 7fb7 3d3d c6b9 e2bb
00000040: 5aab adbd 82d8 153e dac9 42be 9426 69be
00000050: 529b 07bc b03f afbd 39f9 5f3e 26c4 b53d
00000060: d4c9 c43c fe88 8f3d c823 15bd 71ba 8c3d
00000070: 9354 0fbe 908e 0b3e 2ce4 b1bd ea9f a53d
00000080: fac2 113c 23e8 c4bc 38d9 c0bc d6d8 603d
00000090: 307c 63bd e28b aebb 0549 2ebc 895b 893b
000000a0: 42ba 04bd 2b99 183b 1c06 8dbd fbe2 c5bc
000000b0: a1f1 45bc e9d2 81bc a824 c13c cb88 6ebc
000000c0: 6a73 d0bb 84cb d73b 9e8d ce3c 043c 393d
000000d0: 2b0d 46bd 9183 643d 227c 7ebc 4d7d 023d
000000e0: 93a1 45bc d3bf 4b3c 41ad 59bc 4276 8ebc
000000f0: e99d 9d3a 15c6 cbbd e4b5 88bd 0d10 86bb
00000100: 1c46 6ebc b27b ba3d ccba d5bc 8a0c 223c
00000110: f0d5 273d c10a 7a3c 6b3c 4c3c c90b 413b
00000120: 4793 dc3c c9f0 cf3c c4ed 573d 72b5 4cbd
00000130: 6c79 c0bc b3dc 1cbd ba73 f93c 9b88 7b3c
00000140: ba89 063d 35f8 fb3b 8b67 c6bb 05f5 c03c
00000150: f583 1cba e503 8e3c bcab 1cbd 67a7 cabc
00000160: d43e 87bc a4e2 82bc 50cc e53c fc01 a73b
00000170: c8d4 953c 5088 d53c 4b5f 403d b2e6 0e3d
00000180: 2de6 14bc 2abf c33d ee77 aabc 0a48 193b
00000190: e894 c53b 91bd c73c 66ae b03b e3d2 86bc
000001a0: 3945 013d 4c7a 853c 9a9c b23d 3ad4 e9bc
000001b0: 1e23 a6bd b734 b0bc 1b21 123d b993 103c
000001c0: bdd9 953c 7d80 ca3b 3a9e 1bbd fb65 49bc
000001d0: 99e9 2d3c dcde 603c c4f4 fbbc 57da d8bb
000001e0: 293f c5bc 6255 37bc 4443 0a3d fb06 113d
000001f0: f355 febc 5be6 263d bf8f 64bc cdb4 61bd
00000200: b7bc b2bd 05e8 003e 4f1b babd 3a5c 2e3e
00000210: c681 92bd bd86 ab3d 5544 e63d 1104 08bd
00000220: de99 173b ce2c 953d e565 07be 63ed a63d
00000230: 0764 85bb 9476 f4bc e799 343e 32ca e73d
00000240: c818 913c dab7 8e3d 74a5 2cbd 6519 cdbc
00000250: e846 f9bd a04c 493e a27e bf3c bee9 9cbd
00000260: 79a3 23be f143 cbbd c4f4 113e b0fa 0dbe
00000270: 6470 0abc a34e 8cbd 29eb 85bd 4967 153c
00000280: 438e bebc ff80 023e 33a6 aebc ee72 c4bc
00000290: 828c be3d 0924 c13c 2e9b 9c3c d968 493c
000002a0: 35a9 6a3d e036 043d 9200 dd3d 55bd 70bd
000002b0: c31a 35bc 3d72 38bd f229 9d3c 9719 e23c
000002c0: c418 543d 8f28 263c e0cf 89bc da74 9a3c
000002d0: eddc 643c fb00 babc d176 2fbd b69a 71bd
000002e0: 8469 37bb 413b 0bbd b6d8 143d 4cbd 7b3c
000002f0: fc6b a83c ff57 cb3d b115 ee3d 9e79 883d
00000300: 7d6c bb3b 9420 dcbc ddd9 eebc 2a51 40bd
00000310: 3991 8d3d f06b a2ba 434a 51bd 7f96 f7bc
00000320: 9cfb 3c3d 061a cb3c 2e02 683e a982 e83b
00000330: 51e1 e1bd a44f deba a0fc a7bc 4bed 1fbc
00000340: c79b 45bd 615c a53c 1f49 97bd 19e9 bcbd
00000350: 2522 4a3d c5b0 acbd 1381 84bc 0a2b 253d
00000360: 9490 653d a904 933c 2f9a febc cf0a df3d
00000370: 7fb0 17bd 69b0 153e b663 383d 14bb a6bc
00000380: facf 593d 5392 22be 6355 783d 2596 47bd
00000390: daea 293b 66f2 c8bc 57b8 0cbd ee5a 6a3c
000003a0: 47a3 10bd 2f02 2ebd bb22 fcbc 9279 f43d
000003b0: dae4 983d 5882 9d3d d65c bfbd 8791 20bd
000003c0: 52f9 37bd 329e a2bb ff28 8b3c 5a33 e8bc
000003d0: cd24 6c3c 199d c6bd 8898 c63d ef19 5c3d
000003e0: 6c72 a73d fb7d 903d 340e c8bd dafb 1f3c
000003f0: 0928 fbbc d7b1 ac3b 9f9b d4bc c19f 3bbc
0.10404897 -0.044751626 -0.08733808 0.025078388 0.006720102 0.052513856 0.00026801435 -0.061946653
-0.040543746 0.031988066 0.11965402 0.3901672 0.049468234 0.1369509 0.046317574 -0.0069191186
-0.08479948 0.14633372 -0.19022313 -0.22768623 -0.008276777 -0.08557069 0.21872415 0.08875303
0.02402202 0.07008551 -0.036411077 0.068714984 -0.13997106 0.13628602 -0.086860985 0.08087142
0.008896584 -0.024036473 -0.023541078 0.05489429 -0.055538356 -0.005326734 -0.010637526 0.00419182
-0.03240419 0.0023284655 -0.06885931 -0.024156084 -0.012081535 -0.01584764 0.02357705 -0.014558981
-0.0063614147 0.0065855402 0.025214013 0.04522325 -0.0483524 0.055789534 -0.015532525 0.031857777
-0.012062448 0.012435871 -0.013285936 -0.017390374 0.001202521 -0.099498905 -0.06675318 -0.004091269
-0.014543083 0.09105624 -0.026090048 0.009890685 0.04097551 0.015261353 0.012465577 0.0029456487
0.026925696 0.02538337 0.052716985 -0.049977727 -0.023495398 -0.038296413 0.03045069 0.0153523935
0.03284619 0.0076895007 -0.0060548238 0.023554334 -0.0005970591 0.017335841 -0.038249716 -0.024738027
-0.016509451 -0.015977211 0.028051525 0.005096672 0.018289939 0.026065975 0.04696588 0.034887977
-0.009088081 0.09557946 -0.02080914 0.0023388886 0.006029714 0.024382384 0.0053918837 -0.01645798
0.031560156 0.016293667 0.08721276 -0.02854358 -0.08112167 -0.021509511 0.035676103 0.008824282
0.018292302 0.006179868 -0.037992693 -0.01229238 0.010614776 0.013725009 -0.030756362 -0.006617825
-0.024077969 -0.01118979 0.033755556 0.035407048 -0.031046843 0.040747028 -0.013950287 -0.055104066
-0.08727401 0.12588508 -0.0908724 0.17027369 -0.071536586 0.08375309 0.11243502 -0.033207003
0.0023132483 0.072839364 -0.13222463 0.08150747 -0.004070762 -0.029841699 0.17636834 0.113178626
0.017712012 0.06968661 -0.042149976 -0.025036523 -0.121717274 0.19658136 0.023375813 -0.0766177
-0.15980329 -0.09925068 0.14253527 -0.13865161 -0.008449648 -0.06850936 -0.06538994 0.009118863
-0.023261195 0.1274452 -0.021319484 -0.023980584 0.093041435 0.023576753 0.019116964 0.012293064
0.057290275 0.032278895 0.107911244 -0.05877431 -0.011053744 -0.04503082 0.01918504 0.027600093
0.05178143 0.010141506 -0.016822755 0.018854547 0.013968688 -0.022705546 -0.04283792 -0.058985434
-0.0027986476 -0.033992056 0.036339484 0.015364956 0.020559303 0.09928893 0.11625231 0.06663822
0.00571972 -0.026871003 -0.02915662 -0.046952404 0.06912465 -0.0012391787 -0.051096212 -0.03022313
0.04613839 0.024792682 0.22657081 0.007095654 -0.11029304 -0.0016960991 -0.020506203 -0.009761165
-0.048244264 0.020185651 -0.073869936 -0.09224147 0.04934897 -0.084321536 -0.016174829 0.04032425
0.056046084 0.017946558 -0.03107938 0.108907335 -0.037033554 0.14618076 0.045016967 -0.020352878
0.053176858 -0.15876131 0.060628306 -0.048727173 0.0025927336 -0.024529647 -0.034355488 0.014303906
-0.035311963 -0.04248255 -0.03077828 0.1193725 0.07465525 0.07690877 -0.09343879 -0.039201286
-0.044915505 -0.004962706 0.016987322 -0.028344799 0.014413071 -0.09697933 0.09697062 0.05373567
0.08176121 0.07055279 -0.09768334 0.009764636 -0.030658739 0.0052702236 -0.025953112 -0.0114516625

year_proj.0.weight f4 [16, 1]
00000000: 2259 0500 b996 983f 26bb 263f 8c08 9e3f
00000010: 80bc 4a3f 8e57 0580 5124 16bf 5e0d 00be
00000020: 7257 853f d77f 42b1 d69e 0aa1 f78a 103f
00000030: 415f 0500 7a5b 0500 a485 419c 5404 1ebf
4.91152e-40 1.1920997 0.65129316 1.2346358 0.7919388 -4.90586e-40 -0.58649164 -0.12505099
1.0417311 -2.8303384e-09 -4.6966436e-19 0.56462044 4.93348e-40 4.91993e-40 -6.403107e-22 -0.61725354

year_proj.0.bias f4 [16]
00000000: b45c 0580 8718 70be b792 62be fd5c 343d
00000010: 7de6 7bbd 8beb 26a4 6050 873f d510 383f
00000020: 392a 07bd 08d6 cdb8 f799 afa1 9914 9dbd
00000030: b66f 8791 eb88 019f 7745 9d9c 3c50 483e
-4.92433e-40 -0.23446856 -0.2212628 0.044033993 -0.061499108 -3.6195025e-17 1.0571404 0.71900684
-0.03299925 -9.815028e-05 -1.1899215e-18 -0.07669944 -2.1368092e-28 -2.743007e-20 -1.0407345e-21 0.19561857

year_proj.2.weight f4 [8, 16]
00000000: d8c8 0500 00bf 7cbe 79f5 a2be dca7 babd
00000010: 3baa b13d 8a5a 0580 2679 aa3e d08c d03e
00000020: 62a9 18be e1ad 4b2a 4deb 1da1 6154 cfbd
00000030: 8457 0500 1b5c 0580 6d99 a59a 46fa 703e
00000040: 1f6b 0580 7e06 09bf 57ef 19bf 1180 b6be
00000050: 212b 09be c55f 0500 90f5 a83d 2bd9 463e
00000060: f5cf d7be b887 d330 39e7 96a1 90de d9be
00000070: a457 0500 665a 0500 982e bb9a 58c9 8d3e
00000080: 19b6 0500 a5e1 11be 2340 c6be b6d8 ecbd
00000090: 851c 7bbe 2e5e 0580 ec4a 0cbe 9b51 a23d
000000a0: cf45 c0be 77b8 1000 68ab 21a1 9ca5 8cbe
000000b0: 517f 0600 b265 0500 62b5 c318 fa79 db3c
000000c0: 1736 0680 86b3 033e 78ec ab3e 23fb b33e
000000d0: 92c0 bc3e f468 0580 e1b0 eb3d d040 553e
000000e0: f426 6b3e ef5e 0500 4137 b820 7bb1 a93e
000000f0: 8485 0580 a85f 0500 0560 2c19 429f 00bd
00000100: d65a 0580 c600 123f 19a9 3d3f beb1 ee3e
00000110: fd84 f73e 6f5f 0500 4786 c5be 7ba5 1ebe
00000120: bce3 c03e 7b5c 2dad 5e67 c421 074e b13e
00000130: c666 0580 b957 0580 c24c 859a fb1a 83be
00000140: 38c0 0580 174f 173f f33c 203f ce4e bb3e
00000150: 9fee da3e 9560 0580 4594 a4be 32ae 5fbe
00000160: f31d 293e 8be7 109e eee9 6221 7aa7 c23e
00000170: a258 0580 9964 0500 7dd6 c199 31a4 5dbe
00000180: b178 0500 415e 403f 95e9 613f 9c68 2d3f
00000190: 194f 5a3f b4ae 0580 8945 d0be 712d a83c
000001a0: 912a d43e 45be a89e 6607 d220 2fd3 3d3f
000001b0: 4e9d 0580 7369 0580 a399 6998 a686 a5be
000001c0: 33a3 0580 a42e cdbe be7e 08bf d799 8cbe
000001d0: 6b50 78be 2669 0580 e0c3 403e a946 cfbd
000001e0: ba89 18be 595e f506 2bb7 25a1 f60a cebe
000001f0: 3370 0500 0f5b 0580 5fba 2d19 008a 983d
5.31227e-40 -0.24682236 -0.31827906 -0.09114048 0.08675047 -4.91657e-40 0.33295554 0.4073243
-0.14908364 1.8090348e-13 -5.3505087e-19 -0.10123516 4.90572e-40 -4.92219e-40 -6.8490273e-23 0.23532972
-4.97605e-40 -0.5352553 -0.6013083 -0.35644582 -0.13395359 4.93533e-40 0.08249962 0.1941878
-0.42150846 1.5390844e-09 -1.02256e-18 -0.42552614 4.90617e-40 4.91606e-40 -7.7416664e-23 0.27692676
5.24502e-40 -0.14246233 -0.38720807 -0.11564772 -0.24522598 -4.92963e-40 -0.13700455 0.07925721
-0.3755326 1.535541e-39 -5.4775776e-19 -0.274701 5.96685e-40 4.95659e-40 5.058947e-24 0.026791561
-5.70417e-40 0.12861452 0.3357885 0.3515254 0.3686567 -4.96828e-40 0.11508346 0.20825505
0.22964078 4.93233e-40 3.1207376e-19 0.3314322 -5.07074e-40 4.93492e-40 8.9115826e-24 -0.03140188
-4.91763e-40 0.5703243 0.7408615 0.46619982 0.4834365 4.93413e-40 -0.38579008 -0.15492813
0.37673748 -9.854446e-12 1.3308838e-18 0.34629843 -4.96046e-40 -4.90646e-40 -5.513152e-23 -0.25606522
-5.28133e-40 0.59105057 0.62593 0.3658356 0.42760178 -4.93825e-40 -0.3214437 -0.21843794
0.16515331 -7.6711785e-21 7.688138e-19 0.380184 -4.90973e-40 4.95265e-40 -2.0042363e-23 -0.21644665
5.02473e-40 0.7514382 0.8824704 0.67737746 0.85276943 -5.21849e-40 -0.4067805 0.02052948
0.41438726 -1.7866386e-20 3.558028e-19 0.74150366 -5.15608e-40 -4.97006e-40 -3.019211e-24 -0.3232929
-5.17722e-40 -0.40074646 -0.53318393 -0.2746112 -0.24249427 -4.96898e-40 0.1882472 -0.10120899
-0.14896289 9.229739e-35 -5.6146595e-19 -0.40242738 4.99427e-40 -4.91843e-40 8.981528e-24 0.074481964

year_proj.2.bias f4 [8]
00000000: 1a65 883e 0e07 8f3e 98d1 88be 5010 fd3d
00000010: bd77 98bd 7be6 0c3e b638 103d 1d05 1cbe
0.26639634 0.2793507 -0.26722407 0.12356627 -0.07444713 0.13759796 0.035210334 -0.15236326

lstm.weight_ih_l0 f4 [256, 40]
00000000: 8147 003b 6a8e cbba b6be 1b3b 014f c63c
00000010: b1a3 18bd 92f0 453c 88a7 9e3c 2e38 99b9
00000020: a025 9fbc 996b c8bb 0624 b2bd 5dac ce3c
00000030: 2874 183d 445e 293c c9c1 283c c1ac 853b
00000040: 4a94 123c 061a 3e3c 7fb5 053c 3f61 3f3c
00000050: 6a39 c3bc 6e9e d63c 5dfb 9d3c 0bf7 25bc
00000060: 9840 a4bc d7d8 a0bb 885f 0c3c b0af 18bd
00000070: 7c0e f2ba 9429 3abd 4ed1 29bd 2239 3fbc
00000080: 7fe5 2d3d 9292 71bd babf bdbd 116a e03d
00000090: 2155 ad3d 7784 a53d 7b19 213e 1340 afbd
000000a0: ec1a 4b3b fea9 a2bc f941 e73b 8ed2 3a3c
000000b0: 2287 dabc 6313 153b 3739 d23b 1fdb 43ba
000000c0: 4eef 7fbc 28d4 02bc 8a16 62bd bd7c aa3c
000000d0: 26f2 b73c d9fd 4c3c 30c6 1bbb 3bdf c0ba
000000e0: 84ad 43bb 2c50 4e3b b77b f73b 00a4 313b
000000f0: e7e6 4fbc ab98 263c 599e 883c 7860 28ba
00000100: c6e9 9cbb d20c 913a b426 48bb dd17 abbc
00000110: a45d 18bb 59e3 f2bc 8d22 f7bc 4672 7cbc
00000120: c954 f13d e4fd 61bc 84a3 eebd 5a0d 0c3e
00000130: 0543 003d e160 473d 345b f53d c71b afbd
00000140: 857b 0c3c 37d3 a8bc e99b 273b 50ce 203a
00000150: 949f 78bc 7f12 02bc 2d71 e8bb a7dc 15ba
00000160: 8019 4cbc 5274 a5bb e89f 7ebc 3b12 8c3c
00000170: 0b50 e83b a821 503c 47bc dabb a8cc c0bb
00000180: a09d 6cbc 5343 c2ba 5d77 8dba ef95 06bc
00000190: 8c7b 32bb 97b9 89bb c5bb 423c c8a8 1f3c
000001a0: 9f58 f93b f1a6 da3b 951b 47bc 7a85 1c3a
000001b0: 13de abbb f6bb 23bc 8c39 6abc 4c22 a7ba
000001c0: ff9d c23d 2f2f 003d 45dd 61bd 732a 833d
000001d0: bb43 ebbc e830 1ebc 756a 403c ca72 d4bc
000001e0: 5e08 933b 24c5 573c 5240 d4bb 9ca5 ba3c
000001f0: 0236 0dbd 3594 c73b df9d d63c 199e cf3c
00000200: 883b debc 7516 b9bb f9f7 f9bd 7e95 2d3a
00000210: 9b3c c53d f153 87bb 0781 af3b cb59 9d3b
00000220: 9e74 ca3c ed25 4e3c 14e2 f23c b978 763d
00000230: c795 46bd 2781 713c 7acd ce3b beb6 0dbd
00000240: 94d7 62bc 1d57 1abc ec2e e23a a2ce 59bd
00000250: 860d b33c 2b70 4ebd ef5b 233c acda 8a3d
00000260: 6ba9 37be d9ac a5be 2911 18be 8348 393e
00000270: 01ea ce3e eaf3 a13e d84d fc3e a392 58be
00000280: f9e2 c33b fda6 8fbc 6e71 c839 7989 4dbb
00000290: 3c9d 9abb 3063 e1bb fb0b 03bc d67b 3bba
000002a0: e086 b3bb c6be 0ebb 7bb6 813b 46dd 273c
000002b0: 570a 4fb9 68ec ef3b efca cebb 2e40 8fbb
000002c0: bff0 45bc b972 02bb ed31 3cbb 63ad fcbb
000002d0: 2f7d 403a 4875 04bc 7cd3 c63b 8830 193c
000002e0: c85b 143c 8202 c53b 643c 3abc 36fc ce3b
000002f0: 6cf3 77bb d68e 433a f4c8 6dbb 3082 043b
00000300: 872f 1c3d c2e2 a73c caab 82bc 3487 9e3c
00000310: 66ef b1bc cd9e 63bc f0c8 37bc 669c e7ba
00000320: a9d7 903b 9529 02bc e85d b337 0e9a a13b
00000330: 9752 69bc 5bbf 89ba 51be a739 e45a 50bb
00000340: c4d4 11bc 6a37 51bb a24d a1bc 52dd 5c3c
00000350: f3e6 053c 418d 053c 199e 9737 dfa6 cfba
00000360: 6536 c3bb cbb7 173b b2a5 14bb 3e89 98bb
00000370: 7c59 a4bb 90dc 493b 3470 113c dca9 113b
00000380: 6cf1 5eba 374d 8e3a 03e4 4fbb 6c8e b8bb
00000390: e71e 72bb 13f0 29bc bf0a 6cbc 6ef0 98bb
000003a0: 5dad 493d 051f a03c 9830 dabc 1d2b 003d
000003b0: 81f7 a0bc ebe2 1dbc d28a ceba 018c 23bc
000003c0: 6ca5 bcbb 2291 ce3c 22d1 dfba 1607 0a3c
000003d0: c081 a5bb b7d0 383c d020 873c a192 4a3b
000003e0: cb4d 133b 0f95 c93a 79c4 08bd 11fe 7fbb
000003f0: 334f 8f3c 8f99 b4bb ef50 183c 45d6 023c
0.001957387 -0.0015530114 0.0023764796 0.024207594 -0.037265483 0.012081282 0.019366995 -0.0002922429
-0.01942712 -0.0061163423 -0.08698277 0.025228674 0.03722015 0.010337416 0.010300108 0.0040794318
0.008946488 0.011602884 0.008160948 0.0116809 -0.023831088 0.026198592 0.019284898 -0.0101297
-0.020050332 -0.004908662 0.008567698 -0.037276924 -0.0018467451 -0.04544981 -0.041459374 -0.011671336
0.042455193 -0.05897767 -0.092650846 0.109577306 0.08463503 0.08081906 0.15732376 -0.08557143
0.0030991388 -0.01985645 0.007057425 0.011402739 -0.026675764 0.002274715 0.006415512 -0.0007471311
-0.0156210195 -0.007985152 -0.055197276 0.020811433 0.022454333 0.012511694 -0.0023769252 -0.0014714965
-0.0029858062 0.0031480892 0.0075525898 0.0027105808 -0.012689329 0.010168235 0.016677069 -0.00064230664
-0.00478861 0.0011066443 -0.0030540647 -0.020885402 -0.0023249174 -0.029649423 -0.030167842 -0.015408104
0.117837496 -0.013793442 -0.11652282 0.13676968 0.031313915 0.048676375 0.11980286 -0.0855022
0.008574371 -0.020608528 0.0025575107 0.00061342586 -0.015174765 -0.00793898 -0.0070935697 -0.00057167787
-0.012457252 -0.005049267 -0.015541054 0.017098537 0.00708962 0.012703337 -0.0066752764 -0.005883772
-0.014441878 -0.001482109 -0.0010793019 -0.008214458 -0.0027234284 -0.0042030322 0.011885588 0.00974483
0.0076094414 0.006672733 -0.012152572 0.00059708173 -0.005244979 -0.009993544 -0.014295947 -0.001275131
0.095027916 0.031294998 -0.05514266 0.06404581 -0.02871882 -0.009655215 0.011744131 -0.025933642
0.0044870814 0.013169561 -0.006477394 0.022784047 -0.034475334 0.0060906657 0.026198326 0.025343942
-0.027127996 -0.005648429 -0.122055 0.00066217023 0.096307 -0.0041298796 0.0053559574 0.004801964
0.02471381 0.012582284 0.029648818 0.060173724 -0.048482683 0.014740265 0.006311116 -0.034598105
-0.013845343 -0.0094201835 0.0017256415 -0.053175576 0.021857034 -0.05039994 0.009970649 0.067799896
-0.17935722 -0.32358435 -0.14850296 0.18094067 0.40412906 0.31631404 0.4927814 -0.21149687
0.005977985 -0.01753568 0.00038231484 -0.0031362458 -0.004718451 -0.006878279 -0.007998462 -0.0007151937
-0.005478725 -0.002178119 0.003958521 0.010245627 -0.0001974491 0.007321883 -0.0063108127 -0.0043716645
-0.012081324 -0.0019904806 -0.0028716282 -0.007711099 0.00073428726 -0.008084603 0.0060676914 0.00934995
0.0090550855 0.006012262 -0.011366937 0.006316687 -0.00378343 0.0007459944 -0.0036283107 0.00202192
0.038131263 0.020493869 -0.015951056 0.01935158 -0.0217206 -0.0138928415 -0.011217341 -0.0017670512
0.00442024 -0.007944484 2.1382191e-05 0.004931695 -0.014240882 -0.0010509299 0.0003199452 -0.0031792456
-0.008900825 -0.0031923898 -0.019690339 0.013480501 0.008172738 0.008151353 1.8074223e-05 -0.0015842578
-0.005957412 0.002315032 -0.002268177 -0.0046550324 -0.00501555 0.0030801632 0.008876849 0.0022226488
-0.00085046026 0.0010856752 -0.00317216 -0.0056322124 -0.0036944689 -0.01037218 -0.014406859 -0.0046673333
0.049237598 0.019546041 -0.0266345 0.031291116 -0.019649269 -0.009636621 -0.0015757924 -0.00998211
-0.0057570245 0.02521569 -0.0017075876 0.008424541 -0.005050868 0.01128023 0.016495138 0.0030910152
0.0022476788 0.0015379506 -0.033390496 -0.0039061347 0.01749382 -0.0055114697 0.00929664 0.007985656

lstm.weight_hh_l0 f4 [256, 64]
00000000: 1435 0d3c 37d1 1dbb 824e f73a e22b 113c
00000010: 4af2 9ab9 9891 ffba 2ff9 bbbb 44da 77bb
00000020: 49bc 35bb 020b 11bc fa19 1abb 1595 343b
00000030: 565f 9dbb f6c4 74bc 07a1 8aba a957 39bc
00000040: 5ff1 dcbb 9250 0ebc 78c5 57bb 9e0a aabc
00000050: 73a8 38ba b1d7 663c b9a9 c73a 2e75 aa3a
00000060: e525 5fba db3e 403c 016b ddbb 097d 803b
00000070: 2f75 c13b 9342 1d3c 5349 933c 3fc7 1b3c
00000080: 7344 693b dcfd feba 5c89 b1bb 86c4 833b
00000090: 312d 07bc 68e3 c73b 6618 04bb 1502 0bbb
000000a0: 4719 713b 5145 3e3b 9226 56bc 09cb f03b
000000b0: 66fb 80bb 3846 02bc 5f49 093c a6bc 31bb
000000c0: b7d1 da3b b99d 33bc 469d a13b d12f a93a
000000d0: 3fcf e23b bc5a dcbb 6fcd 8cbb b2e0 303c
000000e0: 836c 3a3b 77de 353c aa98 8bbb 5738 e63b
000000f0: 7375 89bb 0d77 c0bb 23d3 653a f095 babb
00000100: 51f3 f63b 16b8 30ba 1198 253a 734a 3f3c
00000110: 8820 67b9 1c5c 15ba 887b d5bb c944 1ebb
00000120: 45f2 08bb 63a0 c2ba 989e 3dba 24c3 5c3b
00000130: 3150 74ba 9d5b 0bbd e5b9 5c38 8e88 6abc
00000140: 65c4 a1bb 322f 0abc 5041 02bb 5ee2 abbc
00000150: b3a7 38ba 4b98 843c 07f6 21b9 19dc 763a
00000160: 8d80 bc3a 3a06 ae3b 38b5 d8bb 17e5 2a3b
00000170: b794 c43b 65fc 333c c47f 343c 98fb 083c
00000180: 68f3 063b b89f a3ba 62f6 d7bb 9d4f 413b
00000190: a431 08bc dbfa b03b 5a6d 8bbb a6a5 ae3a
000001a0: 0d5b 6d3b d315 223c 482b cebc 1106 cf3b
000001b0: e724 f5bb c707 dfbb bea8 193c 9751 d8bb
000001c0: 42cf c13b 86de 5abc 4481 eb3b 0eac 563a
000001d0: a6c2 ab3b c67b cbbb 005e 0abb d57a 4d3c
000001e0: f486 063b 62cc 643c 3112 02bb 8b65 d73b
000001f0: b734 f4b8 1565 acbb 9f77 bcb9 52be 54bb
00000200: 1e21 993b 3612 90bb b344 7e3a c588 94bb
00000210: f45e c9b8 bfb7 05bb 4aa8 e139 c822 62bb
00000220: c372 f7ba e591 0b3c e394 61bb b0e0 313b
00000230: c62e c0bb fb62 bfbb 8268 f4ba 882f b0bb
00000240: 3131 6a3c b09e b8bb 0f31 7fbb 945b 6abb
00000250: e0ff 4ab9 9300 833c 8e82 6d3b 47ae 6139
00000260: 6534 783b ec05 b2bb d6ea 253c b67c 603b
00000270: fb3c 923b 83d0 e93b 4f5e 2b3c 5f03 ba3b
00000280: 1d96 243a 4a32 de3a 0924 5dbb 8dc3 733b
00000290: d550 a7bb 1b67 683b 6a9c 083c 855b c6bb
000002a0: a144 a038 c2a3 933c aaac 6bbc e6f2 a23b
000002b0: 05a6 f6bb 92d5 99bb ec1b d53b 8d44 cc3b
000002c0: c42a 64bc b9a2 c6bb 156a c8bb ae62 b2ba
000002d0: 146a c43b 9f0c aebb d448 6ebb c142 d33b
000002e0: ae1d bc3a fc85 d73b f92f 7bbb bd3b 9e3b
000002f0: 44c8 b8bb a2e9 4a3c 3818 c23a 17a6 033c
00000300: 26a3 903c ca93 87bc 5e34 383c ee13 993c
00000310: 7e83 283b 53fa eebb 995b 3ebc dec8 10bc
00000320: f184 0ebc 038f c43b bcdc d5bb 7725 07ba
00000330: 553f 37bc 5170 1bbe cb36 b3bb 8015 92bc
00000340: 46eb 08bd 6e9d 80bc f2e0 08bc 514a 00be
00000350: 5d06 813b a21d 19bd ee2b e63b 75d8 69bb
00000360: 17d8 b1bc ba74 4a3c 107f 7dbc 5086 433c
00000370: 94e5 e43b e394 3f3c f0b8 c03c 568c b13c
00000380: d0d5 cc3b f5d2 253b 2525 86bc 1137 253c
00000390: 6ffe 7fbc 7ea5 373c 459a 553c 83c7 72bc
000003a0: 27dc db3b 1477 b1bd 6719 21b8 4a3d 7c3c
000003b0: 52a2 f93c e093 a9bc 4c84 103c 6ddb 80bc
000003c0: f4f5 023d 58d7 72bc 8bea bb3b cc77 8fb9
000003d0: 8a59 4e3c 2df3 44bc bb19 06bc 2245 793c
000003e0: 005d ef3b fcf8 833c 365c 43bc 15dd 673c
000003f0: 6ffb 65bc 2260 14bd 8bb3 be3b dbe0 36bc
0.008618612 -0.0024081 0.0018868002 0.00886056 -0.00029553688 -0.0019498346 -0.005736492 -0.0037819305
-0.0027730635 -0.008852722 -0.0023514018 0.002755468 -0.0048026247 -0.014939537 -0.0010576554 -0.011312404
-0.006742641 -0.008686202 -0.0032924097 -0.020757016 -0.0007044144 0.014089511 0.0015233076 0.0013004893
-0.00085124216 0.011733736 -0.0067571406 0.0039211554 0.005903862 0.009598392 0.0179793 0.009507953
0.0035593777 -0.0019454318 -0.005417986 0.00402123 -0.008250521 0.006100107 -0.0020156144 -0.0021210958
0.0036788748 0.0029033015 -0.013070719 0.0073484224 -0.003936219 -0.007951312 0.008379309 -0.00271205
0.006677832 -0.010962897 0.0049320785 0.0012907927 0.0069216783 -0.0067246836 -0.0042969505 0.010795759
0.0028446026 0.011100403 -0.0042601423 0.007025759 -0.0041949092 -0.005873567 0.00087671186 -0.0056941435
0.00753633 -0.0006741298 0.000631691 0.011675465 -0.00022041996 -0.00056976243 -0.00651497 -0.0024149886
-0.0020896357 -0.0014848824 -0.000723341 0.0033685649 -0.0009319811 -0.034022916 5.2625215e-05 -0.014314784
-0.004936742 -0.008434104 -0.0019875355 -0.020981964 -0.0007044032 0.0161859 -0.00015445809 0.00094169524
0.0014381573 0.005310801 -0.0066134 0.002607649 0.0059991735 0.0109854685 0.01101679 0.008360766
0.0020591859 -0.0012483513 -0.0065906504 0.0029496916 -0.0083126165 0.005400998 -0.004254979 0.0013324514
0.00362176 0.009892899 -0.025167122 0.006317862 -0.0074812057 -0.006806347 0.00937861 -0.006601523
0.0059145996 -0.013358718 0.0071870405 0.00081890903 0.0052417098 -0.0062098233 -0.0021113157 0.0125414925
0.0020527216 0.013964744 -0.0019847269 0.006573384 -0.000116446456 -0.0052610734 -0.0003594728 -0.0032462073
0.0046731373 -0.004396702 0.0009699568 -0.0045329058 -9.602113e-05 -0.002040371 0.0004304073 -0.0034505595
-0.0018878806 0.008518671 -0.0034421019 0.002714198 -0.005864951 -0.005840657 -0.0018646868 -0.00537676
0.014293955 -0.0056341514 -0.0038939153 -0.0035760151 -0.00019359542 0.015991485 0.0036241147 0.00021522595
0.0037873026 -0.005432835 0.01012679 0.003425402 0.004462836 0.0071354522 0.010459497 0.0056766714
0.0006278472 0.0016952243 -0.0033743402 0.0037195415 -0.0051060715 0.0035461846 0.008338073 -0.0060533904
7.642178e-05 0.018022422 -0.014384428 0.0049728034 -0.0075271153 -0.004694649 0.0065035727 0.006233758
-0.013926212 -0.0060618785 -0.0061161616 -0.0013609731 0.005994091 -0.005311563 -0.0036359327 0.0064471667
0.0014352107 0.0065772515 -0.0038328154 0.0048288987 -0.005639108 0.012384804 0.0014808243 0.008035204
0.01765592 -0.016549964 0.011242954 0.018686261 0.002571314 -0.0072930246 -0.011618518 -0.008836953
-0.008698688 0.0059984936 -0.0065265577 -0.0005155424 -0.011184533 -0.15179564 -0.0054691783 -0.017832518
-0.0334275 -0.015700068 -0.008354412 -0.1252835 0.003937526 -0.037381776 0.00702428 -0.0035681997
-0.021709485 0.012356931 -0.015472189 0.011933878 0.0069853757 0.011693212 0.023525685 0.021673363
0.0062510744 0.0025302742 -0.016375134 0.01008393 -0.015624627 0.01120889 0.013037269 -0.014818075
0.006709594 -0.086652905 -3.840905e-05 0.015395472 0.030472908 -0.020700395 0.0088206045 -0.01572963
0.03197284 -0.01482185 0.005734747 -0.0002736434 0.01259459 -0.012020868 -0.008184846 0.015214236
0.0073047876 0.016109936 -0.01192384 0.014151831 -0.014036997 -0.036224492 0.005819743 -0.011162008

lstm.bias_ih_l0 f4 [256]
00000000: 0a07 d13d d2e7 3a3e 8da2 df3d 5523 ddbc
00000010: 4898 303d 8c25 733d b07d fe3c 1a36 643d
00000020: aff4 9a3d 3231 b8be 21d1 803d 3b05 5c3e
00000030: 27d5 153e 6bc3 b93e 6ab1 523d 0aca 873d
00000040: 096b e53d e606 b73d 7713 9e3d d254 9b3e
00000050: 0bde 643d 2f46 2d3e a8d1 af3d a502 5b3d
00000060: 4788 c4be 2f36 9ebd 4866 233e ce9d f53d
00000070: d745 5b3d b42d 9b3d 6f1f 833e 3b25 d63d
00000080: 5072 1e3d 283b ec3d b2da 983d 4317 8a3d
00000090: fa1d b03d 0d07 643d 0566 523e ca2e 463e
000000a0: 952f ce3c 28b4 4c3e 561c a83e 87a5 c03d
000000b0: c146 b43d 9202 143e ee0f 963d c302 063d
000000c0: ba8b f63c c61c 873d f67c 583d 278e 3d3d
000000d0: 9a95 fd3d a372 9e3d 4f1b 893d 993a a03d
000000e0: d610 4c3d 2e72 913d 81b7 b13d 6fb2 b93d
000000f0: 1730 4b3e 3414 b13c 2bdf 5e3d 85c1 58be
00000100: 5124 c5bc 94df 8cbc c661 663a c87f 08be
00000110: 391b 59bb 54f7 49bb e931 f63b 0b9d 03bc
00000120: 7add 85ba 718f 82be f487 b0bb 372f b7bd
00000130: e2d5 90bc c471 3f3d 89b6 fcbb b23d 133c
00000140: 815c 53bd 735e 52bc b7f6 6abc c139 373d
00000150: 89eb 56bc 4dd7 17bc 70a0 993a a3fe 11bc
00000160: 8bbf 60be eaa9 5abd 814e 28bd ad9a 74bc
00000170: 485b 43bc 2484 0cba 1572 93bc dca8 0cbd
00000180: 8abb 7d3b 9321 f8bd 6ad1 14bd 151b 27bc
00000190: 8953 88bc 4a94 ef3a ad7a 6fbd 4e84 17bd
000001a0: 67de ce3b c66e ae3c ac75 92bb cd67 9cbc
000001b0: 1150 1ebd e617 ecbc 8372 3f3c 23ad df3c
000001c0: 4818 9abd 40bc 0a3c 9684 cb3c f42a acbb
000001d0: cf21 abbc 2370 f8ba e8ca 19bc 6787 98bc
000001e0: d857 ac3b fedd f939 ef26 bdbb 8ad0 04bc
000001f0: 59e7 52bd 62a4 63bd 50ad a4bb c919 24be
00000200: 1a56 c63c 6306 07bc b164 d6bc 737d 14bd
00000210: f729 3a3c 00f8 19bb 1c0c 543b 648a d0bb
00000220: a3f4 2dbc 210a b63d b8f5 4dbc 6f7d 383d
00000230: bbeb 04ba eb3c f43d 1cd2 2abb 3180 843c
00000240: 167e af3d 48f3 dfbb 21a9 d8bb b227 293d
00000250: 4ce6 373c 9d08 293e 0e34 93bb 070a e53a
00000260: 5f95 b3bd 7666 8cbd 7485 6e3d 81c0 8a3c
00000270: ff66 b03c e939 353c c201 f03d 4150 d03c
00000280: dd9d ccbb 3f90 6fbc 1dfc 27bc 9fa6 0a3c
00000290: 992f b9bc dff3 95bb 1ea9 c93c d037 55bc
000002a0: 93f9 b6bc 1afe 6c3e 3b70 01be ac10 71bc
000002b0: d5b7 f6bd 1ad1 bbbc 6b79 e83b 63ba a03b
000002c0: e425 07be 1a1c 14bc 89ff e73b 64f8 983c
000002d0: 9a55 933c 8662 3ebc 1113 1fbc e842 103d
000002e0: 5b18 1c3a 9a89 5f39 eb6c 433b 0f12 9b3b
000002f0: 6f00 01bd 16a9 f93d bcd4 7aba 4098 b13d
00000300: a5e9 d13d 58bb 3f3e 9436 e23d 9dd5 06bd
00000310: 57e2 333d bc73 743d a911 0d3d ecc7 653d
00000320: 3041 9c3d 36a9 afbe b074 813d 92ad 533e
00000330: 593a 1a3e 1adf 9d3e 5fad 553d 1828 8d3d
00000340: 9a2f c13d fc8f bb3d f45f 9d3d 9989 403e
00000350: a677 6b3d f550 293e 599e b03d 0ea7 603d
00000360: c4dc 8bbe 88df 15be 3a46 203e 2ccb f63d
00000370: 19d4 483d f8d3 8f3d a0ea 253e 2402 dc3d
00000380: 3ce0 1f3d 07e7 e63d 9a83 a93d edbb 893d
00000390: 0578 b13d 1a80 673d 5760 543e e1f7 4b3e
000003a0: 8fc7 d23c deda 5e3e c42e 793e 1c9a c63d
000003b0: 6d51 b33d 01fb 163e a00a 8a3d aa3e 2d3d
000003c0: 65f2 543b 26a8 853d d561 743d d0f6 3e3d
000003d0: a7b2 013e 7445 9b3d da79 893d 17e3 9d3d
000003e0: 10f3 4e3d 1736 8d3d 7045 b43d 7bc2 bd3d
000003f0: 2f2f 553e 4d9d a83b 1d80 613d ab49 67be
0.10206421 0.18252495 0.10919676 -0.026994387 0.043113977 0.05936198 0.031065792 0.055715658
0.07566201 -0.35975033 0.06289888 0.2148637 0.14632092 0.36281905 0.051438726 0.06630333
0.11202056 0.08936863 0.077185564 0.3033815 0.05587582 0.16921304 0.08584911 0.05346932
-0.3838522 -0.077251785 0.15956986 0.119929895 0.0535334 0.075770766 0.2560992 0.1045632
0.038683236 0.11534721 0.07463588 0.06742718 0.085994676 0.055670787 0.2054673 0.19353786
0.025169173 0.19990599 0.3283412 0.09406572 0.08802558 0.14454105 0.07327257 0.032717478
0.030095924 0.06597285 0.052853547 0.046278145 0.1238205 0.07736709 0.06694662 0.078236766
0.049820744 0.07101856 0.08677579 0.09067237 0.19842564 0.021616079 0.05441205 -0.21167572
-0.024065169 -0.017196454 0.0008788373 -0.13329995 -0.0033127798 -0.0030817585 0.007513274 -0.008033047
-0.00102131 -0.25500062 -0.0053873006 -0.089445524 -0.017680112 0.046739355 -0.0077121896 0.008986877
-0.05160189 -0.012839901 -0.014341048 0.044732813 -0.013117679 -0.00926764 0.0011720788 -0.008910808
-0.21948068 -0.0533847 -0.041090492 -0.014929456 -0.011923619 -0.00053602667 -0.017998734 -0.034340724
0.0038716518 -0.12115779 -0.036332525 -0.010199328 -0.016641395 0.0018278447 -0.058466602 -0.03699141
0.0063131335 0.021293055 -0.004469594 -0.019092465 -0.038650576 -0.02881999 0.011685017 0.027304238
-0.075241625 0.008467734 0.024843495 -0.005254144 -0.020890145 -0.0018954318 -0.0093867555 -0.018619252
0.005259495 0.00047658378 -0.0057724635 -0.00810636 -0.05149016 -0.05557669 -0.0050255433 -0.16025461
0.024210978 -0.008241269 -0.02617106 -0.03625245 0.011362544 -0.0023493767 0.003235585 -0.0063641537
-0.010617408 0.08888651 -0.012570791 0.045041498 -0.0005070527 0.11925682 -0.0026065176 0.016174408
0.08568971 -0.0068344213 -0.0066119586 0.041297622 0.011224341 0.16507192 -0.0044922894 0.0017474302
-0.08768725 -0.068554804 0.05823274 0.016937496 0.021533487 0.01106117 0.11719085 0.025428893
-0.0062444047 -0.014621793 -0.01025298 0.008462577 -0.022605704 -0.004576191 0.024616774 -0.013013795
-0.022335803 0.23143807 -0.12640469 -0.014713448 -0.12046782 -0.022926856 0.0070945523 0.0049050315
-0.13198048 -0.009039903 0.0070800227 0.01867313 0.017985154 -0.0116201695 -0.009709136 0.035220057
0.0005954557 0.00021318198 0.002981956 0.0047323774 -0.031494554 0.12190454 -0.0009568443 0.086716175
0.10249642 0.1872381 0.11045566 -0.03291856 0.043917026 0.059680685 0.03444067 0.056098863
0.07629621 -0.34308785 0.063210845 0.2067168 0.1506132 0.30834275 0.052167293 0.06892413
0.094329074 0.09158322 0.07684317 0.1880249 0.057487153 0.16534789 0.086239524 0.054846816
-0.27316868 -0.14636052 0.1565179 0.12050471 0.049030397 0.07022852 0.16202784 0.10742596
0.039032206 0.11274534 0.08277054 0.06725297 0.0866547 0.05651865 0.20739876 0.19918777
0.025729923 0.21763179 0.24334246 0.09697363 0.08755765 0.14744188 0.06740308 0.04229609
0.0032493111 0.065262124 0.059663612 0.046622097 0.12665807 0.075816065 0.067126945 0.077093296
0.05052477 0.068950824 0.08802307 0.0926561 0.2081878 0.005145705 0.05505382 -0.22586696

lstm.bias_hh_l0 f4 [256]
00000000: 0a07 d13d d2e7 3a3e 8da2 df3d 5523 ddbc
00000010: 4898 303d 8c25 733d b07d fe3c 1a36 643d
00000020: aff4 9a3d 3231 b8be 21d1 803d 3b05 5c3e
00000030: 27d5 153e 6bc3 b93e 6ab1 523d 0aca 873d
00000040: 096b e53d e606 b73d 7713 9e3d d254 9b3e
00000050: 0bde 643d 2f46 2d3e a8d1 af3d a502 5b3d
00000060: 4788 c4be 2f36 9ebd 4866 233e ce9d f53d
00000070: d745 5b3d b42d 9b3d 6f1f 833e 3b25 d63d
00000080: 5072 1e3d 283b ec3d b2da 983d 4317 8a3d
00000090: fa1d b03d 0d07 643d 0566 523e ca2e 463e
000000a0: 952f ce3c 28b4 4c3e 561c a83e 87a5 c03d
000000b0: c146 b43d 9202 143e ee0f 963d c302 063d
000000c0: ba8b f63c c61c 873d f67c 583d 278e 3d3d
000000d0: 9a95 fd3d a372 9e3d 4f1b 893d 993a a03d
000000e0: d610 4c3d 2e72 913d 81b7 b13d 6fb2 b93d
000000f0: 1730 4b3e 3414 b13c 2bdf 5e3d 85c1 58be
00000100: 5124 c5bc 94df 8cbc c661 663a c87f 08be
00000110: 391b 59bb 54f7 49bb e931 f63b 0b9d 03bc
00000120: 7add 85ba 718f 82be f487 b0bb 372f b7bd
00000130: e2d5 90bc c471 3f3d 89b6 fcbb b23d 133c
00000140: 815c 53bd 735e 52bc b7f6 6abc c139 373d
00000150: 89eb 56bc 4dd7 17bc 70a0 993a a3fe 11bc
00000160: 8bbf 60be eaa9 5abd 814e 28bd ad9a 74bc
00000170: 485b 43bc 2484 0cba 1572 93bc dca8 0cbd
00000180: 8abb 7d3b 9321 f8bd 6ad1 14bd 151b 27bc
00000190: 8953 88bc 4a94 ef3a ad7a 6fbd 4e84 17bd
000001a0: 67de ce3b c66e ae3c ac75 92bb cd67 9cbc
000001b0: 1150 1ebd e617 ecbc 8372 3f3c 23ad df3c
000001c0: 4818 9abd 40bc 0a3c 9684 cb3c f42a acbb
000001d0: cf21 abbc 2370 f8ba e8ca 19bc 6787 98bc
000001e0: d857 ac3b fedd f939 ef26 bdbb 8ad0 04bc
000001f0: 59e7 52bd 62a4 63bd 50ad a4bb c919 24be
00000200: 1a56 c63c 6306 07bc b164 d6bc 737d 14bd
00000210: f729 3a3c 00f8 19bb 1c0c 543b 648a d0bb
00000220: a3f4 2dbc 210a b63d b8f5 4dbc 6f7d 383d
00000230: bbeb 04ba eb3c f43d 1cd2 2abb 3180 843c
00000240: 167e af3d 48f3 dfbb 21a9 d8bb b227 293d
00000250: 4ce6 373c 9d08 293e 0e34 93bb 070a e53a
00000260: 5f95 b3bd 7666 8cbd 7485 6e3d 81c0 8a3c
00000270: ff66 b03c e939 353c c201 f03d 4150 d03c
00000280: dd9d ccbb 3f90 6fbc 1dfc 27bc 9fa6 0a3c
00000290: 992f b9bc dff3 95bb 1ea9 c93c d037 55bc
000002a0: 93f9 b6bc 1afe 6c3e 3b70 01be ac10 71bc
000002b0: d5b7 f6bd 1ad1 bbbc 6b79 e83b 63ba a03b
000002c0: e425 07be 1a1c 14bc 89ff e73b 64f8 983c
000002d0: 9a55 933c 8662 3ebc 1113 1fbc e842 103d
000002e0: 5b18 1c3a 9a89 5f39 eb6c 433b 0f12 9b3b
000002f0: 6f00 01bd 16a9 f93d bcd4 7aba 4098 b13d
00000300: a5e9 d13d 58bb 3f3e 9436 e23d 9dd5 06bd
00000310: 57e2 333d bc73 743d a911 0d3d ecc7 653d
00000320: 3041 9c3d 36a9 afbe b074 813d 92ad 533e
00000330: 593a 1a3e 1adf 9d3e 5fad 553d 1828 8d3d
00000340: 9a2f c13d fc8f bb3d f45f 9d3d 9989 403e
00000350: a677 6b3d f550 293e 599e b03d 0ea7 603d
00000360: c4dc 8bbe 88df 15be 3a46 203e 2ccb f63d
00000370: 19d4 483d f8d3 8f3d a0ea 253e 2402 dc3d
00000380: 3ce0 1f3d 07e7 e63d 9a83 a93d edbb 893d
00000390: 0578 b13d 1a80 673d 5760 543e e1f7 4b3e
000003a0: 8fc7 d23c deda 5e3e c42e 793e 1c9a c63d
000003b0: 6d51 b33d 01fb 163e a00a 8a3d aa3e 2d3d
000003c0: 65f2 543b 26a8 853d d561 743d d0f6 3e3d
000003d0: a7b2 013e 7445 9b3d da79 893d 17e3 9d3d
000003e0: 10f3 4e3d 1736 8d3d 7045 b43d 7bc2 bd3d
000003f0: 2f2f 553e 4d9d a83b 1d80 613d ab49 67be
0.10206421 0.18252495 0.10919676 -0.026994387 0.043113977 0.05936198 0.031065792 0.055715658
0.07566201 -0.35975033 0.06289888 0.2148637 0.14632092 0.36281905 0.051438726 0.06630333
0.11202056 0.08936863 0.077185564 0.3033815 0.05587582 0.16921304 0.08584911 0.05346932
-0.3838522 -0.077251785 0.15956986 0.119929895 0.0535334 0.075770766 0.2560992 0.1045632
0.038683236 0.11534721 0.07463588 0.06742718 0.085994676 0.055670787 0.2054673 0.19353786
0.025169173 0.19990599 0.3283412 0.09406572 0.08802558 0.14454105 0.07327257 0.032717478
0.030095924 0.06597285 0.052853547 0.046278145 0.1238205 0.07736709 0.06694662 0.078236766
0.049820744 0.07101856 0.08677579 0.09067237 0.19842564 0.021616079 0.05441205 -0.21167572
-0.024065169 -0.017196454 0.0008788373 -0.13329995 -0.0033127798 -0.0030817585 0.007513274 -0.008033047
-0.00102131 -0.25500062 -0.0053873006 -0.089445524 -0.017680112 0.046739355 -0.0077121896 0.008986877
-0.05160189 -0.012839901 -0.014341048 0.044732813 -0.013117679 -0.00926764 0.0011720788 -0.008910808
-0.21948068 -0.0533847 -0.041090492 -0.014929456 -0.011923619 -0.00053602667 -0.017998734 -0.034340724
0.0038716518 -0.12115779 -0.036332525 -0.010199328 -0.016641395 0.0018278447 -0.058466602 -0.03699141
0.0063131335 0.021293055 -0.004469594 -0.019092465 -0.038650576 -0.02881999 0.011685017 0.027304238
-0.075241625 0.008467734 0.024843495 -0.005254144 -0.020890145 -0.0018954318 -0.0093867555 -0.018619252
0.005259495 0.00047658378 -0.0057724635 -0.00810636 -0.05149016 -0.05557669 -0.0050255433 -0.16025461
0.024210978 -0.008241269 -0.02617106 -0.03625245 0.011362544 -0.0023493767 0.003235585 -0.0063641537
-0.010617408 0.08888651 -0.012570791 0.045041498 -0.0005070527 0.11925682 -0.0026065176 0.016174408
0.08568971 -0.0068344213 -0.0066119586 0.041297622 0.011224341 0.16507192 -0.0044922894 0.0017474302
-0.08768725 -0.068554804 0.05823274 0.016937496 0.021533487 0.01106117 0.11719085 0.025428893
-0.0062444047 -0.014621793 -0.01025298 0.008462577 -0.022605704 -0.004576191 0.024616774 -0.013013795
-0.022335803 0.23143807 -0.12640469 -0.014713448 -0.12046782 -0.022926856 0.0070945523 0.0049050315
-0.13198048 -0.009039903 0.0070800227 0.01867313 0.017985154 -0.0116201695 -0.009709136 0.035220057
0.0005954557 0.00021318198 0.002981956 0.0047323774 -0.031494554 0.12190454 -0.0009568443 0.086716175
0.10249642 0.1872381 0.11045566 -0.03291856 0.043917026 0.059680685 0.03444067 0.056098863
0.07629621 -0.34308785 0.063210845 0.2067168 0.1506132 0.30834275 0.052167293 0.06892413
0.094329074 0.09158322 0.07684317 0.1880249 0.057487153 0.16534789 0.086239524 0.054846816
-0.27316868 -0.14636052 0.1565179 0.12050471 0.049030397 0.07022852 0.16202784 0.10742596
0.039032206 0.11274534 0.08277054 0.06725297 0.0866547 0.05651865 0.20739876 0.19918777
0.025729923 0.21763179 0.24334246 0.09697363 0.08755765 0.14744188 0.06740308 0.04229609
0.0032493111 0.065262124 0.059663612 0.046622097 0.12665807 0.075816065 0.067126945 0.077093296
0.05052477 0.068950824 0.08802307 0.0926561 0.2081878 0.005145705 0.05505382 -0.22586696

lstm.weight_ih_l1 f4 [256, 64]
00000000: 2529 0d3d e10a 28bd 0d61 84ba a4d6 6b3d
00000010: b9d0 4f3c 07cf b2bc 08fd deba 1564 99bc
00000020: 92ab dbbc 355c 503c 38e3 94bc 2c01 ba3c
00000030: c161 fcbc 328a 873d 870f a4bc 8475 59bc
00000040: 0cd2 0f3d 275c ccbc cfdb 84bc 3623 1b3d
00000050: 4536 483c 8e24 d03c 5e9e 983c ab8f 61bc
00000060: 2a80 efbc b104 233c baec 183d d06f 153d
00000070: 7232 873c 0457 2e3c ccb5 c2bc 5cc2 3d3d
00000080: 6ff6 503c bf55 dc3c 84d6 f3bc 839e a43c
00000090: d002 cbbc 57e1 b43c 6f7e 433d e082 f9bc
000000a0: 3407 413b 0c16 0e3d f5b3 383d b3c6 ed3c
000000b0: 397e 89bc fd38 28bd 618d 1a3c 7a3b 9e3c
000000c0: 14f8 f4bc 46ff 9abc 5f08 96bc 5346 583a
000000d0: daa3 db3c e3b4 8dbc 52db c1bc 6553 003c
000000e0: aff3 973c b3d6 573c 34e0 d9bc 876b e43c
000000f0: 84dd fdbc c8de f23c ddc0 b33c eda3 c43c
00000100: d872 423b df54 34bb 0a94 d2ba cf72 db3b
00000110: e9c8 af3a 846b 03bb f33a 99ba 9675 56ba
00000120: c3f3 1cbb 4e15 3eba 5724 46ba 84b8 39ba
00000130: b0b3 87ba 262d ff3b 7223 eeba a44b f1ba
00000140: 2cb1 073b a2b8 9bba 22e8 b5b9 9072 1f3b
00000150: 9dd4 b43a c3d0 153a 5606 d239 3414 a3ba
00000160: 821d 17bb 014f 463b 7252 fe3a f8b3 313b
00000170: 773e 33b7 9b0b 8139 80ca c3ba a4a8 693b
00000180: fc0a b13a a0bf 703b 75e4 eaba 0a58 0b3a
00000190: fa18 01bb a27b f43a a8aa bd3a 380a 6cba
000001a0: 9602 aa39 65af c03a 8446 c93b 95bb 073b
000001b0: ea6b dab9 25cd 4fbb 3dca 86b9 b5f9 18b9
000001c0: 2c50 a1ba 1c7e 2dba d73c 333a 7d9f 853a
000001d0: e64e 0e3a 8355 e1b7 3562 67ba a011 8c3a
000001e0: b32b 023b 40b9 f83a 4c47 c9ba a6d5 ed3a
000001f0: bd0d f8ba 3811 823a 96ab f03a 75d4 bb3a
00000200: f443 dfbb bbfb 0d3c ec72 51bb ef4a b7bc
00000210: 5507 a93a c4ba c6b9 bbc7 2e3b f088 563b
00000220: 34df 7cb8 a6cd a1bc b278 343b 70df e1ba
00000230: e0ba e23b a7d8 5abb c6d8 96ba 379c e73b
00000240: 403f 8fbc 2450 d13b 039d 703b c295 c7ba
00000250: 068f 373b bb80 22bc 217c 9cbb af53 d7ba
00000260: 4ac9 5a3c 7526 fcbb daad 4dbc 03af 1abb
00000270: f356 98bb 8a31 89bb 2b28 ac3b 9698 1abc
00000280: 6cd8 ad39 f815 f23b b322 d33b 8318 50bb
00000290: 773b ce3b aaaf 83bb b0f0 46bc 1004 943b
000002a0: 38b0 8a39 d3d6 85bc 37f7 08bb f2f8 bbbb
000002b0: 3010 543b 5ac0 083c 6866 60bb e639 94bb
000002c0: 7dfa 5e3c bed5 ec3b bb9f 653b a860 383b
000002d0: a0e2 a1bb 5e34 8a3b 1741 193b 53c3 c1bb
000002e0: 98b2 123a 8007 b6bb d405 a03b 601c e7bb
000002f0: 2f37 c53b 5e99 50bc 5dc1 f33a ca4e f9bb
00000300: ab3a dcbb 94fe e93b e4f8 5ebb 5b13 a4bc
00000310: 87c6 113b 9ec8 07ba ccd5 903b 0c71 353b
00000320: 14ad 0238 ea0a 86bc 8a19 2e3b bb66 efbb
00000330: da6e a53b fcf4 8e3c ac0a c8ba ff14 543b
00000340: ce58 fdbb 0625 9a3b 8c41 563b b842 4c3c
00000350: ac05 6c3b ff0b 13bc 3137 91bb 0206 2cbb
00000360: 4be5 453c fe9c 44bc ba8e a9bb d03e 22bb
00000370: 9d68 8cbb 9351 70bb 8b6a 2a3c 28f3 1abc
00000380: b01e 22b8 3c71 033c fbd4 aa3b 185c 34bb
00000390: 7535 803b 09ae 31bb 080a c3bb 7f45 5d3b
000003a0: 1dbf 52b9 8fc7 8ebc aa95 213c ab2a a4bb
000003b0: e9f3 a63b 1929 063c 69f9 36ba b21c b33a
000003c0: 3c07 af3b 23da 853b 6d3b 1539 0d45 503b
000003d0: 514f b0bb 5596 423b 77b0 da3a 2e55 6bbb
000003e0: adc9 043a 535d 73bb 2fb6 2e3b 4ad1 a3bb
000003f0: 59a5 ac3b 67b4 9dbb 0379 3d3b 8919 6abb
0.034463067 -0.041026 -0.0010099724 0.057577744 0.012684041 -0.021827234 -0.0017012665 -0.01872448
-0.02681521 0.012717296 -0.018174753 0.022705637 -0.030808331 0.066181555 -0.020026935 -0.013272647
0.035112426 -0.024946285 -0.016218094 0.037875377 0.01221997 0.025408056 0.018630203 -0.013767163
-0.029235918 0.009949849 0.037335135 0.036483586 0.016503546 0.010640863 -0.023768328 0.046327934
0.012754067 0.026896356 -0.029765375 0.020095116 -0.024781615 0.022080107 0.047728 -0.030457914
0.0029453756 0.034688994 0.045093495 0.029025411 -0.01678382 -0.041069973 0.009433121 0.01931547
-0.02990345 -0.018920552 -0.018314539 0.0008250225 0.026811529 -0.017298168 -0.02366415 0.007832383
0.018548815 0.013173747 -0.026596166 0.027883304 -0.030989416 0.029647246 0.02194255 0.024003947
0.0029670503 -0.0027516407 -0.0016065848 0.006697036 0.0013411316 -0.0020053098 -0.0011690542 -0.0008180974
-0.0023949004 -0.00072510995 -0.00075585156 -0.0007084685 -0.0010353234 0.0077873645 -0.0018168523 -0.0018409383
0.0020704968 -0.0011880586 -0.00034695963 0.002432976 0.0013796274 0.0005715007 0.00040059042 -0.0012441934
-0.002305836 0.0030259492 0.0019403233 0.0027115326 -1.0683775e-05 0.00024613444 -0.0014937669 0.0035653496
0.0013507302 0.003673531 -0.0017920869 0.0005315548 -0.0019698725 0.0018652568 0.0014470415 -0.0009004208
0.00032426853 0.0014700709 0.0061424393 0.0020711173 -0.00041660602 -0.003170797 -0.0002570915 -0.00014588873
-0.0012307218 -0.0006618218 0.0006837374 0.0010194626 0.0005428627 -2.686191e-05 -0.00088265847 0.0010686405
0.0019862473 0.0018976107 -0.0015356331 0.0018145337 -0.0018924993 0.0009923344 0.0018361683 0.0014330285
-0.0068135206 0.008665974 -0.0031959368 -0.022374598 0.0012895862 -0.00037904654 0.0026669342 0.003273543
-6.0289356e-05 -0.019751381 0.002753776 -0.0017232727 0.00691925 -0.0033393295 -0.0011508695 0.007068183
-0.017486215 0.0063877273 0.003671468 -0.0015227126 0.0028008833 -0.009918387 -0.0047755395 -0.0016428138
0.013353655 -0.007695014 -0.0125536565 -0.002360285 -0.004649037 -0.0041868137 0.005253812 -0.009435793
0.00033158378 0.007387873 0.0064433455 -0.0031752891 0.00629371 -0.0040187435 -0.012142345 0.004517086
0.00026452704 -0.016337788 -0.0020899305 -0.0057364637 0.0032358281 0.008346641 -0.0034240726 -0.0045235036
0.013609526 0.0072276285 0.0035037834 0.0028133783 -0.004940346 0.0042176684 0.0023384744 -0.005913177
0.00055960706 -0.0055550933 0.0048835073 -0.007052943 0.0060185413 -0.012731878 0.0018597055 -0.0076082693
-0.006720861 0.007140944 -0.0034022862 -0.02002876 0.0022243576 -0.00051797356 0.004420018 0.002768579
3.1155607e-05 -0.016362626 0.0026565515 -0.0073059476 0.005048615 0.017450802 -0.001526197 0.0032361147
-0.0077315336 0.0047041206 0.0032692878 0.012467079 0.0036014123 -0.008975028 -0.004431628 -0.0026248698
0.0120785935 -0.0120003205 -0.005174485 -0.0024756677 -0.004284932 -0.0036669716 0.010401378 -0.009457387
-3.865239e-05 0.008022603 0.0052133775 -0.0027520712 0.0039126226 -0.002711179 -0.0059521236 0.0033763347
-0.00020098356 -0.017429141 0.009862343 -0.005009969 0.0050949943 0.008188509 -0.0006979914 0.0013665168
0.0053414386 0.004084842 0.00014231885 0.0031779439 -0.005380549 0.0029691656 0.0016684671 -0.0035908925
0.00050654524 -0.0037134483 0.0026658883 -0.0049993144 0.0052687344 -0.0048127654 0.002891124 -0.0035720787

lstm.weight_hh_l1 f4 [256, 64]
00000000: 2b5e 8b3a 6375 7c39 ef3f d63a 03a3 c43b
00000010: 414b 09bb d97d 933a f19b 5d3c 73ee e8bb
00000020: 92d9 c23b e37b 5c3b 1aaf 073b 0268 24bb
00000030: 7813 00bb a92e 783c 9287 81ba 24f9 f13b
00000040: 2243 d0bb 449f b439 5679 3c3b 3bee 3e3b
00000050: daf1 b9bb 386d 00bb 9162 633b d733 af3a
00000060: 1ac7 9fbc 6b62 873b 5f86 3c3a 0e62 91bc
00000070: b8e6 513a cdba 5abb e770 7eb9 0d95 c83a
00000080: 9c91 42bb f7b1 4b3a e09c 2abb 4fca e93c
00000090: f235 aa3a 321b 733b c6a9 3d3c 34f8 b6bb
000000a0: 933d 123c 76fe 1fbb 45fd 6ebb f1b7 57b9
000000b0: 151a 0f3a d0b7 ddbb 4370 08bc 562f 1f3b
000000c0: 1483 6bbb 133b c13b ca7e 2f3b 5730 263b
000000d0: cae6 3f3a 8703 47bc 4098 a0ba ef22 8ab9
000000e0: a310 133b 954c e8b9 5338 41bb 7d22 cb3b
000000f0: 9cc6 2fbc 41b9 9bbb 1114 773b 4cf9 303c
00000100: a755 d139 90f3 b839 6212 0bba 85cd 9bb9
00000110: a18b 9eba 08ca ea39 0d7f 88b9 a73c 5fba
00000120: 8dc5 b33a 317a cf3a 0f18 a63a b789 613a
00000130: fc38 2c39 1958 fc3a e566 6a36 5514 21b9
00000140: afd7 243a 2bfc 2539 f283 923a 3a82 57ba
00000150: 08c2 ff39 7c2f a339 fece 1a3a a30b 1a38
00000160: 2a09 e4ba 52a0 a53a 8e25 813a 344b ecba
00000170: b0dd 84ba 6b8c 7fba c548 75b9 9698 61ba
00000180: b7c1 693a 731a fbb8 ae51 f9b9 82b4 c83a
00000190: e07e 9cb9 ce1f 2c3a 10de 8739 bc7c d239
000001a0: bfce 1a3b 5bbf 19ba bdbd 96b9 2181 b9b9
000001b0: dfce 4f3a 01fc a7ba 6699 8839 8ebb 5f3a
000001c0: d581 4d3a c61d 6db9 fdb5 4eba 7fa3 a6b7
000001d0: 6563 7eba f8fa 17b9 a114 3a39 9f5a 2438
000001e0: e786 893a 9da1 603a ab75 12ba f3a6 b8ba
000001f0: fee5 afb9 50bf 99ba 9209 6d3a a418 fa38
00000200: f006 5fbb c817 933a aa37 6fbb 23fb 81bb
00000210: a90e c6bb 653c a53a 490b 6eba 3375 8ebc
00000220: e00b 083c 403a c83b 23f9 bf3b 7f5e b43b
00000230: e68e ae3a af55 b539 1d71 113a 6bde 86bb
00000240: 16b6 153b 969e 763a eb64 973b 028a 94bb
00000250: 0598 6d3b 0297 993a deb0 d4ba aa23 52bb
00000260: 120d 873a d570 d13b c134 8c3b b3e5 afbb
00000270: cd04 adbb 1ea3 a9bb b067 ef3b d7f3 8fbb
00000280: de90 ba3b 2e93 233a 4857 91ba c977 68bb
00000290: c2d2 7b3a 4f4d a33a 5357 9ebb 1062 873b
000002a0: 7796 823c 09de fbba 0bd2 3dbb c3fe d4ba
000002b0: 27a7 593b 810f 4ebb e958 993b 5cf2 723a
000002c0: 9efb a13b af7e 80bb 9f5b 8bbb 5a2e eb38
000002d0: 44b3 9ebb 2b9f 633b 2b4c f33a 07fb 043a
000002e0: 34de 943b 76a6 843b 14f8 a4b7 28cc 15bb
000002f0: 4bdd 233b 59d8 61bb 3c28 323b 31af 77bb
00000300: d34c 19bb 97ff 923a f93e 85bb 49ba 66bb
00000310: c33e e4bb 06e2 ed3a 9963 3aba a599 27bc
00000320: 3839 043c 1899 c63b 68d0 b53b 20d4 a23b
00000330: d30f c13a 0cea 963a 68cd 243a ec0c 4cbb
00000340: 4491 213b 7f7e a23a 7296 ae3b fa84 a1bb
00000350: 97dc 5f3b 3554 be3a e670 45ba 8f21 7dba
00000360: 003c 2fbb ff0d c53b 5a54 9a3b 2488 b2bb
00000370: 2e7c a4bb 4a1f c4bb fe1c 593b 408d 93bb
00000380: bdda 8b3b bb23 10b8 c1fe f4ba d96e eeba
00000390: 123c fab9 3653 1b3b 49d2 14bb 54af 833b
000003a0: c2f5 743c f81d 2fbb 7e99 55bb cc0a 30bb
000003b0: 5c3c 643b 7fb4 7fb9 3ef9 2e3b f9bb 033b
000003c0: 8cb5 9d3b 3a9c 6bbb cb88 90bb d58c d538
000003d0: fecc b4bb 0084 ce3a 2ad0 003b 11a3 0e3a
000003e0: 0a34 ae3b 36c2 833b 8848 a83a 0ec9 a7b9
000003f0: 51ba 0b3b 4474 9abb 430e 773b 4605 96ba
0.0010632923 0.00024076323 0.0016345958 0.006000878 -0.0020949396 0.0011252715 0.013525949 -0.0071085035
0.0059463466 0.0033643178 0.0020703734 -0.0025086408 -0.0019542854 0.015147843 -0.0009882322 0.007384436
-0.006355659 0.00034450938 0.0028758845 0.0029133696 -0.005674583 -0.001959635 0.0034696201 0.001336689
-0.019504119 0.0041316054 0.0007191654 -0.017746951 0.0008007097 -0.0033375502 -0.00024265387 0.001530321
-0.002968884 0.0007770354 -0.0026033446 0.028538851 0.0012986048 0.0037095067 0.011576122 -0.0055837873
0.008925813 -0.0024413145 -0.0036466878 -0.00020572521 0.00054589036 -0.006766297 -0.0083275465 0.002428969
-0.0035936283 0.005896935 0.0026778453 0.0025358403 0.0007320462 -0.012146837 -0.0012252405 -0.0002634744
0.0022440336 -0.00044307546 -0.0029483035 0.0061991797 -0.0107285045 -0.0047523086 0.003770117 0.0108016245
0.00039927402 0.00035276683 -0.00053051685 -0.00029717028 -0.0012096056 0.00044782483 -0.00026034602 -0.0008515813
0.0013715491 0.0015829263 0.0012671965 0.000860359 0.00016424427 0.0019252329 3.492861e-06 -0.00015361731
0.0006288243 0.00015829566 0.0011178239 -0.00082210044 0.00048781955 0.0003112516 0.0005905478 3.67273e-05
-0.0017397751 0.001263628 0.0009853111 -0.0018027783 -0.0010136869 -0.0009748402 -0.0002339213 -0.0008605806
0.00089171104 -0.00011973539 -0.00047553837 0.0015312585 -0.00029849168 0.00065660186 0.00025914656 0.00040147256
0.0023621765 -0.0005865001 -0.00028751596 -0.00035382158 0.00079272495 -0.0012816192 0.00026054232 0.0008534723
0.0007839476 -0.00022613173 -0.0007885395 -1.9864876e-05 -0.0009704142 -0.00014493975 0.00017746027 3.9185044e-05
0.0010492475 0.0008569004 -0.0005586992 -0.0014087841 -0.0003354996 -0.0011729989 0.00090422586 0.000119255186
-0.0034031235 0.0011222297 -0.0036501684 -0.0039667054 -0.006044228 0.00126065 -0.0009080661 -0.01738987
0.0083036125 0.0061104596 0.005858557 0.005504429 0.0013317734 0.0003458685 0.0005548166 -0.0041158698
0.0022844127 0.00094077864 0.0046201847 -0.0045330534 0.003625394 0.0011717977 -0.0016227027 -0.0032064714
0.0010303578 0.0063916245 0.0042787497 -0.0053679585 -0.0052801133 -0.005176916 0.0073060617 -0.0043930816
0.005693539 0.0006239888 -0.0011088634 -0.0035471788 0.00096062955 0.0012458953 -0.004832187 0.004131563
0.015940888 -0.0019215952 -0.0028964307 -0.0016250241 0.0033211203 -0.0031442347 0.0046797884 0.0009267682
0.004943325 -0.003921352 -0.0042528654 0.00011214307 -0.0048431475 0.0034732323 0.0018562129 0.00050728064
0.0045430902 0.004048164 -1.9665844e-05 -0.0022857282 0.0025003727 -0.0034461229 0.0027184626 -0.0037793631
-0.0023391738 0.0011215088 -0.004066345 -0.003520625 -0.0069654896 0.0018149025 -0.0007110178 -0.010229503
0.008070283 0.0060607307 0.0055485256 0.004969135 0.0014729447 0.0011513843 0.00062867114 -0.0031135632
0.0024653235 0.0012397318 0.005327993 -0.004929182 0.0034158581 0.0014520945 -0.0007531777 -0.00096561847
-0.0026738644 0.0060136314 0.0047097625 -0.005448358 -0.005019686 -0.0059851753 0.0033128853 -0.0045029223
0.004268019 -3.4365552e-05 -0.0018691645 -0.0018190994 -0.00047728472 0.002370072 -0.0022708348 0.0040187035
0.014951171 -0.0026720744 -0.003259271 -0.0026861904 0.0034826016 -0.00024385935 0.0026698853 0.0020101054
0.004812902 -0.0035951273 -0.0044108382 0.000101828635 -0.005517601 0.0015755892 0.0019655325 0.0005441169
0.005316262 0.0040209545 0.0012838999 -0.0003200252 0.002132077 -0.004713567 0.003769771 -0.0011445663
