challenge_6/ai_service/ai/checkpoints/deepar_best.pt (torch, 842744 bytes, 45 tensors)

country_embedding.weight f4 [239, 32]
00000000: 1251 0c3e 0f75 d43d e053 753d 08af efbd
00000010: ab47 71bd dd05 9a3c 3171 1bbc 54c4 b03c
00000020: 9a73 e23d 70a7 37bd 7cb9 89ba 5a94 a33d
00000030: 4adc a1bd acf7 be3c 47c8 3bbe 4c34 543d
00000040: b35e b33a 3117 1dbb 41db 71bd 5918 4ebd
00000050: 7e5e e83d 6025 843d d5cd b93c e9e6 5839
00000060: c66f 433e 6502 513d 0fca 44bd a1dd cc3c
00000070: 5b21 7d3d 612c a8bc 7647 5d3d 8907 ef3b
00000080: 29c9 613b bf8d 0c3c 328b 1ebd f597 763d
00000090: 39d6 bd3c 7c5e e53c 56c8 19be cbbe d7bc
000000a0: 9467 88bd 3975 683d d0c7 7b3c 88f9 45bd
000000b0: 2a0c b23d 3722 d9bc 0809 4d3d 9ef4 a2bc
000000c0: ad77 50bd c455 043d 3e9b 313d 64c5 ec3b
000000d0: 8f62 12bd c6e6 003d ee04 9eba 7a30 dbbc
000000e0: e048 abbd ffff 043c 7c75 513d ff6b 56bd
000000f0: 74cc f43c 20b6 0e3b b50f 85bb 1ca8 493d
00000100: 6874 28bd a117 bb3a 9727 a33d 2e4d 14bd
00000110: 497a b4bc 412c b3bc a281 59bd 8c4f f33b
00000120: 12ba 283b b81b 45bd e4a2 3bbb c662 413d
00000130: 3439 91bc 3fea c4bc b934 133e 78a0 09bd
00000140: 9dbd a3bc a0e0 84bc c9ba fd3c 64a9 3aba
00000150: 7aca 793d a5b0 8dbd 6a37 1bbd 152b 803c
00000160: 1506 b7b7 418a dfbc 4635 f6ba bd55 b23c
00000170: 762b c8bc 4b14 0c3c c6ad a13c 2c74 11bd
00000180: 78cf 043d 20eb 003d 36d5 0b3d d31a 923b
00000190: c303 4c3c 728a 783c 959b 56be 4cec dfbb
000001a0: f3ef 0fbd fb66 4e3d 0af9 08bb 775a fd3b
000001b0: 9c51 903d 2d73 3dbd b61c a33d 9b34 b73a
000001c0: e888 42bd 050b 2dbb 1197 0c3d ee65 0bbb
000001d0: d092 2ebc bd14 a63d 7e7c 89bc 7350 62bd
000001e0: 1cd8 80bd 2542 b9bb a8ad 363c 2428 59bc
000001f0: 49c0 6e3d 80ec debc f900 0e3d 708f 8e3d
00000200: dacd 64bd 0088 883c de97 fd3d 71de 50bd
00000210: 46f1 a03b b01b 083c 16ae 49be ffaf e23c
00000220: d0f8 863d 7b65 bc3d 8d20 47bd 720d 8e3d
00000230: a1ca 863c d26a d9bd c396 433e 2d24 893d
00000240: 3f7a e43b d019 aa3c 3e71 d93c 3c25 66bd
00000250: c31c 183e 982a e43d c17e f7bc d838 d53d
00000260: e08f aabc ab5e ff3d ae00 28bd 96c8 0e3d
00000270: a04e 123e 7a0c 22bd 5588 6b3e 2ef6 b7bd
00000280: b7e0 4c3c db20 81bc e71a 0e3e f17e f9bd
00000290: f909 babd 4aa9 0dbd c7f1 cbbd 185d 6b3c
000002a0: 1f5f 493d e57b bbbd e6ec 9dbc a01d ba3d
000002b0: e1a2 80bd 04b9 a0bd 8a6a 073e 292e b8bc
000002c0: c32c 3c3b f750 48bd 9f90 5e3d 8d4d b9bb
000002d0: e1d9 653d 8c1c 5dbd 24c2 b5bd 70de 6b3b
000002e0: 51b1 303d 4da2 3b3b d488 4c3c c8d4 543d
000002f0: e7a5 17bd c0cc ddbb ab67 e0bb 7ea3 70bd
00000300: a2a0 b03d 6f5a ed3c 3d15 ac3c bd48 2ebd
00000310: c0c0 0e3d b355 febb 7114 22bd d570 86bc
00000320: 1382 c33c 2163 07bd c3e4 103d d66a 043c
00000330: b77e 4abc fdd5 ff3b 1344 e2bd 7d86 0c3c
00000340: 337d 853b 2b94 00bd a996 28bd 85b3 69bb
00000350: 91bc f2bc 84d5 e8ba 713c 023d 290f 82bd
00000360: 57b8 be3d 8010 cebb 1faa 3ebc 699e dfbb
00000370: 029b 873d a101 123c 27e4 e8bb 706d a53d
00000380: 70fe 0ebd 5a3b e73b 79c7 8ebd 123e 873d
00000390: f370 a23c 1387 2c3c 1d48 003e fed0 0ebc
000003a0: ca46 abba 843c 39bd 2e2f 1d3d eeed 82bd
000003b0: 73bb 8f3c b394 c13c 951c 2bbe b86d 5cbd
000003c0: cafe 56bd 7fc2 443d 852d 9839 3a20 9a3c
000003d0: 78e4 7ebc ff6c a4bd c36a 333d 6237 893b
000003e0: ed2e 253d 8791 df3c d217 e33b 327d debc
000003f0: ec5a 38bc 0761 9e3d 3bec 09bd 834b 1dbc
0.13702801 0.1037389 0.059894443 -0.117033064 -0.05890624 0.018801624 -0.009487436 0.021577992
0.110572055 -0.044837415 -0.0010507549 0.0798728 -0.07903345 0.023311459 -0.18338118 0.051807687
0.0013684839 -0.0023970122 -0.059046987 -0.05031619 0.11346148 0.06452441 0.022681156 0.00020685386
0.19085607 0.051027674 -0.04804426 0.025008025 0.06179939 -0.020528974 0.05402323 0.0072945994
0.0034452176 0.008578717 -0.038706966 0.06020351 0.023173438 0.027999155 -0.15017828 -0.026336094
-0.06660381 0.056752417 0.015367463 -0.048333675 0.08693726 -0.026505573 0.05005744 -0.019892033
-0.05089538 0.032308355 0.04336094 0.0072256792 -0.035738524 0.031470083 -0.0012055913 -0.026756514
-0.08363509 0.008117675 0.051137432 -0.052349087 0.029882647 0.0021776035 -0.0040607103 0.049232587
-0.04112664 0.001427401 0.079665355 -0.036206417 -0.022030966 -0.021871688 -0.053102143 0.007425254
0.0025745672 -0.048122138 -0.0028631026 0.04721334 -0.017727472 -0.024037478 0.14375581 -0.0336003
-0.019987876 -0.01622039 0.030972855 -0.0007120578 0.060984112 -0.06918458 -0.037894644 0.015645543
-2.1818132e-05 -0.027287604 -0.0018784187 0.021769399 -0.024434786 0.00854976 0.019736182 -0.03551118
0.03242442 0.031474233 0.03413888 0.004458764 0.012452069 0.015169727 -0.20957787 -0.0068335887
-0.035140943 0.05039118 -0.0020900392 0.0077317315 0.07046816 -0.04625242 0.079644606 0.001397747
-0.047493845 -0.0026404273 0.034323756 -0.0021270472 -0.01065512 0.08109424 -0.016782995 -0.055252504
-0.062912196 -0.005653637 0.011149801 -0.013254199 0.058288846 -0.027212381 0.034668896 0.06960952
-0.055860378 0.016666412 0.12382482 -0.050993387 0.0049115745 0.008307382 -0.19695315 0.027671812
0.06590426 0.09199043 -0.048615027 0.06936158 0.016454043 -0.106160775 0.1910048 0.06696353
0.0069725807 0.020764261 0.026543256 -0.056187853 0.14854722 0.111409366 -0.030211808 0.10411233
-0.020820558 0.12469228 -0.041016273 0.034859262 0.14287806 -0.03956268 0.23001225 -0.08982502
0.012504748 -0.015762737 0.1387745 -0.12182415 -0.090839334 -0.034585275 -0.09958225 0.014365457
0.04916298 -0.091544904 -0.019278001 0.09087682 -0.06281067 -0.07847789 0.13224235 -0.022482948
0.0028713204 -0.04890534 0.05433714 -0.0056549967 0.05611599 -0.053982303 -0.0887492 0.0035990737
0.043137852 0.0028630674 0.012483794 0.051960737 -0.03702345 -0.006768793 -0.0068482957 -0.05874967
0.08624388 0.028973786 0.021006221 -0.042549837 0.03485179 -0.007761681 -0.039570276 -0.016411224
0.023865735 -0.03305352 0.035374414 0.008082112 -0.012359313 0.007807492 -0.110481404 0.008576986
0.004073763 -0.031391304 -0.041159306 -0.003565998 -0.029630931 -0.0017763828 0.031795923 -0.06350548
0.09312504 -0.006288588 -0.01163724 -0.006824304 0.06621362 0.008911521 -0.007107276 0.08077514
-0.03491062 0.007056636 -0.0697164 0.06603636 0.019829249 0.010530251 0.12527509 -0.00871682
-0.0013067361 -0.045223728 0.038375072 -0.06393038 0.017545437 0.023630476 -0.16710122 -0.053815573
-0.05248908 0.04803705 0.00029025614 0.018814195 -0.015557401 -0.08028602 0.043802988 0.0041875103
0.040327955 0.027291073 0.00693033 -0.027159307 -0.011252146 0.0773335 -0.033672553 -0.009600523

year_proj.0.weight f4 [16, 1]
00000000: 725b 0580 915a 0580 5a19 a6be bb5f 0500
00000010: 9a63 0500 377e 07bf ca8b 883e 166c 0500
00000020: 66c8 da3e 339a 6c3f 46d5 df3e 2b98 2bbf
00000030: 776a 0500 895f 0580 6c5c 0500 d0cf 45bf
-4.91982e-40 -4.91667e-40 -0.32441217 4.93519e-40 4.94908e-40 -0.52926964 0.2666915 4.97951e-40
0.42731017 0.9242279 0.43717402 -0.67029065 4.9737e-40 -4.93449e-40 4.92332e-40 -0.7727022

year_proj.0.bias f4 [16]
00000000: da5e 0500 c25e 0580 3908 9f3e 385b 0500
00000010: 095b 0580 e038 dc3e a23f 89be b267 0500
00000020: 6de7 323f ce1f 313e 5609 c8be 9b03 543f
00000030: 285d 0580 be57 0500 3a6f 0500 4454 2f3f
4.93204e-40 -4.9317e-40 0.3106096 4.919e-40 -4.91835e-40 0.43012142 -0.2680636 4.96376e-40
0.6988438 0.17297289 -0.39069623 0.82818 -4.92596e-40 4.90653e-40 4.99078e-40 0.68487954

year_proj.2.weight f4 [8, 16]
00000000: 4c71 0500 737a 0580 c356 73be 6761 0580
00000010: 5c6a 0580 905b a7bd 871e 95b8 9b76 0500
00000020: 0f30 603b f52d 673e 017a b83c cddc e63d
00000030: 3158 0500 bf5b 0580 665c 0500 3647 3d3d
00000040: 1878 0580 339f 0500 d1da 89be d763 0580
00000050: e468 0580 14bc 8aba 317d c737 bcb3 0600
00000060: 6619 673e 6202 e33d af73 4bbe ec7c 583e
00000070: 2314 0680 5f5d 0500 2f6c 0500 cd0c d03d
00000080: d562 0580 4335 0680 4e5d 893e 549c 0580
00000090: 1565 0500 19bd 0f3e b229 9939 956c 0500
000000a0: e795 6fbe e5ce bfbd 51a6 0f3e 50ea fcbd
000000b0: ef60 0580 8f66 0500 46c2 0500 2070 6dbd
000000c0: b79f 0500 9d5c 0580 0284 cfbd e265 0580
000000d0: 73c8 0580 9392 0bbd 963a d7bb ee6b 0500
000000e0: c5e2 a43e ab64 9b3e b726 6d3d dae2 d73d
000000f0: ca6e 0580 7468 0580 365a 0500 37ce 6ebe
00000100: 6463 0580 e16b 0500 feed 77be 605b 0500
00000110: 43d0 0580 e432 c0bd 2213 3a3a 26e0 0580
00000120: 6cff 92bd 0ad3 5e3e f6ca debd 44bb 7cbd
00000130: c689 0600 f86d 0580 aec1 0500 c907 f4bd
00000140: d966 0580 225a 0580 e59d 05bf 969c 0500
00000150: b76e 0580 d129 b6be c0a7 323a 6772 0500
00000160: 80fb 22bc 92b0 ae3e 19d1 0a3d 3b49 1b3b
00000170: 865f 0500 f95f 0580 fc59 0500 017a a6be
00000180: 10db 0500 c258 0500 ac6f 9bbe 766c 0500
00000190: c959 0580 a02f 01be ca71 33bd 5b59 0500
000001a0: 3508 3f3e 9266 5c3e ac0e 5bbd 88e5 00bd
000001b0: 222a 0680 3763 0500 b48b 0680 ca6d 29be
000001c0: 245d 0500 7579 0580 33ed 88be 0aa6 0580
000001d0: b378 0580 e74a 48bd be84 11bd d8cf 0500
000001e0: 0d1b 87bd 7a39 353e d5d2 883d 39a8 04bd
000001f0: 9c74 0500 caa8 0600 f15d 0580 cae0 b3bd
4.99821e-40 -5.03104e-40 -0.23763566 -4.94119e-40 -4.97332e-40 -0.08171761 -7.11056e-05 5.01725e-40
0.0034208333 0.22576125 0.022519113 0.11272583 4.90815e-40 -4.9209e-40 4.92324e-40 0.04621049
-5.02259e-40 5.16287e-40 -0.26924756 -4.94993e-40 -4.96805e-40 -0.0010584616 2.3780945e-05 6.1549e-40
0.22568282 0.11084439 -0.19868349 0.21141404 -5.58237e-40 4.92673e-40 4.97986e-40 0.101586916
-4.94632e-40 -5.7012e-40 0.26828998 -5.15257e-40 4.95439e-40 0.14036979 0.000292135 4.9813e-40
-0.23397027 -0.09365634 0.14028288 -0.12349379 -4.93951e-40 4.95969e-40 5.2887e-40 -0.05796826
5.16472e-40 -4.92401e-40 -0.101326 -4.95726e-40 -5.31085e-40 -0.03407533 -0.0065682633 4.97895e-40
0.3220426 0.3035024 0.05789825 0.105413154 -4.98921e-40 -4.96648e-40 4.91539e-40 -0.23320852
-4.94832e-40 4.97877e-40 -0.2421188 4.91957e-40 -5.33888e-40 -0.093847066 0.0007098188 -5.39587e-40
-0.07177624 0.21760193 -0.108785555 -0.061702028 6.00437e-40 -4.98627e-40 5.28657e-40 -0.119155474
-4.96072e-40 -4.91511e-40 -0.5219405 5.1535e-40 -4.98894e-40 -0.35578778 0.0006815158 5.00217e-40
-0.009947658 0.34119087 0.033890817 0.0023694772 4.93445e-40 -4.93606e-40 4.91458e-40 -0.32514957
5.37762e-40 4.91018e-40 -0.30358636 4.98086e-40 -4.91386e-40 -0.12615824 -0.04380969 4.91232e-40
0.18655474 0.21523502 -0.05348079 -0.031468898 -5.66127e-40 4.94769e-40 -6.01129e-40 -0.16545787
4.9259e-40 -5.02748e-40 -0.2674347 -5.18741e-40 -5.02476e-40 -0.048899557 -0.035526983 5.33738e-40
-0.065969564 0.17697707 0.06680838 -0.032386992 5.01009e-40 6.11563e-40 -4.92877e-40 -0.087831095

year_proj.2.bias f4 [8]
00000000: c142 143e 0e7e d13c b341 50be 82f9 293e
00000010: ee89 0b3e cfd4 4b3d 36a8 43be 0bc6 84be
0.1447859 0.025572803 -0.20337562 0.16599086 0.13626835 0.049763497 -0.19107136 -0.25932345

lstm.weight_ih_l0 f4 [256, 41]
00000000: 8b80 6d3d 432e e1bd f3af 47bd c279 5c3e
00000010: ac48 61bd 44e6 a73c e918 dcbd e9b9 b6be
00000020: bbb5 61bd 45c9 bbbd 6c60 4fbb ca66 65bb
00000030: 9357 153e b8e6 9b3d 5a0f b9bd e121 0a3f
00000040: 6b5a 81bd b140 883c 9642 04bd e3b5 a63d
00000050: a280 5a3d 76c2 dc3d a6bd 083c e4cd a8bd
00000060: 1dff 3e3d bb7f 13be d928 c2bc a3b3 fd3c
00000070: 10b9 a7bc 69df 523c feee d9bc 32ce e33d
00000080: bd1d 87bd 033f 123d bf15 8a3d a6e7 dabd
00000090: de59 583e 24e4 d33d 7a81 253e 1330 c53c
000000a0: 1b06 a9bd 0859 a13d 4340 75bd a82a 4ebe
000000b0: 9645 013e cf14 4dbe a675 dcbd e8db 17bd
000000c0: e697 ae3a 7571 be3d ac8c 073e ca7c 3ebe
000000d0: 9e98 43bc ab8e f13d c098 5fbe 8456 21be
000000e0: b11f e33c 81fc 8bbd 35fd d1bd 8adc 1bbd
000000f0: a893 073d b9f7 aabd f94e a93c e291 2abe
00000100: f04d 01bd 84b4 afbd 1531 ea3d d911 a6bd
00000110: bb82 cabd cf2b 4f3e d746 fc3c 96e1 ad3d
00000120: 391b 413c ce68 4abe 5f29 6d3e 8669 c63d
00000130: be11 91bd 98f7 ba3d 943d ea3d 7534 663e
00000140: 127b 383e b981 1fbe 0eab 663d 4f9f e1bd
00000150: 8f25 9c3d d599 8d3d 22f6 a63c 2ffa 61bc
00000160: 5302 95bd 6848 f4bd e2fc a23c cf2d 1cbd
00000170: affe 973d c4d2 6ebc 4026 f63d 1a07 92bd
00000180: e27a b4bd 2957 b13e 88cc 08be 04cb 73bc
00000190: 4fbe 50bd 8098 063e fecb 973c 8fbb 0f3d
000001a0: bf61 2f3b bf16 92bd 2fc5 d83d 9756 96be
000001b0: 476b 58be 49ff 0ebd 4e0f 853d b1ff 5ebd
000001c0: b3a5 0c3b d4d6 7dbc 07b9 7e3d ecf8 4d3e
000001d0: 84db 613d b67b 2bbe 3447 053d c1e2 1d3e
000001e0: 2fef 213a b705 eb3d 43cf 1abe bf19 413f
000001f0: 7fa7 40be 391b 8f3d f674 873f 1284 fabe
00000200: 3a5e f3be 2d44 b2be 4757 69bf 666f cd3e
00000210: c66d cd3e 0d87 b83e 0b86 07bf edcc 4f3f
00000220: 0a4f ecbd cbee 17bf 96e3 953f 6f3a d33e
00000230: 2581 cc3d 4749 87be 8922 4c3e 56fd 9ebe
00000240: 948a 683f 8ae5 053f 3eae 24bf 5400 023f
00000250: 61f8 c8bd 49fb fa3d 059b d2be 296b f93e
00000260: c414 d3bd 2b56 d1be 8b80 4f3f f640 28bf
00000270: ad92 f83d 9c8e 3e3e e09b 19be b76e 5e3e
00000280: 90ff 193d 358d 5dbc e588 19bd dbe8 7ebe
00000290: 9d80 073f 9978 a5bd 4b37 f93d 51ba 153f
000002a0: 0579 83be 76d5 38be 6b35 b9bd b297 17bf
000002b0: 1974 3e3e 7d62 593e 39e6 533e 4f21 43be
000002c0: ed23 da3e 4e66 e3bc 31e2 69be d40c 353f
000002d0: 7daa 7f3e 1ada ac3d a1d7 39bd cb72 b73d
000002e0: 32cb 3fbe ebef 103f 28ac b63e c0f4 88be
000002f0: 78b3 983e 237c aabc afc0 333e 6bad 1ebe
00000300: eec1 393e d316 c03d afb4 7bbe 7bdd 093f
00000310: a4b9 bbbe 59b5 4a3e 6712 a13e 65d6 9bbe
00000320: 9a0e 233e dfd3 993c d43b 8dbe 1aee 85be
00000330: 14bd 01bf 341f eb3e 6cb8 0ebd da12 623d
00000340: f32b 7a3e aab2 ddbd 8ce7 c8bd 95af b7bc
00000350: 1b3b 82be de37 6e3d da3b f13d 85b6 243c
00000360: 0ce5 5bbd c8eb 2b3e 6359 a5bb d56e f1bd
00000370: 9eb3 8d3e bc89 0d3d 5dd8 b7bc 5b7e 393c
00000380: e0db 9e3d 7f47 b0bd 9371 7c3e 84f8 f33c
00000390: 5abe c1bd 65bd 023e d095 d53c f9dc 063e
000003a0: 6dca 44bd cbf2 973d ee96 8d3d d60e 48bd
000003b0: c580 6a3e 57fe 39be 5dec ec3e 45cb b13e
000003c0: b9d4 afbe 0a54 fe3e 716f 043e 1c5c 1fbe
000003d0: 0c06 19be 176d eabe 6a47 4dbe 6561 e7bd
000003e0: f194 4b3d f0e3 83bd 28b4 b73d f3c4 853c
000003f0: a129 b83c 071f 263d 82be e0bd aafa 0abe
0.057983916 -0.10995152 -0.048751783 0.21530822 -0.055000946 0.020495541 -0.10746939 -0.35688713
-0.055104952 -0.091692485 -0.0031643165 -0.0035003894 0.14584188 0.076123655 -0.09036131 0.53957945
-0.06316074 0.01663241 -0.032290064 0.08140161 0.05334533 0.10779278 0.008345997 -0.082423955
0.046630014 -0.14404194 -0.023701118 0.030969447 -0.020473987 0.012870648 -0.026603218 0.11123313
-0.06597469 0.035704624 0.06742429 -0.10688715 0.21128032 0.10346249 0.16162673 0.024070775
-0.08253118 0.078783095 -0.059875738 -0.2013346 0.12624201 -0.20027469 -0.10764627 -0.037074953
0.0013320416 0.09298984 0.13237256 -0.18602291 -0.011938242 0.1179479 -0.21835613 -0.1575566
0.027725073 -0.06835271 -0.102533735 -0.03805212 0.0330998 -0.083480306 0.02066754 -0.16657212
-0.031568468 -0.085793525 0.11435143 -0.08108873 -0.09888216 0.20231555 0.030795498 0.08490293
0.011786276 -0.19766542 0.23160313 0.09688096 -0.07083462 0.09129256 0.11437526 0.22480948
0.18015698 -0.15576829 0.056315474 -0.11016714 0.07624351 0.06914107 0.020381037 -0.013792559
-0.07275834 -0.11927873 0.019895975 -0.038129624 0.07421624 -0.014576618 0.12019014 -0.07130261
-0.088125005 0.3463681 -0.13359272 -0.014879946 -0.050962742 0.13144112 0.018529888 0.03509098
0.0026761142 -0.07133245 0.10584485 -0.29362938 -0.21134673 -0.034911428 0.0649706 -0.054443065
0.002146107 -0.015493114 0.062188175 0.20114487 0.055140987 -0.1674641 0.032538608 0.15418531
0.0006177304 0.114756994 -0.15118127 0.7542991 -0.18813895 0.06987614 1.0582569 -0.48928887
-0.47532827 -0.3481764 -0.911488 0.40124053 0.40122813 0.36040536 -0.5293891 0.81172067
-0.11538513 -0.59348744 1.1710079 0.4125552 0.0998557 -0.26423094 0.19935049 -0.31052655
0.90836453 0.52303374 -0.6432837 0.5078175 -0.098129995 0.1225496 -0.41133896 0.4871457
-0.10306695 -0.40886053 0.81055516 -0.6572412 0.12137351 0.18609089 -0.15000868 0.21721922
0.03759724 -0.013522436 -0.03748407 -0.24893515 0.52930623 -0.08079643 0.121687494 0.5848742
-0.25678268 -0.18050179 -0.09043392 -0.59215844 0.18598975 0.21228977 0.20693292 -0.19055675
0.42605534 -0.027758744 -0.22840191 0.707227 0.2496738 0.08440037 -0.045371655 0.08957442
-0.18729857 0.56616086 0.3567822 -0.2674923 0.29824424 -0.020811146 0.17553972 -0.15495841
0.18140385 0.093793534 -0.24580644 0.5385358 -0.3666507 0.19795741 0.31459352 -0.30437008
0.15923539 0.018777786 -0.27584708 -0.2615822 -0.50679135 0.45922244 -0.034843847 0.05519376
0.24430828 -0.10825093 -0.09809789 -0.022422591 -0.2543572 0.058158748 0.11778994 0.010053282
-0.053685233 0.16789162 -0.005046056 -0.11788718 0.276761 0.03455518 -0.022442037 0.011321629
0.077567816 -0.08607387 0.246527 0.029781587 -0.09460135 0.12767561 0.026072413 0.13170232
-0.04804461 0.07419356 0.06913553 -0.048842274 0.22900684 -0.18163429 0.4627408 0.34725395
-0.34341982 0.49673492 0.12933137 -0.1556248 -0.14943713 -0.45786354 -0.20046774 -0.112978734
0.04970259 -0.0643996 0.08969909 0.016329264 0.022480788 0.040556934 -0.109738365 -0.13572183

lstm.weight_hh_l0 f4 [256, 64]
00000000: f00e 613d 7f99 ef3d 07ca 823d 3d55 08be
00000010: 90f1 023c 881b f43d 31b2 3a3d 8cf3 da3c
00000020: 52d1 45bd 3e20 803d b5bd b03d 8184 41bc
00000030: 57c8 ddbd c8d2 af3d 9a1e e53c e839 0cbd
00000040: f9d3 8c3c d826 e0bc 01e3 2e3d 2988 f8bc
00000050: b3c8 c7bc 4992 d2bc 2676 ebbc 8224 09bd
00000060: 8ae7 8dba 3e8e 2f3d 60fb 3e3b b10c 9a3d
00000070: 5014 d73d 9757 cdbc b0cf 0abb bbd5 c93b
00000080: ef0c 8c39 6317 a4bc 0734 593c 42d4 933d
00000090: 65b5 9e3d 2698 59bd c60f 43bb f27b c73c
000000a0: 4ba2 1c3d 118b 14bd 7e6c e3bc e1b8 323d
000000b0: 2d48 02bd 4937 793c bb61 91bd dba6 793d
000000c0: e08f 5ebc 6823 d0bd a6d2 1e3c 6a0e 87bd
000000d0: 1d74 043d 2826 52bc 13fb 4f3b b53b a9bc
000000e0: 83ac d0bc a4aa 3ebc 346d 42bd db77 b9bd
000000f0: 382d 253d a20e e03c 5b38 303c 449f d33c
00000100: 5327 353d e72f d2bd 6665 ec3b b114 a03c
00000110: 7aa5 24bd ea69 a9bd 3cc8 30bc cf65 7f3d
00000120: 2419 1ebe 0f55 eebd 10c0 4a3d 8698 02bc
00000130: 708b dcbd 92fd 08bd d1c0 153d 6133 713d
00000140: 9fa5 54bd f51d d33b d6f5 713c 8141 a1bc
00000150: f092 c83d 6633 893c d78e 153d bef3 77bc
00000160: bf21 b13b 89ba e6bb 61ed 9e3d 947d a43b
00000170: d5cf cf3c c33f 313b be34 98bd a8ef ecbd
00000180: ba30 7abd dc6f 0d3d 5b09 8a3b 6a85 86bb
00000190: f592 20be 429e d23c 2198 acbd 155e 01be
000001a0: fe19 8abd 78c6 d63c 80aa 9bbd c9f7 3abd
000001b0: fc9d e8bd 0b07 c2bd 0609 573b 7a62 8fbd
000001c0: ff44 6e3d 6cc7 8a3c e439 223d e3bb 653d
000001d0: 7fcc cfbc 8998 a5bb 81a1 e73d a28a e7bd
000001e0: 0eb4 8c3d 7422 dfbc a43b 80bd be53 423b
000001f0: 1cf5 4b3d 6065 173d 57d5 e63c 93d8 82bd
00000200: a023 163e 5a0d f33d c661 e8bd 7d45 e4bd
00000210: 9c42 b53d 51f9 a43c 596a 27be a3ba 6cbd
00000220: ccbb 653d 30ae 4c3d ea5b d8bd c22a 283d
00000230: 1b2e 243c 6ae1 02bd 9f01 083c 9ecc 26bd
00000240: 30b0 d53b d5e5 a7bd b98d a1bd 03cb 5f3b
00000250: f4ab b93d 47fc ba3d c901 32bc a054 39bd
00000260: ef67 073d 9b2d bbbc 2b95 89bd 1f2d 6b3d
00000270: 1125 023d fb98 cdbd dd06 993a c92f 533b
00000280: bef5 723c 06c1 d13c df0f c93d 00db 583d
00000290: 2c48 8c3d 4dae 9f3d ab87 aa3d bce6 0c3d
000002a0: 4ae1 b93d 3bff 6c3b 4b41 8f3d fd7e ab3d
000002b0: 7cdc 883d 6c3e 8a3d c80f 053d 1ea3 ae3d
000002c0: 9b9f 0bbd a97f 823b 65b2 1dbd db7a 33be
000002d0: 0d53 e93d 3080 1c3c 8270 eabc a5fc e8bd
000002e0: ff93 183d faa5 04bb bce6 97bb feda 473d
000002f0: 3de2 513c 3316 5fbd 9f3e 2d3d 0073 683e
00000300: 1afa 623e 1c00 39bc 8087 20be ffcf eabd
00000310: 4c09 013e a1df 573e d665 703e 76e7 f4bd
00000320: d294 09bf 252f 203e dd82 203e 828a cf3c
00000330: f00a 5cbe 5f5b cb3d 0fbf 32bd afd8 8cbd
00000340: d363 51be fd48 293f 3614 183b 1d22 8bbc
00000350: 7434 443d 6f68 8a3d 0813 71bd 0709 65be
00000360: 6a7d 6dbd a757 ae3d 41af 163e e882 fe3b
00000370: a2b7 f7be 9e28 cebd 6aac bdbc 9c11 e73d
00000380: 78d5 da3c 7dbd f8bc e5a7 6ebe a7ef 043e
00000390: be0d 69bf c6f2 babe 4698 143e 8479 56bf
000003a0: 9170 213d df65 04be f8d9 b93d c4fc 0b3d
000003b0: 3db1 bebe ab1d 093d 7043 0bbe c74f 9c3c
000003c0: c1b3 443e 2e23 a0bd a40c 34be bf54 09be
000003d0: 3014 e9bc e23b d43d aebd ff3d 52b7 453e
000003e0: b7ef ae3c 3d8c 5a3b dbf5 1bbe 2129 bd3d
000003f0: 0128 99bd b1b2 623e 5258 a13c 42be d3be
0.054945886 0.11699199 0.0638619 -0.13313766 0.007992163 0.11919314 0.045580093 0.02672746
-0.048295327 0.0625615 0.08629934 -0.011811377 -0.108292274 0.08585125 0.027968694 -0.03423491
0.01719092 -0.027362272 0.042696957 -0.030338364 -0.024387693 -0.02570452 -0.028742861 -0.033482082
-0.001082645 0.042860262 0.002914153 0.07521952 0.10501921 -0.02506618 -0.002118092 0.006159512
0.00026712517 -0.020030683 0.013257033 0.07218219 0.07749442 -0.053123616 -0.002976404 0.024351094
0.038240712 -0.036265437 -0.027761694 0.043633346 -0.031807113 0.015210935 -0.07098719 0.06095014
-0.013584107 -0.10163003 0.009693777 -0.06594546 0.032337297 -0.01282648 0.0031735345 -0.020658353
-0.025472885 -0.011637364 -0.047467425 -0.09056064 0.040326327 0.027350727 0.010755624 0.02583278
0.044226956 -0.10263043 0.007214236 0.019541116 -0.040196873 -0.08272155 -0.010789927 0.06235295
-0.15439278 -0.116373174 0.04949957 -0.007970935 -0.10768783 -0.03344495 0.036560837 0.05888689
-0.05191576 0.00644278 0.0147680845 -0.019684555 0.09793651 0.016748141 0.036513176 -0.015133796
0.005405634 -0.0070412797 0.0776012 0.005019853 0.025367657 0.0027046062 -0.07431935 -0.11569148
-0.061081626 0.034530506 0.004212541 -0.0041052597 -0.1568106 0.025710229 -0.08427454 -0.12633546
-0.06743239 0.026217684 -0.0760088 -0.045646463 -0.11358258 -0.094739996 0.0032811775 -0.07001205
0.05817127 0.016940795 0.03960599 0.056087386 -0.025366066 -0.005053584 0.11310101 -0.11305739
0.0687028 -0.027238108 -0.062613755 0.0029651965 0.0497943 0.036961913 0.0281779 -0.063889645
0.14662027 0.11867781 -0.11346774 -0.11146066 0.08850595 0.020138415 -0.16349162 -0.05779518
0.0560873 0.049970806 -0.10564406 0.041056402 0.010020758 -0.031953253 0.008301168 -0.040722482
0.0065212473 -0.08198134 -0.078883596 0.0034148104 0.090660006 0.09130149 -0.010864683 -0.04524672
0.033058103 -0.022848895 -0.06717905 0.057416078 0.03177363 -0.10038944 0.0011675019 0.0032224527
0.014829097 0.025604736 0.0981748 0.05294323 0.06849703 0.07796917 0.08326658 0.034399733
0.090761736 0.0036162871 0.069948755 0.083738305 0.06682679 0.06750187 0.032485753 0.08527206
-0.03408776 0.0039825034 -0.03850021 -0.17527334 0.11392794 0.009552047 -0.028618101 -0.11376313
0.037250515 -0.0020240531 -0.00463566 0.04879283 0.012810287 -0.05446453 0.04229605 0.22700119
0.22165719 -0.01129153 -0.15676689 -0.11465453 0.12601203 0.21081401 0.23476347 -0.1195821
-0.53742707 0.15642984 0.1567492 0.0253346 -0.21488547 0.09929537 -0.04363924 -0.068772666
-0.20448236 0.66126996 0.0023205406 -0.01698404 0.047901586 0.067582004 -0.05885604 -0.22366725
-0.057980932 0.08512812 0.14715292 0.00776707 -0.48382288 -0.10066341 -0.023153502 0.112826556
0.026713118 -0.030363793 -0.23306234 0.12982045 -0.91036594 -0.36513346 0.14511213 -0.8377917
0.039413992 -0.12929486 0.09074777 0.034176603 -0.37244597 0.03347556 -0.13599944 0.01908101
0.19209196 -0.0781921 -0.17582947 -0.13411234 -0.028452009 0.10362984 0.124873504 0.19308212
0.02135454 0.0033347749 -0.15230505 0.0923636 -0.07478333 0.22138478 0.019695435 -0.41356093

lstm.bias_ih_l0 f4 [256]
00000000: 092b 0a3e 1dc9 043e c107 ec3d c624 513e
00000010: be49 b33e 246f f03e 5310 173d 4697 713e
00000020: ba48 5f3d b324 173f 316d d73d 5450 d63d
00000030: 413a 003e 9d26 f23e 959c a73e 7dbf c23e
00000040: 6e6f a83e 5540 9d3d 6839 5d3d 635f c13e
00000050: 9f2a d13d 7aaf 083e 2e83 c23d 6ac1 ce3e
00000060: debe cb3e 25fe f03d 0f26 f33d 06de a93d
00000070: fa6a 173d ca1d b43d 8e29 f63d b395 963d
00000080: 175b 4e3e 8411 893e dcb0 2e3d f7ff cb3d
00000090: fe91 5a3e d254 e43d 9408 ca3d 99a8 953d
000000a0: 3cae cf3e cfeb a03e 4be8 213e 99e0 da3d
000000b0: 79df 313e f85e f23d 8f0f 0f3e ddbe ff3d
000000c0: ccf3 063e 56b7 553e 52a6 d33d eca3 013e
000000d0: 21ec 133e 7977 aa3e 351a 0d3e 972a 383d
000000e0: b01b 423e 6ace d23e 1f47 a33e d3a7 2d3e
000000f0: c9e7 e83d 7db9 123e b41f ed3d 49c2 253d
00000100: 0849 64bd 1352 5f3d 8529 d9bd 4831 95be
00000110: 77ea 86be f558 1cbe 12c8 8f3c 3edd 23be
00000120: 39ba fe3c 308b 99be 10bc 03bc a0cf 9cbc
00000130: a516 9bbd 9ff3 06be 1c2d 42be a4a7 8dbe
00000140: 9719 80be cbd0 1b3d fda3 dbbc 8943 04be
00000150: 9113 0abd 43ce adbd 6c5a a6bd e87a 65be
00000160: efc6 3cbe f63f 83bd cb0a 43bc 1ee3 67bd
00000170: 788e fc3c 0594 81bd f954 24bd fcec e5bc
00000180: 003a 01be b204 24be c829 9b3c d7cc 9abc
00000190: fae2 733d 1b81 f23c d325 a1bd ab58 5a3d
000001a0: 1907 99be afdb ffbd 3a9e 89bd 1df3 bbba
000001b0: cadd b53b d465 8abd 75fb 82bd 998a 2ebd
000001c0: cda3 f7bd 1cc8 96bd ea72 4ebd 1d3c 36bd
000001d0: f327 7fbd 7fa7 cbbd b86f 9e3d aba4 a9bc
000001e0: 2598 7dbd 279d 3abe 30e6 e8bd 18ef d0bd
000001f0: 78bb 63bd 18d2 f5bd 2f36 4bbd b6a9 e03b
00000200: 6cc9 0ebd 6a90 cebc 1f25 743d 7842 51bb
00000210: f3b3 223c 7b60 e33b 5a6a 713d 9321 653c
00000220: 92ff aebd 90f9 74bb 7bcc a33d c29e d7bb
00000230: c443 9d3d 5e2c d13c fa31 01bb e368 0dbc
00000240: 7220 1a3d eb71 d23d adcf adbb 04bb db3c
00000250: edca 10bd bd25 03bd 8192 6b3c 87a3 ff3b
00000260: 8e2a a4ba bb20 debc 1b5e ba3d 9b7f 0ebd
00000270: e4f8 a6bd 379b bd3b 70be 1c3c 1ea3 a9bc
00000280: 88d3 593a b56c 813c 51c9 87bd e343 9dbb
00000290: 0160 77be 51d3 b5bd ff27 20bc b453 f4bd
000002a0: 0f06 a33c fec1 adbb e2df 3f3c d34b 14bd
000002b0: 5f44 17be 997b 9abc 770c d03c 7b17 86bd
000002c0: 29e4 4ebc bd90 1d3c 0737 6b3c 55d2 013d
000002d0: e3bb a8bc 63e4 d3bc 0ec0 3bbc 12e0 ad3d
000002e0: 9a4f 8e38 ea01 06bc 269d 703c fbd4 54bc
000002f0: 56a5 893c 9817 28bd 0a2a 57bc c09a 98bd
00000300: 9855 183e f129 063e 1e9b e33d 105e 303e
00000310: 7ea5 c53e ccf7 e23e f82d 273d 7c7f 7e3e
00000320: 63f7 493d 78a0 163f ab8e c73d 6e14 d33d
00000330: 4f12 dc3d 21f2 fb3e 47b4 b13e 2a28 bb3e
00000340: 057b ae3e 0191 2c3d c845 783d 9ee3 c43e
00000350: 1721 d83d 5364 e03d bc37 c53d 20db c83e
00000360: 874e cd3e 7dae ea3d 7e2f d53d d9bc ae3d
00000370: 2161 2b3d b68e ab3d 3a44 f53d 5106 823d
00000380: 4523 593e 6974 853e 4007 443d 07c7 c93d
00000390: c6a1 173e 0c8a b33d 4b72 ff3d 765a 643d
000003a0: d91d de3e 6a2f 9f3e 23f9 2c3e 8b80 dc3d
000003b0: 1f3f ce3d d3b9 f13d 69cd 033e db55 e23d
000003c0: 0614 693e 43ed 523e 73e9 e83d 7853 0f3e
000003d0: 6a9d 123e 8036 aa3e b17f 093e 912d b63c
000003e0: 98bb 5b3e 48da e43e f14a a23e bde2 353e
000003f0: 405b ec3d b298 c43d b92e f73d 2384 d73c
0.13492979 0.12967344 0.115249164 0.20424184 0.35017198 0.46959794 0.036880802 0.23592862
0.054512717 0.59040374 0.105188735 0.1046454 0.12522222 0.47295085 0.3273665 0.3803672
0.32897514 0.07678286 0.054009825 0.37768087 0.102132075 0.13348189 0.09497677 0.40381938
0.39794058 0.11767224 0.118724935 0.08294301 0.036967255 0.08794744 0.12019645 0.073527716
0.20151936 0.26771176 0.042649135 0.09960931 0.21344754 0.11148991 0.098649174 0.07307548
0.40562618 0.31429908 0.15811269 0.1068737 0.17370404 0.1183452 0.13970779 0.12487576
0.13178939 0.20870718 0.103344575 0.12660187 0.14445545 0.33294275 0.13779528 0.04496249
0.18955874 0.41173106 0.318902 0.16958551 0.113723345 0.1432857 0.115783125 0.040468488
-0.05573371 0.05452163 -0.10603622 -0.2913916 -0.26350757 -0.1526831 0.017551456 -0.16002366
0.031094657 -0.29989004 -0.008040443 -0.019141972 -0.075726785 -0.13178872 -0.1896252 -0.27666962
-0.25019524 0.038040917 -0.026811594 -0.12916388 -0.033710066 -0.08486607 -0.08122715 -0.22410166
-0.18435262 -0.06408684 -0.011904429 -0.05661308 0.030829653 -0.063270606 -0.0401201 -0.028067105
-0.12619781 -0.16017416 0.018940821 -0.018896503 0.059542634 0.029602578 -0.078685425 0.053307217
-0.29888228 -0.12493073 -0.067196324 -0.0014339421 0.005550121 -0.067577034 -0.06395618 -0.042612646
-0.120917894 -0.073623866 -0.05040256 -0.044490922 -0.062293958 -0.09944057 0.077361524 -0.020708403
-0.061912674 -0.18224011 -0.1137203 -0.102018535 -0.055598706 -0.12002963 -0.04961222 0.0068561686
-0.03486006 -0.025215346 0.059605714 -0.0031930488 0.009930599 0.0069389916 0.058939315 0.0139850555
-0.0854484 -0.0037380196 0.07997986 -0.0065802047 0.07678941 0.025533851 -0.0019713626 -0.008630964
0.0376286 0.102756344 -0.005304298 0.026822574 -0.035349775 -0.032018412 0.014378191 0.0078014764
-0.0012524889 -0.027115216 0.090999804 -0.034789663 -0.08152941 0.0057863253 0.009566888 -0.020707663
0.00083094137 0.015798906 -0.06630195 -0.0047993525 -0.24157716 -0.08878196 -0.009775161 -0.119300276
0.01990035 -0.0053026667 0.011711093 -0.036205124 -0.14772175 -0.018857764 0.025396569 -0.06547447
-0.01262764 0.009617028 0.014356381 0.03169473 -0.020597404 -0.02586574 -0.011459364 0.08490004
6.7859146e-05 -0.008179167 0.014685905 -0.012990232 0.016802471 -0.041038126 -0.0131325815 -0.07451391
0.14876401 0.13101937 0.11113571 0.17223382 0.38602823 0.4432968 0.040815324 0.24853319
0.049308192 0.58838606 0.09744009 0.10306631 0.107456796 0.49208167 0.34707853 0.3655408
0.3407823 0.042130474 0.060613424 0.38454908 0.105531864 0.10956635 0.09629771 0.3922968
0.40098974 0.11459062 0.10409449 0.085321136 0.041840676 0.08376829 0.11975904 0.06348861
0.2120486 0.26065376 0.047858477 0.098524146 0.14807805 0.08766565 0.124729715 0.055750333
0.43382147 0.31090862 0.16891913 0.10766705 0.10070633 0.11803021 0.12871327 0.11051532
0.22761545 0.2059832 0.11372652 0.13996685 0.14317861 0.33244705 0.13427617 0.022238525
0.2145828 0.44697785 0.316978 0.17762275 0.11540842 0.09599437 0.120694585 0.026308125

lstm.bias_hh_l0 f4 [256]
00000000: 092b 0a3e 1dc9 043e c107 ec3d c624 513e
00000010: be49 b33e 246f f03e 5310 173d 4697 713e
00000020: ba48 5f3d b324 173f 316d d73d 5450 d63d
00000030: 413a 003e 9d26 f23e 959c a73e 7dbf c23e
00000040: 6e6f a83e 5540 9d3d 6839 5d3d 635f c13e
00000050: 9f2a d13d 7aaf 083e 2e83 c23d 6ac1 ce3e
00000060: debe cb3e 25fe f03d 0f26 f33d 06de a93d
00000070: fa6a 173d ca1d b43d 8e29 f63d b395 963d
00000080: 175b 4e3e 8411 893e dcb0 2e3d f7ff cb3d
00000090: fe91 5a3e d254 e43d 9408 ca3d 99a8 953d
000000a0: 3cae cf3e cfeb a03e 4be8 213e 99e0 da3d
000000b0: 79df 313e f85e f23d 8f0f 0f3e ddbe ff3d
000000c0: ccf3 063e 56b7 553e 52a6 d33d eca3 013e
000000d0: 21ec 133e 7977 aa3e 351a 0d3e 972a 383d
000000e0: b01b 423e 6ace d23e 1f47 a33e d3a7 2d3e
000000f0: c9e7 e83d 7db9 123e b41f ed3d 49c2 253d
00000100: 0849 64bd 1352 5f3d 8529 d9bd 4831 95be
00000110: 77ea 86be f558 1cbe 12c8 8f3c 3edd 23be
00000120: 39ba fe3c 308b 99be 10bc 03bc a0cf 9cbc
00000130: a516 9bbd 9ff3 06be 1c2d 42be a4a7 8dbe
00000140: 9719 80be cbd0 1b3d fda3 dbbc 8943 04be
00000150: 9113 0abd 43ce adbd 6c5a a6bd e87a 65be
00000160: efc6 3cbe f63f 83bd cb0a 43bc 1ee3 67bd
00000170: 788e fc3c 0594 81bd f954 24bd fcec e5bc
00000180: 003a 01be b204 24be c829 9b3c d7cc 9abc
00000190: fae2 733d 1b81 f23c d325 a1bd ab58 5a3d
000001a0: 1907 99be afdb ffbd 3a9e 89bd 1df3 bbba
000001b0: cadd b53b d465 8abd 75fb 82bd 998a 2ebd
000001c0: cda3 f7bd 1cc8 96bd ea72 4ebd 1d3c 36bd
000001d0: f327 7fbd 7fa7 cbbd b86f 9e3d aba4 a9bc
000001e0: 2598 7dbd 279d 3abe 30e6 e8bd 18ef d0bd
000001f0: 78bb 63bd 18d2 f5bd 2f36 4bbd b6a9 e03b
00000200: 6cc9 0ebd 6a90 cebc 1f25 743d 7842 51bb
00000210: f3b3 223c 7b60 e33b 5a6a 713d 9321 653c
00000220: 92ff aebd 90f9 74bb 7bcc a33d c29e d7bb
00000230: c443 9d3d 5e2c d13c fa31 01bb e368 0dbc
00000240: 7220 1a3d eb71 d23d adcf adbb 04bb db3c
00000250: edca 10bd bd25 03bd 8192 6b3c 87a3 ff3b
00000260: 8e2a a4ba bb20 debc 1b5e ba3d 9b7f 0ebd
00000270: e4f8 a6bd 379b bd3b 70be 1c3c 1ea3 a9bc
00000280: 88d3 593a b56c 813c 51c9 87bd e343 9dbb
00000290: 0160 77be 51d3 b5bd ff27 20bc b453 f4bd
000002a0: 0f06 a33c fec1 adbb e2df 3f3c d34b 14bd
000002b0: 5f44 17be 997b 9abc 770c d03c 7b17 86bd
000002c0: 29e4 4ebc bd90 1d3c 0737 6b3c 55d2 013d
000002d0: e3bb a8bc 63e4 d3bc 0ec0 3bbc 12e0 ad3d
000002e0: 9a4f 8e38 ea01 06bc 269d 703c fbd4 54bc
000002f0: 56a5 893c 9817 28bd 0a2a 57bc c09a 98bd
00000300: 9855 183e f129 063e 1e9b e33d 105e 303e
00000310: 7ea5 c53e ccf7 e23e f82d 273d 7c7f 7e3e
00000320: 63f7 493d 78a0 163f ab8e c73d 6e14 d33d
00000330: 4f12 dc3d 21f2 fb3e 47b4 b13e 2a28 bb3e
00000340: 057b ae3e 0191 2c3d c845 783d 9ee3 c43e
00000350: 1721 d83d 5364 e03d bc37 c53d 20db c83e
00000360: 874e cd3e 7dae ea3d 7e2f d53d d9bc ae3d
00000370: 2161 2b3d b68e ab3d 3a44 f53d 5106 823d
00000380: 4523 593e 6974 853e 4007 443d 07c7 c93d
00000390: c6a1 173e 0c8a b33d 4b72 ff3d 765a 643d
000003a0: d91d de3e 6a2f 9f3e 23f9 2c3e 8b80 dc3d
000003b0: 1f3f ce3d d3b9 f13d 69cd 033e db55 e23d
000003c0: 0614 693e 43ed 523e 73e9 e83d 7853 0f3e
000003d0: 6a9d 123e 8036 aa3e b17f 093e 912d b63c
000003e0: 98bb 5b3e 48da e43e f14a a23e bde2 353e
000003f0: 405b ec3d b298 c43d b92e f73d 2384 d73c
0.13492979 0.12967344 0.115249164 0.20424184 0.35017198 0.46959794 0.036880802 0.23592862
0.054512717 0.59040374 0.105188735 0.1046454 0.12522222 0.47295085 0.3273665 0.3803672
0.32897514 0.07678286 0.054009825 0.37768087 0.102132075 0.13348189 0.09497677 0.40381938
0.39794058 0.11767224 0.118724935 0.08294301 0.036967255 0.08794744 0.12019645 0.073527716
0.20151936 0.26771176 0.042649135 0.09960931 0.21344754 0.11148991 0.098649174 0.07307548
0.40562618 0.31429908 0.15811269 0.1068737 0.17370404 0.1183452 0.13970779 0.12487576
0.13178939 0.20870718 0.103344575 0.12660187 0.14445545 0.33294275 0.13779528 0.04496249
0.18955874 0.41173106 0.318902 0.16958551 0.113723345 0.1432857 0.115783125 0.040468488
-0.05573371 0.05452163 -0.10603622 -0.2913916 -0.26350757 -0.1526831 0.017551456 -0.16002366
0.031094657 -0.29989004 -0.008040443 -0.019141972 -0.075726785 -0.13178872 -0.1896252 -0.27666962
-0.25019524 0.038040917 -0.026811594 -0.12916388 -0.033710066 -0.08486607 -0.08122715 -0.22410166
-0.18435262 -0.06408684 -0.011904429 -0.05661308 0.030829653 -0.063270606 -0.0401201 -0.028067105
-0.12619781 -0.16017416 0.018940821 -0.018896503 0.059542634 0.029602578 -0.078685425 0.053307217
-0.29888228 -0.12493073 -0.067196324 -0.0014339421 0.005550121 -0.067577034 -0.06395618 -0.042612646
-0.120917894 -0.073623866 -0.05040256 -0.044490922 -0.062293958 -0.09944057 0.077361524 -0.020708403
-0.061912674 -0.18224011 -0.1137203 -0.102018535 -0.055598706 -0.12002963 -0.04961222 0.0068561686
-0.03486006 -0.025215346 0.059605714 -0.0031930488 0.009930599 0.0069389916 0.058939315 0.0139850555
-0.0854484 -0.0037380196 0.07997986 -0.0065802047 0.07678941 0.025533851 -0.0019713626 -0.008630964
0.0376286 0.102756344 -0.005304298 0.026822574 -0.035349775 -0.032018412 0.014378191 0.0078014764
-0.0012524889 -0.027115216 0.090999804 -0.034789663 -0.08152941 0.0057863253 0.009566888 -0.020707663
0.00083094137 0.015798906 -0.06630195 -0.0047993525 -0.24157716 -0.08878196 -0.009775161 -0.119300276
0.01990035 -0.0053026667 0.011711093 -0.036205124 -0.14772175 -0.018857764 0.025396569 -0.06547447
-0.01262764 0.009617028 0.014356381 0.03169473 -0.020597404 -0.02586574 -0.011459364 0.08490004
6.7859146e-05 -0.008179167 0.014685905 -0.012990232 0.016802471 -0.041038126 -0.0131325815 -0.07451391
0.14876401 0.13101937 0.11113571 0.17223382 0.38602823 0.4432968 0.040815324 0.24853319
0.049308192 0.58838606 0.09744009 0.10306631 0.107456796 0.49208167 0.34707853 0.3655408
0.3407823 0.042130474 0.060613424 0.38454908 0.105531864 0.10956635 0.09629771 0.3922968
0.40098974 0.11459062 0.10409449 0.085321136 0.041840676 0.08376829 0.11975904 0.06348861
0.2120486 0.26065376 0.047858477 0.098524146 0.14807805 0.08766565 0.124729715 0.055750333
0.43382147 0.31090862 0.16891913 0.10766705 0.10070633 0.11803021 0.12871327 0.11051532
0.22761545 0.2059832 0.11372652 0.13996685 0.14317861 0.33244705 0.13427617 0.022238525
0.2145828 0.44697785 0.316978 0.17762275 0.11540842 0.09599437 0.120694585 0.026308125

lstm.weight_ih_l1 f4 [256, 64]
00000000: 6909 37be 8919 42bd 12a1 bf3d 8484 f53d
00000010: f307 6dbe 9473 b2be dfdf 04bd 0dde 8b3d
00000020: 9a7a 98bc 04b2 22be e92e 113e cbc4 a3bc
00000030: c581 253e 6c79 afbe cf6f cfbd 2558 d63d
00000040: 29dd 083e e855 f0bd f2ff 28be 013e efbc
00000050: 21a3 90bc d8e9 d33c 5906 e23c 4869 a63e
00000060: ab3d b83d c8f8 06be 7d75 443e ab05 313c
00000070: a67e c0bb 97ea 99bc c0b7 12bd 1245 d6bd
00000080: ab33 983d 9138 953d 843c 9b3d 24af 80be
00000090: b50b 6f3d 2d46 92bd beeb 35be 3580 953d
000000a0: d1be cd3d 9a3a 1f3e 0672 e8bd a340 04be
000000b0: 6fc8 4abd 0d1e fa3d 235f 7c3d 8613 07be
000000c0: 2614 10be a217 323e 942b 0e3e b844 473e
000000d0: 72bf d9bd 91be 03be 3645 9f3d 2af4 e5bd
000000e0: 13b1 7d3c e6fb 1dbd b81a a83e c42b f2bd
000000f0: 3138 6f3d a595 79be b38f 5fbe 099c 1abd
00000100: ec15 f9bd 1ec5 bdbd fd5d f13d e73b 18be
00000110: 2366 c43d ec29 1dbd f84c 203e b08b e13d
00000120: 4751 8fbe e3f8 283e 0725 563e eb71 3bbd
00000130: be46 073e f609 733d 2f0b efbd 9106 26be
00000140: 02f0 963e c87f 973e 11e2 e83c 256d 0a3e
00000150: a677 1fbe 8bc9 abbd 0b67 073c 7325 403d
00000160: cefb e5bc f5d9 113c 24a4 673e b6c9 d53c
00000170: 6305 76be 2ad4 aa3d 62b2 df3c 0109 ccbc
00000180: 113b 9a3d 8a8b 973c 5862 87be c821 2bbe
00000190: e3f8 93be 5f04 0cbe 65ed a0bd 6753 93be
000001a0: 5524 e23e 12d6 a7bc ae23 e3bc f033 f3bd
000001b0: 72d3 cfbe 6aae 17bd 782e bf3d 855d 72be
000001c0: 003f 93be 77e3 853c 198a 483d 9d88 e03d
000001d0: 3288 213d a107 84bd 083a c6bd a916 283e
000001e0: 0e8b 2fbd 3c0a 11be 24fd 60bc 83dd cabd
000001f0: 2805 bfbc 3d9e 48be c56c 7a3c bced 93be
00000200: 0f88 753b b03b a2bd e13e 313c fa61 25be
00000210: cf3e f63d 4f5d 9f3d 3e4f 4b3d 981a 913d
00000220: 9a4d bbbd 3512 813e ba20 23bc eec3 a53a
00000230: 3ea1 a53d cd52 dd3d f948 c5bd e4e6 15be
00000240: eb9b e93d c3ff 243e 8edf a53b f4d3 f13d
00000250: 5cac 84bd 3387 893d 4a11 4fbb ca4f dbbd
00000260: 3e7e 1dbd 8dcb 88bb 13d1 9bbb f572 41bd
00000270: c5f3 3dbd 317a c83c 8553 80bc f0c3 f43b
00000280: 227b 1b3e bfec caba 27ef 9bbd 060f 98bd
00000290: 3b35 8ebe 4f9e a2bc a44e b43b 416a 6bbe
000002a0: 89ea a43e 8bec 23bd 2410 e43c b476 fcbc
000002b0: 7072 dfbe 8e01 923c aecc 813d dd2e 8f3c
000002c0: 33e8 fabd 6a8f 3c3d 2805 89b9 08c9 313c
000002d0: eb76 cbba 0c44 2d3a 73f3 3ebd 01d4 b23d
000002e0: ac1e 03ba 992d 13be 5ff4 91bc ca53 28bd
000002f0: 7c3c 48bd 3a72 dabd 5fbd 0cbd 05c8 c4bd
00000300: 229c 713a a989 d53d ebe2 e93d 9efa 613e
00000310: b274 d4bd 560a e13c 5ffc ca3c 0633 7dbc
00000320: 0438 333d e33e d7bd 48cd 8abd 3e52 68bb
00000330: 0846 fcbd 2f5b 13bb 357e 103e 8b92 de3d
00000340: 67c5 ab3c 5269 f6bd 21c5 823d 5287 b7bc
00000350: aa5e 783d b54e 04be 9600 42bd 96c2 5f3d
00000360: e51b c0bb d0c9 293d 6d38 303d 72ff 253e
00000370: 5fd2 1abc d370 5c3c 724d 66bc a94b f3bb
00000380: 5efd d4bd 2163 ce3c 5464 dd3d 456b 973d
00000390: 9875 ee3c 698a c33d 41c6 8f3b f4fa c63d
000003a0: fffe 39be c12c 123e fdb8 ccbb 0729 cc3b
000003b0: 8ee6 30bd a0ed 28be 20fc 82bd 103e 173d
000003c0: 1230 803c c194 a0bc 0f7f af3c 9a44 bbbd
000003d0: aebb fdba 8e3d 383c fa68 0dbd 6c87 cdbd
000003e0: af4d 08bb ade1 673d 90d6 acbc 64cf 12bd
000003f0: 9a9d c03c 8e2a 383d 10e9 be3d 9356 353d
-0.17874683 -0.047387633 0.093568936 0.11988166 -0.23147564 -0.34853804 -0.032440063 0.06829462
-0.018613148 -0.1588822 0.14178051 -0.0199913 0.16162784 -0.34272325 -0.10128748 0.10466031
0.13365616 -0.11735135 -0.16503885 -0.02920437 -0.01765591 0.025868341 0.027590917 0.32502198
0.08996137 -0.1318084 0.19185443 0.010804574 -0.0058744727 -0.018788619 -0.03581977 -0.10462393
0.0743173 0.0728618 0.07579902 -0.25133622 0.058360774 -0.07142291 -0.1776571 0.07299844
0.10046161 0.15549698 -0.11349873 -0.12915282 -0.049507555 0.12212763 0.061614167 -0.13191041
-0.14070186 0.17391828 0.13883811 0.19459808 -0.106322184 -0.12865664 0.07776873 -0.11228211
0.015484112 -0.038570307 0.32832885 -0.11824754 0.058403198 -0.24373491 -0.2183216 -0.037746463
-0.121623844 -0.09266113 0.11785505 -0.14866601 0.095897935 -0.038370058 0.15654361 0.110129714
-0.27991697 0.16501193 0.20912562 -0.045762938 0.1321058 0.05933567 -0.11672055 -0.16213442
0.29479986 0.29589677 0.02842811 0.13518198 -0.15572986 -0.08388051 0.008264313 0.046910714
-0.028074171 0.008902063 0.22621208 0.02609716 -0.24025492 0.08341248 0.02730674 -0.024906637
0.07530797 0.018499155 -0.26442218 -0.16712105 -0.28900823 -0.13673542 -0.078577794 -0.28774568
0.44168344 -0.020487819 -0.027726974 -0.11875141 -0.40591007 -0.03703157 0.09335035 -0.23668487
-0.28759003 0.016343815 0.048959825 0.10963557 0.039436527 -0.064467676 -0.09679037 0.16414894
-0.042857222 -0.1416406 -0.013732228 -0.09905531 -0.023317888 -0.19591613 0.015284722 -0.28892314
0.003746513 -0.07921541 0.010818214 -0.16150656 0.120236985 0.07781469 0.049636118 0.070851505
-0.09145661 0.25209203 -0.009956533 0.0012646893 0.08087395 0.108068086 -0.09633059 -0.14638859
0.11406692 0.1611319 0.00506205 0.11808005 -0.064781874 0.0671524 -0.0031595998 -0.10708578
-0.038450472 -0.004174656 -0.004755148 -0.047228772 -0.046375055 0.024472328 -0.015664825 0.0074696466
0.1518369 -0.0015481933 -0.07613974 -0.074247405 -0.27774987 -0.019850878 0.0055025388 -0.22989751
0.32210186 -0.040020507 0.027839728 -0.03081832 -0.43641996 0.017823007 0.06337868 0.0174784
-0.1225132 0.046035208 -0.00026134518 0.010851152 -0.0015523111 0.0006609566 -0.04661889 0.08731843
-0.0005001824 -0.14372863 -0.01781672 -0.041095532 -0.048885807 -0.10666318 -0.034360286 -0.09608463
0.0009216686 0.10426647 0.11420234 0.22068259 -0.1037382 0.027470749 0.024778543 -0.0154540595
0.043754593 -0.105100416 -0.067774355 -0.003544941 -0.12318045 -0.002248477 0.14110644 0.108677946
0.020968152 -0.12031807 0.063852556 -0.022403393 0.060637154 -0.1292065 -0.04736384 0.05462893
-0.0058627003 0.04145223 0.04302256 0.16210726 -0.00944957 0.013454634 -0.01405655 -0.007424791
-0.103998885 0.025193753 0.10810152 0.07393507 0.029108807 0.09547884 0.0043876474 0.09715834
-0.1816368 0.14274885 -0.0062476383 0.006230477 -0.043188624 -0.16496897 -0.06395745 0.03692442
0.015647922 -0.019602181 0.021422891 -0.09143944 -0.0019358301 0.0112451445 -0.03452394 -0.10035595
-0.0020798256 0.056611706 -0.021098405 -0.035842314 0.02351265 0.04496246 0.09321797 0.044272017

lstm.weight_hh_l1 f4 [256, 64]
00000000: 0a78 d2bd ed01 ae3d 845a 193d ad64 98bc
00000010: ed96 19be b3aa 973c a6fc dabd b476 1dbd
00000020: 98ee 4dbd 70c2 0f3d 600a 8abc 0ca7 44bd
00000030: 9b2d c3bd 22dd 8a3d 61d0 3abd 8919 c9bc
00000040: f7d0 6cbc 5e4a bd3d 7749 40bd a3b0 023e
00000050: f731 433d d291 01be a73d e3bd 038d 54bd
00000060: ffdc 893d 0abd debc b491 083e d2bd fa3c
00000070: 81c6 023d 8500 6fbe 1c29 423e 096a 30bc
00000080: 888b 873d c525 f0bc 207a 1bbe b515 76bd
00000090: 6903 0fbd e02e 2dbe 8845 cabc 73ca 94bd
000000a0: 8385 183e a5bd 3cbd 2e46 df3d 547c f53d
000000b0: e6cc 343c c7a1 cabb a223 6b3d 596b c7bd
000000c0: bb00 a63c 3417 6dbb d22f bdbc a2e1 393c
000000d0: 55c7 1b3e f432 f23d e8e2 0b3e 14d1 7abd
000000e0: 79b9 ec3d 2028 973d 1e3b 8ebd a893 503d
000000f0: 5290 18be 064b d53b cf40 9fbd da12 3a3e
00000100: 80c6 57bd 01ec debd eeba a9bd 42f7 04bc
00000110: e329 8d3d e434 9939 461e ac3d 945e 423d
00000120: 3203 c73c 3be1 d3ba e096 01bc eb7a 0f3e
00000130: 18c5 d63b 222f c2bc e04a 8c3d c84c 923d
00000140: 7e51 943c f719 e3bc 9dea 62ba 7a91 c5bb
00000150: 350a 553d 950c f73d a672 c93d 2218 013c
00000160: 072d 313d 7be3 163e 5946 9abd 0f6e 87bc
00000170: 382c 85bd 2d26 083d a7b4 1f3d 8a0c f33c
00000180: 6baa 3fbb c44e d03d 3427 073e 68f0 9f3d
00000190: 8e9c fe3d 5d45 b43c 3672 8b3c 55c9 5a3d
000001a0: 2276 a2bd eb94 323d aa11 75bd c9a8 0cbe
000001b0: 95be 0d3c 4bbb 58bc edbc ad3b e7cd 09bb
000001c0: ae27 c0bc 1c19 0abb 150f 093c 9465 6ebc
000001d0: 8d54 71bc 1240 21bb ead0 11be ac80 afbc
000001e0: 3662 fdbd f697 98bd 32a0 573c f759 8b3c
000001f0: 9376 25ba 952b 87b7 f53c c0bb 5b5d 9cbd
00000200: addd 133d abd8 41bd aa3d a9bd 7168 cdbb
00000210: 292c 893c 0b92 04bc cd2a 37bc 6d21 173c
00000220: 5c85 dcbb f03d 30b9 6ad7 123c 4d26 d63c
00000230: 128f 68b9 2630 a23c 5143 073d 9a42 ab3b
00000240: 7f5c 7b3c 2cc8 3d3b 4136 e43b 2aeb 6f3b
00000250: 3c28 d4bc dad2 b73c a8c6 ecbb b88f 7d3c
00000260: 3da9 c7bc 2e6f ff3c d58c 8fba d07c 893c
00000270: 43df 94b8 1947 81bc f77d bcbc 80f5 2ebc
00000280: 3470 a8ba 0fbe 1b3d ae44 133d 397a a6ba
00000290: d990 353d 26a6 473c 1c1b acba 36ae 05bc
000002a0: d97e 5a3a c94c 4ebc 1951 25bd bf1a b9bd
000002b0: 6d0f 4cbb 7cff ce3b b9c9 54ba de04 3bbc
000002c0: 0874 6a3b aeaa 71bb 132a 663c 35b8 a33b
000002d0: 7c86 abbc 78a2 a23a 24f2 56bd 18cb 2abc
000002e0: 226f 90bc d9bb a03c 4c76 933b 14eb 14bc
000002f0: 9cb4 c83b 85a7 77bc 41c7 06bc cf47 c53b
00000300: abf7 d43d f6a4 f13c 752e 2e3c 8ecf 733d
00000310: 691e b0bc 76d2 1dbd a4f3 fa3b efdd 03be
00000320: 55a6 dbbd 064b 103c 1690 253e 35c6 28bd
00000330: ae8e 2a3e 9f10 783c 718e 1f3c c754 06bc
00000340: 549d 303c d2e2 313c 39d5 af3c 1e91 cabc
00000350: 4dab 07bd 7f4d 8cbd 3153 44bc 5c48 ba3c
00000360: ad60 443d 8da2 24be b385 b8bb a946 ca3d
00000370: 1d00 1e3c 1367 923d a59e 3bbd 1430 8f3c
00000380: 1a31 85bb 2fbf 63bd cc05 2dbe 99ab 0c3d
00000390: ce10 353b 1db8 243d e0f7 67bd 43ce fabd
000003a0: 5ed5 0d3e 03f0 253d 3de9 ae3d dc83 483d
000003b0: f7d2 c9bd 8b69 b33d 0f42 67bd f00d b23d
000003c0: 0f02 7a3e fbec 63bd ed87 5d3d 587d cb3d
000003d0: 8544 9cbd 887e 8abc ee87 febc 94c0 bb3d
000003e0: 227e 233d a027 33be cd82 893d c028 89be
000003f0: 2b6c d23d 8e50 813d e2f2 173b d6e4 1dbd
-0.10276802 0.08496461 0.037439838 -0.018602693 -0.1499898 0.018514013 -0.1069272 -0.038443282
-0.05027637 0.03509754 -0.01685065 -0.04801087 -0.09530183 0.06780459 -0.04560888 -0.024548309
-0.014454118 0.092427 -0.04694506 0.12762694 0.047655072 -0.12653282 -0.110957436 -0.05189229
0.06731605 -0.02718975 0.13336831 0.030608092 0.03192759 -0.23340042 0.18960994 -0.010767468
0.0661841 -0.029314885 -0.15183306 -0.060079295 -0.03491536 -0.16912413 -0.024691358 -0.072651766
0.1489468 -0.046079297 0.109020576 0.11986604 0.01103518 -0.006183836 0.05740703 -0.09737272
0.02026402 -0.003617716 -0.023094092 0.011345299 0.15212758 0.11826125 0.13660777 -0.06123455
0.115588136 0.073807 -0.069448695 0.050922066 -0.14898804 0.0065091876 -0.07776033 0.18171254
-0.05267954 -0.10884858 -0.08287607 -0.0081155915 0.06892755 0.0002922184 0.08404212 0.047453478
0.024293516 -0.0016165146 -0.007909507 0.14011733 0.006554257 -0.023704115 0.06850219 0.07143551
0.018105265 -0.027722342 -0.0008656176 -0.006029305 0.052011687 0.12062947 0.098363206 0.007879289
0.043255832 0.14735214 -0.07532949 -0.016531972 -0.06502575 0.033239532 0.038990643 0.029669065
-0.0029245864 0.10171273 0.13198549 0.07809526 0.12432204 0.022005731 0.017022233 0.05341466
-0.07932688 0.04359905 -0.0598313 -0.13736261 0.008651395 -0.013228248 0.0053020627 -0.0021027268
-0.02345642 -0.0021072095 0.008365412 -0.014550585 -0.014729631 -0.002460484 -0.1423985 -0.02142366
-0.12372248 -0.07450859 0.013160752 0.017010672 -0.00063119194 -1.6113549e-05 -0.0058666416 -0.07634994
0.03610008 -0.04732577 -0.082637146 -0.006268554 0.01674469 -0.00809146 -0.011179638 0.009224278
-0.006729765 -0.00016807741 0.0089624915 0.02614131 -0.00022178542 0.01979835 0.033023182 0.0052264454
0.015341877 0.0028958423 0.0069644754 0.0036608675 -0.025898091 0.022439409 -0.00722583 0.01547616
-0.024372691 0.031180944 -0.0010952005 0.016783148 -7.098776e-05 -0.015780972 -0.023009283 -0.010678649
-0.0012850822 0.03802305 0.03595417 -0.001270122 0.04432759 0.012185609 -0.0013130638 -0.008159211
0.0008334942 -0.012591549 -0.040360544 -0.090383045 -0.0031137124 0.006317077 -0.0008117217 -0.011414735
0.0035774726 -0.0036875415 0.014048117 0.0049963244 -0.02093815 0.0012408039 -0.052477017 -0.010424398
-0.017631117 0.019620823 0.004500186 -0.00908925 0.006125046 -0.015115623 -0.008226217 0.006020523
0.103988014 0.029497605 0.010631193 0.05952411 -0.021498876 -0.03853079 0.0076584388 -0.1287763
-0.10725085 0.0088069495 0.16168246 -0.04120465 0.1665599 0.0151406815 0.0097385505 -0.008198923
0.010779697 0.010857301 0.021463977 -0.0247274 -0.03312235 -0.06850719 -0.011982725 0.022739582
0.04794376 -0.16077633 -0.0056311726 0.098767586 0.009643582 0.07148566 -0.045805592 0.01747898
-0.0040646913 -0.05560225 -0.16896743 0.034343336 0.0027628425 0.040214647 -0.056632876 -0.122463726
0.13850924 0.040512096 0.085405804 0.048953876 -0.098546915 0.08760365 -0.056459483 0.086940646
0.24414848 -0.055645924 0.054084707 0.09936017 -0.076302566 -0.016906038 -0.031070676 0.09167591
0.03991521 -0.17495584 0.067144014 -0.26788902 0.10274538 0.06314193 0.002318554 -0.038548313
